{"format": "graph-model", "generatedBy": "2.6.2", "convertedBy": "TensorFlow.js Converter v3.18.0", "signature": {"inputs": {"keras_layer_input": {"name": "keras_layer_input:0", "dtype": "DT_FLOAT", "tensorShape": {"dim": [{"size": "-1"}, {"size": "299"}, {"size": "299"}, {"size": "3"}]}}}, "outputs": {"dense": {"name": "Identity:0", "dtype": "DT_FLOAT", "tensorShape": {"dim": [{"size": "-1"}, {"size": "1"}]}}}}, "modelTopology": {"node": [{"name": "StatefulPartitionedCall/sequential/dense/MatMul/ReadVariableOp", "op": "Const", "attr": {"value": {"tensor": {"dtype": "DT_FLOAT", "tensorShape": {"dim": [{"size": "2048"}, {"size": "1"}]}}}, "dtype": {"type": "DT_FLOAT"}}}, {"name": "StatefulPartitionedCall/sequential/dense/BiasAdd/ReadVariableOp", "op": "Const", "attr": {"value": {"tensor": {"dtype": "DT_FLOAT", "tensorShape": {"dim": [{"size": "1"}]}}}, "dtype": {"type": "DT_FLOAT"}}}, {"name": "keras_layer_input", "op": "Placeholder", "attr": {"dtype": {"type": "DT_FLOAT"}, "shape": {"shape": {"dim": [{"size": "-1"}, {"size": "299"}, {"size": "299"}, {"size": "3"}]}}}}, {"name": "StatefulPartitionedCall/sequential/keras_layer/StatefulPartitionedCall/StatefulPartitionedCall/StatefulPartitionedCall/predict/InceptionV3/InceptionV3/Conv2d_1a_3x3/Conv2D_weights", "op": "Const", "attr": {"dtype": {"type": "DT_FLOAT"}, "value": {"tensor": {"dtype": "DT_FLOAT", "tensorShape": {"dim": [{"size": "3"}, {"size": "3"}, {"size": "3"}, {"size": "32"}]}}}}}, {"name": "StatefulPartitionedCall/sequential/keras_layer/StatefulPartitionedCall/StatefulPartitionedCall/StatefulPartitionedCall/predict/InceptionV3/InceptionV3/Conv2d_1a_3x3/Conv2D_bn_offset", "op": "Const", "attr": {"dtype": {"type": "DT_FLOAT"}, "value": {"tensor": {"dtype": "DT_FLOAT", "tensorShape": {"dim": [{"size": "32"}]}}}}}, {"name": "StatefulPartitionedCall/sequential/keras_layer/StatefulPartitionedCall/StatefulPartitionedCall/StatefulPartitionedCall/predict/InceptionV3/InceptionV3/Mixed_6d/Branch_2/Conv2d_0e_1x7/Conv2D_bn_offset", "op": "Const", "attr": {"dtype": {"type": "DT_FLOAT"}, "value": {"tensor": {"dtype": "DT_FLOAT", "tensorShape": {"dim": [{"size": "192"}]}}}}}, {"name": "StatefulPartitionedCall/sequential/keras_layer/StatefulPartitionedCall/StatefulPartitionedCall/StatefulPartitionedCall/predict/InceptionV3/InceptionV3/Conv2d_2a_3x3/Conv2D_weights", "op": "Const", "attr": {"dtype": {"type": "DT_FLOAT"}, "value": {"tensor": {"dtype": "DT_FLOAT", "tensorShape": {"dim": [{"size": "3"}, {"size": "3"}, {"size": "32"}, {"size": "32"}]}}}}}, {"name": "StatefulPartitionedCall/sequential/keras_layer/StatefulPartitionedCall/StatefulPartitionedCall/StatefulPartitionedCall/predict/InceptionV3/InceptionV3/Conv2d_2a_3x3/Conv2D_bn_offset", "op": "Const", "attr": {"dtype": {"type": "DT_FLOAT"}, "value": {"tensor": {"dtype": "DT_FLOAT", "tensorShape": {"dim": [{"size": "32"}]}}}}}, {"name": "StatefulPartitionedCall/sequential/keras_layer/StatefulPartitionedCall/StatefulPartitionedCall/StatefulPartitionedCall/predict/InceptionV3/InceptionV3/Conv2d_2b_3x3/Conv2D_weights", "op": "Const", "attr": {"dtype": {"type": "DT_FLOAT"}, "value": {"tensor": {"dtype": "DT_FLOAT", "tensorShape": {"dim": [{"size": "3"}, {"size": "3"}, {"size": "32"}, {"size": "64"}]}}}}}, {"name": "StatefulPartitionedCall/sequential/keras_layer/StatefulPartitionedCall/StatefulPartitionedCall/StatefulPartitionedCall/predict/InceptionV3/InceptionV3/Conv2d_2b_3x3/Conv2D_bn_offset", "op": "Const", "attr": {"value": {"tensor": {"dtype": "DT_FLOAT", "tensorShape": {"dim": [{"size": "64"}]}}}, "dtype": {"type": "DT_FLOAT"}}}, {"name": "StatefulPartitionedCall/sequential/keras_layer/StatefulPartitionedCall/StatefulPartitionedCall/StatefulPartitionedCall/predict/InceptionV3/InceptionV3/Conv2d_3b_1x1/Conv2D_weights", "op": "Const", "attr": {"value": {"tensor": {"dtype": "DT_FLOAT", "tensorShape": {"dim": [{"size": "1"}, {"size": "1"}, {"size": "64"}, {"size": "80"}]}}}, "dtype": {"type": "DT_FLOAT"}}}, {"name": "StatefulPartitionedCall/sequential/keras_layer/StatefulPartitionedCall/StatefulPartitionedCall/StatefulPartitionedCall/predict/InceptionV3/InceptionV3/Mixed_6e/Branch_0/Conv2d_0a_1x1/Conv2D_weights", "op": "Const", "attr": {"value": {"tensor": {"dtype": "DT_FLOAT", "tensorShape": {"dim": [{"size": "1"}, {"size": "1"}, {"size": "768"}, {"size": "192"}]}}}, "dtype": {"type": "DT_FLOAT"}}}, {"name": "StatefulPartitionedCall/sequential/keras_layer/StatefulPartitionedCall/StatefulPartitionedCall/StatefulPartitionedCall/predict/InceptionV3/InceptionV3/Conv2d_3b_1x1/Conv2D_bn_offset", "op": "Const", "attr": {"value": {"tensor": {"dtype": "DT_FLOAT", "tensorShape": {"dim": [{"size": "80"}]}}}, "dtype": {"type": "DT_FLOAT"}}}, {"name": "StatefulPartitionedCall/sequential/keras_layer/StatefulPartitionedCall/StatefulPartitionedCall/StatefulPartitionedCall/predict/InceptionV3/InceptionV3/Mixed_7b/Branch_2/Conv2d_0b_3x3/Conv2D_weights", "op": "Const", "attr": {"value": {"tensor": {"dtype": "DT_FLOAT", "tensorShape": {"dim": [{"size": "3"}, {"size": "3"}, {"size": "448"}, {"size": "384"}]}}}, "dtype": {"type": "DT_FLOAT"}}}, {"name": "StatefulPartitionedCall/sequential/keras_layer/StatefulPartitionedCall/StatefulPartitionedCall/StatefulPartitionedCall/predict/InceptionV3/InceptionV3/Conv2d_4a_3x3/Conv2D_weights", "op": "Const", "attr": {"dtype": {"type": "DT_FLOAT"}, "value": {"tensor": {"dtype": "DT_FLOAT", "tensorShape": {"dim": [{"size": "3"}, {"size": "3"}, {"size": "80"}, {"size": "192"}]}}}}}, {"name": "StatefulPartitionedCall/sequential/keras_layer/StatefulPartitionedCall/StatefulPartitionedCall/StatefulPartitionedCall/predict/InceptionV3/InceptionV3/Mixed_6e/Branch_0/Conv2d_0a_1x1/Conv2D_bn_offset", "op": "Const", "attr": {"dtype": {"type": "DT_FLOAT"}, "value": {"tensor": {"dtype": "DT_FLOAT", "tensorShape": {"dim": [{"size": "192"}]}}}}}, {"name": "StatefulPartitionedCall/sequential/keras_layer/StatefulPartitionedCall/StatefulPartitionedCall/StatefulPartitionedCall/predict/InceptionV3/InceptionV3/Conv2d_4a_3x3/Conv2D_bn_offset", "op": "Const", "attr": {"value": {"tensor": {"dtype": "DT_FLOAT", "tensorShape": {"dim": [{"size": "192"}]}}}, "dtype": {"type": "DT_FLOAT"}}}, {"name": "StatefulPartitionedCall/sequential/keras_layer/StatefulPartitionedCall/StatefulPartitionedCall/StatefulPartitionedCall/predict/InceptionV3/InceptionV3/Mixed_7c/Branch_1/Conv2d_0c_3x1/Conv2D_bn_offset", "op": "Const", "attr": {"dtype": {"type": "DT_FLOAT"}, "value": {"tensor": {"dtype": "DT_FLOAT", "tensorShape": {"dim": [{"size": "384"}]}}}}}, {"name": "StatefulPartitionedCall/sequential/keras_layer/StatefulPartitionedCall/StatefulPartitionedCall/StatefulPartitionedCall/predict/InceptionV3/InceptionV3/Mixed_5b/Branch_0/Conv2d_0a_1x1/Conv2D_weights", "op": "Const", "attr": {"value": {"tensor": {"dtype": "DT_FLOAT", "tensorShape": {"dim": [{"size": "1"}, {"size": "1"}, {"size": "192"}, {"size": "64"}]}}}, "dtype": {"type": "DT_FLOAT"}}}, {"name": "StatefulPartitionedCall/sequential/keras_layer/StatefulPartitionedCall/StatefulPartitionedCall/StatefulPartitionedCall/predict/InceptionV3/InceptionV3/Mixed_5b/Branch_0/Conv2d_0a_1x1/Conv2D_bn_offset", "op": "Const", "attr": {"dtype": {"type": "DT_FLOAT"}, "value": {"tensor": {"dtype": "DT_FLOAT", "tensorShape": {"dim": [{"size": "64"}]}}}}}, {"name": "StatefulPartitionedCall/sequential/keras_layer/StatefulPartitionedCall/StatefulPartitionedCall/StatefulPartitionedCall/predict/InceptionV3/InceptionV3/Mixed_6e/Branch_1/Conv2d_0a_1x1/Conv2D_weights", "op": "Const", "attr": {"dtype": {"type": "DT_FLOAT"}, "value": {"tensor": {"dtype": "DT_FLOAT", "tensorShape": {"dim": [{"size": "1"}, {"size": "1"}, {"size": "768"}, {"size": "192"}]}}}}}, {"name": "StatefulPartitionedCall/sequential/keras_layer/StatefulPartitionedCall/StatefulPartitionedCall/StatefulPartitionedCall/predict/InceptionV3/InceptionV3/Mixed_5b/Branch_1/Conv2d_0a_1x1/Conv2D_weights", "op": "Const", "attr": {"dtype": {"type": "DT_FLOAT"}, "value": {"tensor": {"dtype": "DT_FLOAT", "tensorShape": {"dim": [{"size": "1"}, {"size": "1"}, {"size": "192"}, {"size": "48"}]}}}}}, {"name": "StatefulPartitionedCall/sequential/keras_layer/StatefulPartitionedCall/StatefulPartitionedCall/StatefulPartitionedCall/predict/InceptionV3/InceptionV3/Mixed_7b/Branch_2/Conv2d_0b_3x3/Conv2D_bn_offset", "op": "Const", "attr": {"dtype": {"type": "DT_FLOAT"}, "value": {"tensor": {"dtype": "DT_FLOAT", "tensorShape": {"dim": [{"size": "384"}]}}}}}, {"name": "StatefulPartitionedCall/sequential/keras_layer/StatefulPartitionedCall/StatefulPartitionedCall/StatefulPartitionedCall/predict/InceptionV3/InceptionV3/Mixed_5b/Branch_1/Conv2d_0a_1x1/Conv2D_bn_offset", "op": "Const", "attr": {"value": {"tensor": {"dtype": "DT_FLOAT", "tensorShape": {"dim": [{"size": "48"}]}}}, "dtype": {"type": "DT_FLOAT"}}}, {"name": "StatefulPartitionedCall/sequential/keras_layer/StatefulPartitionedCall/StatefulPartitionedCall/StatefulPartitionedCall/predict/InceptionV3/InceptionV3/Mixed_6e/Branch_1/Conv2d_0a_1x1/Conv2D_bn_offset", "op": "Const", "attr": {"dtype": {"type": "DT_FLOAT"}, "value": {"tensor": {"dtype": "DT_FLOAT", "tensorShape": {"dim": [{"size": "192"}]}}}}}, {"name": "StatefulPartitionedCall/sequential/keras_layer/StatefulPartitionedCall/StatefulPartitionedCall/StatefulPartitionedCall/predict/InceptionV3/InceptionV3/Mixed_5b/Branch_2/Conv2d_0a_1x1/Conv2D_weights", "op": "Const", "attr": {"value": {"tensor": {"dtype": "DT_FLOAT", "tensorShape": {"dim": [{"size": "1"}, {"size": "1"}, {"size": "192"}, {"size": "64"}]}}}, "dtype": {"type": "DT_FLOAT"}}}, {"name": "StatefulPartitionedCall/sequential/keras_layer/StatefulPartitionedCall/StatefulPartitionedCall/StatefulPartitionedCall/predict/InceptionV3/InceptionV3/Mixed_5b/Branch_2/Conv2d_0a_1x1/Conv2D_bn_offset", "op": "Const", "attr": {"value": {"tensor": {"dtype": "DT_FLOAT", "tensorShape": {"dim": [{"size": "64"}]}}}, "dtype": {"type": "DT_FLOAT"}}}, {"name": "StatefulPartitionedCall/sequential/keras_layer/StatefulPartitionedCall/StatefulPartitionedCall/StatefulPartitionedCall/predict/InceptionV3/InceptionV3/Mixed_5b/Branch_3/Conv2d_0b_1x1/Conv2D_weights", "op": "Const", "attr": {"dtype": {"type": "DT_FLOAT"}, "value": {"tensor": {"dtype": "DT_FLOAT", "tensorShape": {"dim": [{"size": "1"}, {"size": "1"}, {"size": "192"}, {"size": "32"}]}}}}}, {"name": "StatefulPartitionedCall/sequential/keras_layer/StatefulPartitionedCall/StatefulPartitionedCall/StatefulPartitionedCall/predict/InceptionV3/InceptionV3/Mixed_6e/Branch_2/Conv2d_0a_1x1/Conv2D_weights", "op": "Const", "attr": {"value": {"tensor": {"dtype": "DT_FLOAT", "tensorShape": {"dim": [{"size": "1"}, {"size": "1"}, {"size": "768"}, {"size": "192"}]}}}, "dtype": {"type": "DT_FLOAT"}}}, {"name": "StatefulPartitionedCall/sequential/keras_layer/StatefulPartitionedCall/StatefulPartitionedCall/StatefulPartitionedCall/predict/InceptionV3/InceptionV3/Mixed_5b/Branch_3/Conv2d_0b_1x1/Conv2D_bn_offset", "op": "Const", "attr": {"dtype": {"type": "DT_FLOAT"}, "value": {"tensor": {"dtype": "DT_FLOAT", "tensorShape": {"dim": [{"size": "32"}]}}}}}, {"name": "StatefulPartitionedCall/sequential/keras_layer/StatefulPartitionedCall/StatefulPartitionedCall/StatefulPartitionedCall/predict/InceptionV3/InceptionV3/Mixed_5b/Branch_1/Conv2d_0b_5x5/Conv2D_weights", "op": "Const", "attr": {"dtype": {"type": "DT_FLOAT"}, "value": {"tensor": {"dtype": "DT_FLOAT", "tensorShape": {"dim": [{"size": "5"}, {"size": "5"}, {"size": "48"}, {"size": "64"}]}}}}}, {"name": "StatefulPartitionedCall/sequential/keras_layer/StatefulPartitionedCall/StatefulPartitionedCall/StatefulPartitionedCall/predict/InceptionV3/InceptionV3/Mixed_6e/Branch_2/Conv2d_0a_1x1/Conv2D_bn_offset", "op": "Const", "attr": {"value": {"tensor": {"dtype": "DT_FLOAT", "tensorShape": {"dim": [{"size": "192"}]}}}, "dtype": {"type": "DT_FLOAT"}}}, {"name": "StatefulPartitionedCall/sequential/keras_layer/StatefulPartitionedCall/StatefulPartitionedCall/StatefulPartitionedCall/predict/InceptionV3/InceptionV3/Mixed_5b/Branch_1/Conv2d_0b_5x5/Conv2D_bn_offset", "op": "Const", "attr": {"value": {"tensor": {"dtype": "DT_FLOAT", "tensorShape": {"dim": [{"size": "64"}]}}}, "dtype": {"type": "DT_FLOAT"}}}, {"name": "StatefulPartitionedCall/sequential/keras_layer/StatefulPartitionedCall/StatefulPartitionedCall/StatefulPartitionedCall/predict/InceptionV3/InceptionV3/Mixed_7b/Branch_2/Conv2d_0c_1x3/Conv2D_weights", "op": "Const", "attr": {"value": {"tensor": {"dtype": "DT_FLOAT", "tensorShape": {"dim": [{"size": "1"}, {"size": "3"}, {"size": "384"}, {"size": "384"}]}}}, "dtype": {"type": "DT_FLOAT"}}}, {"name": "StatefulPartitionedCall/sequential/keras_layer/StatefulPartitionedCall/StatefulPartitionedCall/StatefulPartitionedCall/predict/InceptionV3/InceptionV3/Mixed_5b/Branch_2/Conv2d_0b_3x3/Conv2D_weights", "op": "Const", "attr": {"value": {"tensor": {"dtype": "DT_FLOAT", "tensorShape": {"dim": [{"size": "3"}, {"size": "3"}, {"size": "64"}, {"size": "96"}]}}}, "dtype": {"type": "DT_FLOAT"}}}, {"name": "StatefulPartitionedCall/sequential/keras_layer/StatefulPartitionedCall/StatefulPartitionedCall/StatefulPartitionedCall/predict/InceptionV3/InceptionV3/Mixed_5b/Branch_2/Conv2d_0b_3x3/Conv2D_bn_offset", "op": "Const", "attr": {"dtype": {"type": "DT_FLOAT"}, "value": {"tensor": {"dtype": "DT_FLOAT", "tensorShape": {"dim": [{"size": "96"}]}}}}}, {"name": "StatefulPartitionedCall/sequential/keras_layer/StatefulPartitionedCall/StatefulPartitionedCall/StatefulPartitionedCall/predict/InceptionV3/InceptionV3/Mixed_6e/Branch_3/Conv2d_0b_1x1/Conv2D_weights", "op": "Const", "attr": {"dtype": {"type": "DT_FLOAT"}, "value": {"tensor": {"dtype": "DT_FLOAT", "tensorShape": {"dim": [{"size": "1"}, {"size": "1"}, {"size": "768"}, {"size": "192"}]}}}}}, {"name": "StatefulPartitionedCall/sequential/keras_layer/StatefulPartitionedCall/StatefulPartitionedCall/StatefulPartitionedCall/predict/InceptionV3/InceptionV3/Mixed_5b/Branch_2/Conv2d_0c_3x3/Conv2D_weights", "op": "Const", "attr": {"dtype": {"type": "DT_FLOAT"}, "value": {"tensor": {"dtype": "DT_FLOAT", "tensorShape": {"dim": [{"size": "3"}, {"size": "3"}, {"size": "96"}, {"size": "96"}]}}}}}, {"name": "StatefulPartitionedCall/sequential/keras_layer/StatefulPartitionedCall/StatefulPartitionedCall/StatefulPartitionedCall/predict/InceptionV3/InceptionV3/Mixed_5b/Branch_2/Conv2d_0c_3x3/Conv2D_bn_offset", "op": "Const", "attr": {"value": {"tensor": {"dtype": "DT_FLOAT", "tensorShape": {"dim": [{"size": "96"}]}}}, "dtype": {"type": "DT_FLOAT"}}}, {"name": "StatefulPartitionedCall/sequential/keras_layer/StatefulPartitionedCall/StatefulPartitionedCall/StatefulPartitionedCall/predict/InceptionV3/InceptionV3/Mixed_6e/Branch_3/Conv2d_0b_1x1/Conv2D_bn_offset", "op": "Const", "attr": {"dtype": {"type": "DT_FLOAT"}, "value": {"tensor": {"dtype": "DT_FLOAT", "tensorShape": {"dim": [{"size": "192"}]}}}}}, {"name": "StatefulPartitionedCall/sequential/keras_layer/StatefulPartitionedCall/StatefulPartitionedCall/StatefulPartitionedCall/predict/InceptionV3/InceptionV3/Mixed_5c/Branch_0/Conv2d_0a_1x1/Conv2D_weights", "op": "Const", "attr": {"value": {"tensor": {"dtype": "DT_FLOAT", "tensorShape": {"dim": [{"size": "1"}, {"size": "1"}, {"size": "256"}, {"size": "64"}]}}}, "dtype": {"type": "DT_FLOAT"}}}, {"name": "StatefulPartitionedCall/sequential/keras_layer/StatefulPartitionedCall/StatefulPartitionedCall/StatefulPartitionedCall/predict/InceptionV3/InceptionV3/Mixed_7b/Branch_2/Conv2d_0c_1x3/Conv2D_bn_offset", "op": "Const", "attr": {"dtype": {"type": "DT_FLOAT"}, "value": {"tensor": {"dtype": "DT_FLOAT", "tensorShape": {"dim": [{"size": "384"}]}}}}}, {"name": "StatefulPartitionedCall/sequential/keras_layer/StatefulPartitionedCall/StatefulPartitionedCall/StatefulPartitionedCall/predict/InceptionV3/InceptionV3/Mixed_5c/Branch_0/Conv2d_0a_1x1/Conv2D_bn_offset", "op": "Const", "attr": {"dtype": {"type": "DT_FLOAT"}, "value": {"tensor": {"dtype": "DT_FLOAT", "tensorShape": {"dim": [{"size": "64"}]}}}}}, {"name": "StatefulPartitionedCall/sequential/keras_layer/StatefulPartitionedCall/StatefulPartitionedCall/StatefulPartitionedCall/predict/InceptionV3/InceptionV3/Mixed_5c/Branch_1/Conv2d_0b_1x1/Conv2D_weights", "op": "Const", "attr": {"value": {"tensor": {"dtype": "DT_FLOAT", "tensorShape": {"dim": [{"size": "1"}, {"size": "1"}, {"size": "256"}, {"size": "48"}]}}}, "dtype": {"type": "DT_FLOAT"}}}, {"name": "StatefulPartitionedCall/sequential/keras_layer/StatefulPartitionedCall/StatefulPartitionedCall/StatefulPartitionedCall/predict/InceptionV3/InceptionV3/Mixed_6e/Branch_1/Conv2d_0b_1x7/Conv2D_weights", "op": "Const", "attr": {"dtype": {"type": "DT_FLOAT"}, "value": {"tensor": {"dtype": "DT_FLOAT", "tensorShape": {"dim": [{"size": "1"}, {"size": "7"}, {"size": "192"}, {"size": "192"}]}}}}}, {"name": "StatefulPartitionedCall/sequential/keras_layer/StatefulPartitionedCall/StatefulPartitionedCall/StatefulPartitionedCall/predict/InceptionV3/InceptionV3/Mixed_5c/Branch_1/Conv2d_0b_1x1/Conv2D_bn_offset", "op": "Const", "attr": {"dtype": {"type": "DT_FLOAT"}, "value": {"tensor": {"dtype": "DT_FLOAT", "tensorShape": {"dim": [{"size": "48"}]}}}}}, {"name": "StatefulPartitionedCall/sequential/keras_layer/StatefulPartitionedCall/StatefulPartitionedCall/StatefulPartitionedCall/predict/InceptionV3/InceptionV3/Mixed_7c/Branch_2/Conv2d_0b_3x3/Conv2D_weights", "op": "Const", "attr": {"dtype": {"type": "DT_FLOAT"}, "value": {"tensor": {"dtype": "DT_FLOAT", "tensorShape": {"dim": [{"size": "3"}, {"size": "3"}, {"size": "448"}, {"size": "384"}]}}}}}, {"name": "StatefulPartitionedCall/sequential/keras_layer/StatefulPartitionedCall/StatefulPartitionedCall/StatefulPartitionedCall/predict/InceptionV3/InceptionV3/Mixed_5c/Branch_2/Conv2d_0a_1x1/Conv2D_weights", "op": "Const", "attr": {"value": {"tensor": {"dtype": "DT_FLOAT", "tensorShape": {"dim": [{"size": "1"}, {"size": "1"}, {"size": "256"}, {"size": "64"}]}}}, "dtype": {"type": "DT_FLOAT"}}}, {"name": "StatefulPartitionedCall/sequential/keras_layer/StatefulPartitionedCall/StatefulPartitionedCall/StatefulPartitionedCall/predict/InceptionV3/InceptionV3/Mixed_6e/Branch_1/Conv2d_0b_1x7/Conv2D_bn_offset", "op": "Const", "attr": {"dtype": {"type": "DT_FLOAT"}, "value": {"tensor": {"dtype": "DT_FLOAT", "tensorShape": {"dim": [{"size": "192"}]}}}}}, {"name": "StatefulPartitionedCall/sequential/keras_layer/StatefulPartitionedCall/StatefulPartitionedCall/StatefulPartitionedCall/predict/InceptionV3/InceptionV3/Mixed_5c/Branch_2/Conv2d_0a_1x1/Conv2D_bn_offset", "op": "Const", "attr": {"dtype": {"type": "DT_FLOAT"}, "value": {"tensor": {"dtype": "DT_FLOAT", "tensorShape": {"dim": [{"size": "64"}]}}}}}, {"name": "StatefulPartitionedCall/sequential/keras_layer/StatefulPartitionedCall/StatefulPartitionedCall/StatefulPartitionedCall/predict/InceptionV3/InceptionV3/Mixed_5c/Branch_3/Conv2d_0b_1x1/Conv2D_weights", "op": "Const", "attr": {"dtype": {"type": "DT_FLOAT"}, "value": {"tensor": {"dtype": "DT_FLOAT", "tensorShape": {"dim": [{"size": "1"}, {"size": "1"}, {"size": "256"}, {"size": "64"}]}}}}}, {"name": "StatefulPartitionedCall/sequential/keras_layer/StatefulPartitionedCall/StatefulPartitionedCall/StatefulPartitionedCall/predict/InceptionV3/InceptionV3/Mixed_5c/Branch_3/Conv2d_0b_1x1/Conv2D_bn_offset", "op": "Const", "attr": {"value": {"tensor": {"dtype": "DT_FLOAT", "tensorShape": {"dim": [{"size": "64"}]}}}, "dtype": {"type": "DT_FLOAT"}}}, {"name": "StatefulPartitionedCall/sequential/keras_layer/StatefulPartitionedCall/StatefulPartitionedCall/StatefulPartitionedCall/predict/InceptionV3/InceptionV3/Mixed_6e/Branch_2/Conv2d_0b_7x1/Conv2D_weights", "op": "Const", "attr": {"value": {"tensor": {"dtype": "DT_FLOAT", "tensorShape": {"dim": [{"size": "7"}, {"size": "1"}, {"size": "192"}, {"size": "192"}]}}}, "dtype": {"type": "DT_FLOAT"}}}, {"name": "StatefulPartitionedCall/sequential/keras_layer/StatefulPartitionedCall/StatefulPartitionedCall/StatefulPartitionedCall/predict/InceptionV3/InceptionV3/Mixed_5c/Branch_1/Conv_1_0c_5x5/Conv2D_weights", "op": "Const", "attr": {"dtype": {"type": "DT_FLOAT"}, "value": {"tensor": {"dtype": "DT_FLOAT", "tensorShape": {"dim": [{"size": "5"}, {"size": "5"}, {"size": "48"}, {"size": "64"}]}}}}}, {"name": "StatefulPartitionedCall/sequential/keras_layer/StatefulPartitionedCall/StatefulPartitionedCall/StatefulPartitionedCall/predict/InceptionV3/InceptionV3/Mixed_7b/Branch_2/Conv2d_0d_3x1/Conv2D_weights", "op": "Const", "attr": {"dtype": {"type": "DT_FLOAT"}, "value": {"tensor": {"dtype": "DT_FLOAT", "tensorShape": {"dim": [{"size": "3"}, {"size": "1"}, {"size": "384"}, {"size": "384"}]}}}}}, {"name": "StatefulPartitionedCall/sequential/keras_layer/StatefulPartitionedCall/StatefulPartitionedCall/StatefulPartitionedCall/predict/InceptionV3/InceptionV3/Mixed_5c/Branch_1/Conv_1_0c_5x5/Conv2D_bn_offset", "op": "Const", "attr": {"dtype": {"type": "DT_FLOAT"}, "value": {"tensor": {"dtype": "DT_FLOAT", "tensorShape": {"dim": [{"size": "64"}]}}}}}, {"name": "StatefulPartitionedCall/sequential/keras_layer/StatefulPartitionedCall/StatefulPartitionedCall/StatefulPartitionedCall/predict/InceptionV3/InceptionV3/Mixed_6e/Branch_2/Conv2d_0b_7x1/Conv2D_bn_offset", "op": "Const", "attr": {"value": {"tensor": {"dtype": "DT_FLOAT", "tensorShape": {"dim": [{"size": "192"}]}}}, "dtype": {"type": "DT_FLOAT"}}}, {"name": "StatefulPartitionedCall/sequential/keras_layer/StatefulPartitionedCall/StatefulPartitionedCall/StatefulPartitionedCall/predict/InceptionV3/InceptionV3/Mixed_5c/Branch_2/Conv2d_0b_3x3/Conv2D_weights", "op": "Const", "attr": {"dtype": {"type": "DT_FLOAT"}, "value": {"tensor": {"dtype": "DT_FLOAT", "tensorShape": {"dim": [{"size": "3"}, {"size": "3"}, {"size": "64"}, {"size": "96"}]}}}}}, {"name": "StatefulPartitionedCall/sequential/keras_layer/StatefulPartitionedCall/StatefulPartitionedCall/StatefulPartitionedCall/predict/InceptionV3/InceptionV3/Mixed_5c/Branch_2/Conv2d_0b_3x3/Conv2D_bn_offset", "op": "Const", "attr": {"dtype": {"type": "DT_FLOAT"}, "value": {"tensor": {"dtype": "DT_FLOAT", "tensorShape": {"dim": [{"size": "96"}]}}}}}, {"name": "StatefulPartitionedCall/sequential/keras_layer/StatefulPartitionedCall/StatefulPartitionedCall/StatefulPartitionedCall/predict/InceptionV3/InceptionV3/Mixed_5c/Branch_2/Conv2d_0c_3x3/Conv2D_weights", "op": "Const", "attr": {"dtype": {"type": "DT_FLOAT"}, "value": {"tensor": {"dtype": "DT_FLOAT", "tensorShape": {"dim": [{"size": "3"}, {"size": "3"}, {"size": "96"}, {"size": "96"}]}}}}}, {"name": "StatefulPartitionedCall/sequential/keras_layer/StatefulPartitionedCall/StatefulPartitionedCall/StatefulPartitionedCall/predict/InceptionV3/InceptionV3/Mixed_6e/Branch_1/Conv2d_0c_7x1/Conv2D_weights", "op": "Const", "attr": {"value": {"tensor": {"dtype": "DT_FLOAT", "tensorShape": {"dim": [{"size": "7"}, {"size": "1"}, {"size": "192"}, {"size": "192"}]}}}, "dtype": {"type": "DT_FLOAT"}}}, {"name": "StatefulPartitionedCall/sequential/keras_layer/StatefulPartitionedCall/StatefulPartitionedCall/StatefulPartitionedCall/predict/InceptionV3/InceptionV3/Mixed_5c/Branch_2/Conv2d_0c_3x3/Conv2D_bn_offset", "op": "Const", "attr": {"value": {"tensor": {"dtype": "DT_FLOAT", "tensorShape": {"dim": [{"size": "96"}]}}}, "dtype": {"type": "DT_FLOAT"}}}, {"name": "StatefulPartitionedCall/sequential/keras_layer/StatefulPartitionedCall/StatefulPartitionedCall/StatefulPartitionedCall/predict/InceptionV3/InceptionV3/Mixed_7b/Branch_2/Conv2d_0d_3x1/Conv2D_bn_offset", "op": "Const", "attr": {"dtype": {"type": "DT_FLOAT"}, "value": {"tensor": {"dtype": "DT_FLOAT", "tensorShape": {"dim": [{"size": "384"}]}}}}}, {"name": "StatefulPartitionedCall/sequential/keras_layer/StatefulPartitionedCall/StatefulPartitionedCall/StatefulPartitionedCall/predict/InceptionV3/InceptionV3/Mixed_5d/Branch_0/Conv2d_0a_1x1/Conv2D_weights", "op": "Const", "attr": {"dtype": {"type": "DT_FLOAT"}, "value": {"tensor": {"dtype": "DT_FLOAT", "tensorShape": {"dim": [{"size": "1"}, {"size": "1"}, {"size": "288"}, {"size": "64"}]}}}}}, {"name": "StatefulPartitionedCall/sequential/keras_layer/StatefulPartitionedCall/StatefulPartitionedCall/StatefulPartitionedCall/predict/InceptionV3/InceptionV3/Mixed_6e/Branch_1/Conv2d_0c_7x1/Conv2D_bn_offset", "op": "Const", "attr": {"dtype": {"type": "DT_FLOAT"}, "value": {"tensor": {"dtype": "DT_FLOAT", "tensorShape": {"dim": [{"size": "192"}]}}}}}, {"name": "StatefulPartitionedCall/sequential/keras_layer/StatefulPartitionedCall/StatefulPartitionedCall/StatefulPartitionedCall/predict/InceptionV3/InceptionV3/Mixed_5d/Branch_0/Conv2d_0a_1x1/Conv2D_bn_offset", "op": "Const", "attr": {"dtype": {"type": "DT_FLOAT"}, "value": {"tensor": {"dtype": "DT_FLOAT", "tensorShape": {"dim": [{"size": "64"}]}}}}}, {"name": "StatefulPartitionedCall/sequential/keras_layer/StatefulPartitionedCall/StatefulPartitionedCall/StatefulPartitionedCall/predict/InceptionV3/InceptionV3/Mixed_7c/Branch_2/Conv2d_0b_3x3/Conv2D_bn_offset", "op": "Const", "attr": {"dtype": {"type": "DT_FLOAT"}, "value": {"tensor": {"dtype": "DT_FLOAT", "tensorShape": {"dim": [{"size": "384"}]}}}}}, {"name": "StatefulPartitionedCall/sequential/keras_layer/StatefulPartitionedCall/StatefulPartitionedCall/StatefulPartitionedCall/predict/InceptionV3/InceptionV3/Mixed_5d/Branch_1/Conv2d_0a_1x1/Conv2D_weights", "op": "Const", "attr": {"dtype": {"type": "DT_FLOAT"}, "value": {"tensor": {"dtype": "DT_FLOAT", "tensorShape": {"dim": [{"size": "1"}, {"size": "1"}, {"size": "288"}, {"size": "48"}]}}}}}, {"name": "StatefulPartitionedCall/sequential/keras_layer/StatefulPartitionedCall/StatefulPartitionedCall/StatefulPartitionedCall/predict/InceptionV3/InceptionV3/Mixed_5d/Branch_1/Conv2d_0a_1x1/Conv2D_bn_offset", "op": "Const", "attr": {"dtype": {"type": "DT_FLOAT"}, "value": {"tensor": {"dtype": "DT_FLOAT", "tensorShape": {"dim": [{"size": "48"}]}}}}}, {"name": "StatefulPartitionedCall/sequential/keras_layer/StatefulPartitionedCall/StatefulPartitionedCall/StatefulPartitionedCall/predict/InceptionV3/InceptionV3/Mixed_6e/Branch_2/Conv2d_0c_1x7/Conv2D_weights", "op": "Const", "attr": {"value": {"tensor": {"dtype": "DT_FLOAT", "tensorShape": {"dim": [{"size": "1"}, {"size": "7"}, {"size": "192"}, {"size": "192"}]}}}, "dtype": {"type": "DT_FLOAT"}}}, {"name": "StatefulPartitionedCall/sequential/keras_layer/StatefulPartitionedCall/StatefulPartitionedCall/StatefulPartitionedCall/predict/InceptionV3/InceptionV3/Mixed_5d/Branch_2/Conv2d_0a_1x1/Conv2D_weights", "op": "Const", "attr": {"dtype": {"type": "DT_FLOAT"}, "value": {"tensor": {"dtype": "DT_FLOAT", "tensorShape": {"dim": [{"size": "1"}, {"size": "1"}, {"size": "288"}, {"size": "64"}]}}}}}, {"name": "StatefulPartitionedCall/sequential/keras_layer/StatefulPartitionedCall/StatefulPartitionedCall/StatefulPartitionedCall/predict/InceptionV3/InceptionV3/Mixed_5d/Branch_2/Conv2d_0a_1x1/Conv2D_bn_offset", "op": "Const", "attr": {"value": {"tensor": {"dtype": "DT_FLOAT", "tensorShape": {"dim": [{"size": "64"}]}}}, "dtype": {"type": "DT_FLOAT"}}}, {"name": "StatefulPartitionedCall/sequential/keras_layer/StatefulPartitionedCall/StatefulPartitionedCall/StatefulPartitionedCall/predict/InceptionV3/InceptionV3/Mixed_6e/Branch_2/Conv2d_0c_1x7/Conv2D_bn_offset", "op": "Const", "attr": {"value": {"tensor": {"dtype": "DT_FLOAT", "tensorShape": {"dim": [{"size": "192"}]}}}, "dtype": {"type": "DT_FLOAT"}}}, {"name": "StatefulPartitionedCall/sequential/keras_layer/StatefulPartitionedCall/StatefulPartitionedCall/StatefulPartitionedCall/predict/InceptionV3/InceptionV3/Mixed_5d/Branch_3/Conv2d_0b_1x1/Conv2D_weights", "op": "Const", "attr": {"dtype": {"type": "DT_FLOAT"}, "value": {"tensor": {"dtype": "DT_FLOAT", "tensorShape": {"dim": [{"size": "1"}, {"size": "1"}, {"size": "288"}, {"size": "64"}]}}}}}, {"name": "StatefulPartitionedCall/sequential/keras_layer/StatefulPartitionedCall/StatefulPartitionedCall/StatefulPartitionedCall/predict/InceptionV3/InceptionV3/Mixed_5d/Branch_3/Conv2d_0b_1x1/Conv2D_bn_offset", "op": "Const", "attr": {"value": {"tensor": {"dtype": "DT_FLOAT", "tensorShape": {"dim": [{"size": "64"}]}}}, "dtype": {"type": "DT_FLOAT"}}}, {"name": "StatefulPartitionedCall/sequential/keras_layer/StatefulPartitionedCall/StatefulPartitionedCall/StatefulPartitionedCall/predict/InceptionV3/InceptionV3/Mixed_5d/Branch_1/Conv2d_0b_5x5/Conv2D_weights", "op": "Const", "attr": {"dtype": {"type": "DT_FLOAT"}, "value": {"tensor": {"dtype": "DT_FLOAT", "tensorShape": {"dim": [{"size": "5"}, {"size": "5"}, {"size": "48"}, {"size": "64"}]}}}}}, {"name": "StatefulPartitionedCall/sequential/keras_layer/StatefulPartitionedCall/StatefulPartitionedCall/StatefulPartitionedCall/predict/InceptionV3/InceptionV3/Mixed_6e/Branch_2/Conv2d_0d_7x1/Conv2D_weights", "op": "Const", "attr": {"value": {"tensor": {"dtype": "DT_FLOAT", "tensorShape": {"dim": [{"size": "7"}, {"size": "1"}, {"size": "192"}, {"size": "192"}]}}}, "dtype": {"type": "DT_FLOAT"}}}, {"name": "StatefulPartitionedCall/sequential/keras_layer/StatefulPartitionedCall/StatefulPartitionedCall/StatefulPartitionedCall/predict/InceptionV3/InceptionV3/Mixed_5d/Branch_1/Conv2d_0b_5x5/Conv2D_bn_offset", "op": "Const", "attr": {"dtype": {"type": "DT_FLOAT"}, "value": {"tensor": {"dtype": "DT_FLOAT", "tensorShape": {"dim": [{"size": "64"}]}}}}}, {"name": "StatefulPartitionedCall/sequential/keras_layer/StatefulPartitionedCall/StatefulPartitionedCall/StatefulPartitionedCall/predict/InceptionV3/InceptionV3/Mixed_5d/Branch_2/Conv2d_0b_3x3/Conv2D_weights", "op": "Const", "attr": {"dtype": {"type": "DT_FLOAT"}, "value": {"tensor": {"dtype": "DT_FLOAT", "tensorShape": {"dim": [{"size": "3"}, {"size": "3"}, {"size": "64"}, {"size": "96"}]}}}}}, {"name": "StatefulPartitionedCall/sequential/keras_layer/StatefulPartitionedCall/StatefulPartitionedCall/StatefulPartitionedCall/predict/InceptionV3/InceptionV3/Mixed_6e/Branch_2/Conv2d_0d_7x1/Conv2D_bn_offset", "op": "Const", "attr": {"value": {"tensor": {"dtype": "DT_FLOAT", "tensorShape": {"dim": [{"size": "192"}]}}}, "dtype": {"type": "DT_FLOAT"}}}, {"name": "StatefulPartitionedCall/sequential/keras_layer/StatefulPartitionedCall/StatefulPartitionedCall/StatefulPartitionedCall/predict/InceptionV3/InceptionV3/Mixed_5d/Branch_2/Conv2d_0b_3x3/Conv2D_bn_offset", "op": "Const", "attr": {"value": {"tensor": {"dtype": "DT_FLOAT", "tensorShape": {"dim": [{"size": "96"}]}}}, "dtype": {"type": "DT_FLOAT"}}}, {"name": "StatefulPartitionedCall/sequential/keras_layer/StatefulPartitionedCall/StatefulPartitionedCall/StatefulPartitionedCall/predict/InceptionV3/InceptionV3/Mixed_7c/Branch_0/Conv2d_0a_1x1/Conv2D_weights", "op": "Const", "attr": {"value": {"tensor": {"dtype": "DT_FLOAT", "tensorShape": {"dim": [{"size": "1"}, {"size": "1"}, {"size": "2048"}, {"size": "320"}]}}}, "dtype": {"type": "DT_FLOAT"}}}, {"name": "StatefulPartitionedCall/sequential/keras_layer/StatefulPartitionedCall/StatefulPartitionedCall/StatefulPartitionedCall/predict/InceptionV3/InceptionV3/Mixed_5d/Branch_2/Conv2d_0c_3x3/Conv2D_weights", "op": "Const", "attr": {"value": {"tensor": {"dtype": "DT_FLOAT", "tensorShape": {"dim": [{"size": "3"}, {"size": "3"}, {"size": "96"}, {"size": "96"}]}}}, "dtype": {"type": "DT_FLOAT"}}}, {"name": "StatefulPartitionedCall/sequential/keras_layer/StatefulPartitionedCall/StatefulPartitionedCall/StatefulPartitionedCall/predict/InceptionV3/InceptionV3/Mixed_5d/Branch_2/Conv2d_0c_3x3/Conv2D_bn_offset", "op": "Const", "attr": {"value": {"tensor": {"dtype": "DT_FLOAT", "tensorShape": {"dim": [{"size": "96"}]}}}, "dtype": {"type": "DT_FLOAT"}}}, {"name": "StatefulPartitionedCall/sequential/keras_layer/StatefulPartitionedCall/StatefulPartitionedCall/StatefulPartitionedCall/predict/InceptionV3/InceptionV3/Mixed_6e/Branch_2/Conv2d_0e_1x7/Conv2D_weights", "op": "Const", "attr": {"value": {"tensor": {"dtype": "DT_FLOAT", "tensorShape": {"dim": [{"size": "1"}, {"size": "7"}, {"size": "192"}, {"size": "192"}]}}}, "dtype": {"type": "DT_FLOAT"}}}, {"name": "StatefulPartitionedCall/sequential/keras_layer/StatefulPartitionedCall/StatefulPartitionedCall/StatefulPartitionedCall/predict/InceptionV3/InceptionV3/Mixed_6a/Branch_0/Conv2d_1a_1x1/Conv2D_weights", "op": "Const", "attr": {"value": {"tensor": {"dtype": "DT_FLOAT", "tensorShape": {"dim": [{"size": "3"}, {"size": "3"}, {"size": "288"}, {"size": "384"}]}}}, "dtype": {"type": "DT_FLOAT"}}}, {"name": "StatefulPartitionedCall/sequential/keras_layer/StatefulPartitionedCall/StatefulPartitionedCall/StatefulPartitionedCall/predict/InceptionV3/InceptionV3/Mixed_6a/Branch_0/Conv2d_1a_1x1/Conv2D_bn_offset", "op": "Const", "attr": {"value": {"tensor": {"dtype": "DT_FLOAT", "tensorShape": {"dim": [{"size": "384"}]}}}, "dtype": {"type": "DT_FLOAT"}}}, {"name": "StatefulPartitionedCall/sequential/keras_layer/StatefulPartitionedCall/StatefulPartitionedCall/StatefulPartitionedCall/predict/InceptionV3/InceptionV3/Mixed_6e/Branch_2/Conv2d_0e_1x7/Conv2D_bn_offset", "op": "Const", "attr": {"dtype": {"type": "DT_FLOAT"}, "value": {"tensor": {"dtype": "DT_FLOAT", "tensorShape": {"dim": [{"size": "192"}]}}}}}, {"name": "StatefulPartitionedCall/sequential/keras_layer/StatefulPartitionedCall/StatefulPartitionedCall/StatefulPartitionedCall/predict/InceptionV3/InceptionV3/Mixed_6a/Branch_1/Conv2d_0a_1x1/Conv2D_weights", "op": "Const", "attr": {"value": {"tensor": {"dtype": "DT_FLOAT", "tensorShape": {"dim": [{"size": "1"}, {"size": "1"}, {"size": "288"}, {"size": "64"}]}}}, "dtype": {"type": "DT_FLOAT"}}}, {"name": "StatefulPartitionedCall/sequential/keras_layer/StatefulPartitionedCall/StatefulPartitionedCall/StatefulPartitionedCall/predict/InceptionV3/InceptionV3/Mixed_7c/Branch_0/Conv2d_0a_1x1/Conv2D_bn_offset", "op": "Const", "attr": {"dtype": {"type": "DT_FLOAT"}, "value": {"tensor": {"dtype": "DT_FLOAT", "tensorShape": {"dim": [{"size": "320"}]}}}}}, {"name": "StatefulPartitionedCall/sequential/keras_layer/StatefulPartitionedCall/StatefulPartitionedCall/StatefulPartitionedCall/predict/InceptionV3/InceptionV3/Mixed_6a/Branch_1/Conv2d_0a_1x1/Conv2D_bn_offset", "op": "Const", "attr": {"dtype": {"type": "DT_FLOAT"}, "value": {"tensor": {"dtype": "DT_FLOAT", "tensorShape": {"dim": [{"size": "64"}]}}}}}, {"name": "StatefulPartitionedCall/sequential/keras_layer/StatefulPartitionedCall/StatefulPartitionedCall/StatefulPartitionedCall/predict/InceptionV3/InceptionV3/Mixed_6a/Branch_1/Conv2d_0b_3x3/Conv2D_weights", "op": "Const", "attr": {"dtype": {"type": "DT_FLOAT"}, "value": {"tensor": {"dtype": "DT_FLOAT", "tensorShape": {"dim": [{"size": "3"}, {"size": "3"}, {"size": "64"}, {"size": "96"}]}}}}}, {"name": "StatefulPartitionedCall/sequential/keras_layer/StatefulPartitionedCall/StatefulPartitionedCall/StatefulPartitionedCall/predict/InceptionV3/InceptionV3/Mixed_6a/Branch_1/Conv2d_0b_3x3/Conv2D_bn_offset", "op": "Const", "attr": {"dtype": {"type": "DT_FLOAT"}, "value": {"tensor": {"dtype": "DT_FLOAT", "tensorShape": {"dim": [{"size": "96"}]}}}}}, {"name": "StatefulPartitionedCall/sequential/keras_layer/StatefulPartitionedCall/StatefulPartitionedCall/StatefulPartitionedCall/predict/InceptionV3/InceptionV3/Mixed_6a/Branch_1/Conv2d_1a_1x1/Conv2D_weights", "op": "Const", "attr": {"dtype": {"type": "DT_FLOAT"}, "value": {"tensor": {"dtype": "DT_FLOAT", "tensorShape": {"dim": [{"size": "3"}, {"size": "3"}, {"size": "96"}, {"size": "96"}]}}}}}, {"name": "StatefulPartitionedCall/sequential/keras_layer/StatefulPartitionedCall/StatefulPartitionedCall/StatefulPartitionedCall/predict/InceptionV3/InceptionV3/Mixed_7a/Branch_0/Conv2d_0a_1x1/Conv2D_weights", "op": "Const", "attr": {"value": {"tensor": {"dtype": "DT_FLOAT", "tensorShape": {"dim": [{"size": "1"}, {"size": "1"}, {"size": "768"}, {"size": "192"}]}}}, "dtype": {"type": "DT_FLOAT"}}}, {"name": "StatefulPartitionedCall/sequential/keras_layer/StatefulPartitionedCall/StatefulPartitionedCall/StatefulPartitionedCall/predict/InceptionV3/InceptionV3/Mixed_6a/Branch_1/Conv2d_1a_1x1/Conv2D_bn_offset", "op": "Const", "attr": {"value": {"tensor": {"dtype": "DT_FLOAT", "tensorShape": {"dim": [{"size": "96"}]}}}, "dtype": {"type": "DT_FLOAT"}}}, {"name": "StatefulPartitionedCall/sequential/keras_layer/StatefulPartitionedCall/StatefulPartitionedCall/StatefulPartitionedCall/predict/InceptionV3/InceptionV3/Mixed_6b/Branch_0/Conv2d_0a_1x1/Conv2D_weights", "op": "Const", "attr": {"dtype": {"type": "DT_FLOAT"}, "value": {"tensor": {"dtype": "DT_FLOAT", "tensorShape": {"dim": [{"size": "1"}, {"size": "1"}, {"size": "768"}, {"size": "192"}]}}}}}, {"name": "StatefulPartitionedCall/sequential/keras_layer/StatefulPartitionedCall/StatefulPartitionedCall/StatefulPartitionedCall/predict/InceptionV3/InceptionV3/Mixed_7a/Branch_0/Conv2d_0a_1x1/Conv2D_bn_offset", "op": "Const", "attr": {"dtype": {"type": "DT_FLOAT"}, "value": {"tensor": {"dtype": "DT_FLOAT", "tensorShape": {"dim": [{"size": "192"}]}}}}}, {"name": "StatefulPartitionedCall/sequential/keras_layer/StatefulPartitionedCall/StatefulPartitionedCall/StatefulPartitionedCall/predict/InceptionV3/InceptionV3/Mixed_6b/Branch_0/Conv2d_0a_1x1/Conv2D_bn_offset", "op": "Const", "attr": {"value": {"tensor": {"dtype": "DT_FLOAT", "tensorShape": {"dim": [{"size": "192"}]}}}, "dtype": {"type": "DT_FLOAT"}}}, {"name": "StatefulPartitionedCall/sequential/keras_layer/StatefulPartitionedCall/StatefulPartitionedCall/StatefulPartitionedCall/predict/InceptionV3/InceptionV3/Mixed_6b/Branch_1/Conv2d_0a_1x1/Conv2D_weights", "op": "Const", "attr": {"value": {"tensor": {"dtype": "DT_FLOAT", "tensorShape": {"dim": [{"size": "1"}, {"size": "1"}, {"size": "768"}, {"size": "128"}]}}}, "dtype": {"type": "DT_FLOAT"}}}, {"name": "StatefulPartitionedCall/sequential/keras_layer/StatefulPartitionedCall/StatefulPartitionedCall/StatefulPartitionedCall/predict/InceptionV3/InceptionV3/Mixed_6b/Branch_1/Conv2d_0a_1x1/Conv2D_bn_offset", "op": "Const", "attr": {"value": {"tensor": {"dtype": "DT_FLOAT", "tensorShape": {"dim": [{"size": "128"}]}}}, "dtype": {"type": "DT_FLOAT"}}}, {"name": "StatefulPartitionedCall/sequential/keras_layer/StatefulPartitionedCall/StatefulPartitionedCall/StatefulPartitionedCall/predict/InceptionV3/InceptionV3/Mixed_7a/Branch_1/Conv2d_0a_1x1/Conv2D_weights", "op": "Const", "attr": {"dtype": {"type": "DT_FLOAT"}, "value": {"tensor": {"dtype": "DT_FLOAT", "tensorShape": {"dim": [{"size": "1"}, {"size": "1"}, {"size": "768"}, {"size": "192"}]}}}}}, {"name": "StatefulPartitionedCall/sequential/keras_layer/StatefulPartitionedCall/StatefulPartitionedCall/StatefulPartitionedCall/predict/InceptionV3/InceptionV3/Mixed_6b/Branch_2/Conv2d_0a_1x1/Conv2D_weights", "op": "Const", "attr": {"dtype": {"type": "DT_FLOAT"}, "value": {"tensor": {"dtype": "DT_FLOAT", "tensorShape": {"dim": [{"size": "1"}, {"size": "1"}, {"size": "768"}, {"size": "128"}]}}}}}, {"name": "StatefulPartitionedCall/sequential/keras_layer/StatefulPartitionedCall/StatefulPartitionedCall/StatefulPartitionedCall/predict/InceptionV3/InceptionV3/Mixed_7c/Branch_1/Conv2d_0a_1x1/Conv2D_weights", "op": "Const", "attr": {"dtype": {"type": "DT_FLOAT"}, "value": {"tensor": {"dtype": "DT_FLOAT", "tensorShape": {"dim": [{"size": "1"}, {"size": "1"}, {"size": "2048"}, {"size": "384"}]}}}}}, {"name": "StatefulPartitionedCall/sequential/keras_layer/StatefulPartitionedCall/StatefulPartitionedCall/StatefulPartitionedCall/predict/InceptionV3/InceptionV3/Mixed_6b/Branch_2/Conv2d_0a_1x1/Conv2D_bn_offset", "op": "Const", "attr": {"value": {"tensor": {"dtype": "DT_FLOAT", "tensorShape": {"dim": [{"size": "128"}]}}}, "dtype": {"type": "DT_FLOAT"}}}, {"name": "StatefulPartitionedCall/sequential/keras_layer/StatefulPartitionedCall/StatefulPartitionedCall/StatefulPartitionedCall/predict/InceptionV3/InceptionV3/Mixed_7a/Branch_1/Conv2d_0a_1x1/Conv2D_bn_offset", "op": "Const", "attr": {"value": {"tensor": {"dtype": "DT_FLOAT", "tensorShape": {"dim": [{"size": "192"}]}}}, "dtype": {"type": "DT_FLOAT"}}}, {"name": "StatefulPartitionedCall/sequential/keras_layer/StatefulPartitionedCall/StatefulPartitionedCall/StatefulPartitionedCall/predict/InceptionV3/InceptionV3/Mixed_6b/Branch_3/Conv2d_0b_1x1/Conv2D_weights", "op": "Const", "attr": {"dtype": {"type": "DT_FLOAT"}, "value": {"tensor": {"dtype": "DT_FLOAT", "tensorShape": {"dim": [{"size": "1"}, {"size": "1"}, {"size": "768"}, {"size": "192"}]}}}}}, {"name": "StatefulPartitionedCall/sequential/keras_layer/StatefulPartitionedCall/StatefulPartitionedCall/StatefulPartitionedCall/predict/InceptionV3/InceptionV3/Mixed_7c/Branch_2/Conv2d_0c_1x3/Conv2D_weights", "op": "Const", "attr": {"value": {"tensor": {"dtype": "DT_FLOAT", "tensorShape": {"dim": [{"size": "1"}, {"size": "3"}, {"size": "384"}, {"size": "384"}]}}}, "dtype": {"type": "DT_FLOAT"}}}, {"name": "StatefulPartitionedCall/sequential/keras_layer/StatefulPartitionedCall/StatefulPartitionedCall/StatefulPartitionedCall/predict/InceptionV3/InceptionV3/Mixed_6b/Branch_3/Conv2d_0b_1x1/Conv2D_bn_offset", "op": "Const", "attr": {"value": {"tensor": {"dtype": "DT_FLOAT", "tensorShape": {"dim": [{"size": "192"}]}}}, "dtype": {"type": "DT_FLOAT"}}}, {"name": "StatefulPartitionedCall/sequential/keras_layer/StatefulPartitionedCall/StatefulPartitionedCall/StatefulPartitionedCall/predict/InceptionV3/InceptionV3/Mixed_6b/Branch_1/Conv2d_0b_1x7/Conv2D_weights", "op": "Const", "attr": {"dtype": {"type": "DT_FLOAT"}, "value": {"tensor": {"dtype": "DT_FLOAT", "tensorShape": {"dim": [{"size": "1"}, {"size": "7"}, {"size": "128"}, {"size": "128"}]}}}}}, {"name": "StatefulPartitionedCall/sequential/keras_layer/StatefulPartitionedCall/StatefulPartitionedCall/StatefulPartitionedCall/predict/InceptionV3/InceptionV3/Mixed_7a/Branch_0/Conv2d_1a_3x3/Conv2D_weights", "op": "Const", "attr": {"value": {"tensor": {"dtype": "DT_FLOAT", "tensorShape": {"dim": [{"size": "3"}, {"size": "3"}, {"size": "192"}, {"size": "320"}]}}}, "dtype": {"type": "DT_FLOAT"}}}, {"name": "StatefulPartitionedCall/sequential/keras_layer/StatefulPartitionedCall/StatefulPartitionedCall/StatefulPartitionedCall/predict/InceptionV3/InceptionV3/Mixed_6b/Branch_1/Conv2d_0b_1x7/Conv2D_bn_offset", "op": "Const", "attr": {"dtype": {"type": "DT_FLOAT"}, "value": {"tensor": {"dtype": "DT_FLOAT", "tensorShape": {"dim": [{"size": "128"}]}}}}}, {"name": "StatefulPartitionedCall/sequential/keras_layer/StatefulPartitionedCall/StatefulPartitionedCall/StatefulPartitionedCall/predict/InceptionV3/InceptionV3/Mixed_7c/Branch_1/Conv2d_0a_1x1/Conv2D_bn_offset", "op": "Const", "attr": {"value": {"tensor": {"dtype": "DT_FLOAT", "tensorShape": {"dim": [{"size": "384"}]}}}, "dtype": {"type": "DT_FLOAT"}}}, {"name": "StatefulPartitionedCall/sequential/keras_layer/StatefulPartitionedCall/StatefulPartitionedCall/StatefulPartitionedCall/predict/InceptionV3/InceptionV3/Mixed_6b/Branch_2/Conv2d_0b_7x1/Conv2D_weights", "op": "Const", "attr": {"dtype": {"type": "DT_FLOAT"}, "value": {"tensor": {"dtype": "DT_FLOAT", "tensorShape": {"dim": [{"size": "7"}, {"size": "1"}, {"size": "128"}, {"size": "128"}]}}}}}, {"name": "StatefulPartitionedCall/sequential/keras_layer/StatefulPartitionedCall/StatefulPartitionedCall/StatefulPartitionedCall/predict/InceptionV3/InceptionV3/Mixed_7a/Branch_0/Conv2d_1a_3x3/Conv2D_bn_offset", "op": "Const", "attr": {"value": {"tensor": {"dtype": "DT_FLOAT", "tensorShape": {"dim": [{"size": "320"}]}}}, "dtype": {"type": "DT_FLOAT"}}}, {"name": "StatefulPartitionedCall/sequential/keras_layer/StatefulPartitionedCall/StatefulPartitionedCall/StatefulPartitionedCall/predict/InceptionV3/InceptionV3/Mixed_6b/Branch_2/Conv2d_0b_7x1/Conv2D_bn_offset", "op": "Const", "attr": {"value": {"tensor": {"dtype": "DT_FLOAT", "tensorShape": {"dim": [{"size": "128"}]}}}, "dtype": {"type": "DT_FLOAT"}}}, {"name": "StatefulPartitionedCall/sequential/keras_layer/StatefulPartitionedCall/StatefulPartitionedCall/StatefulPartitionedCall/predict/InceptionV3/InceptionV3/Mixed_6b/Branch_1/Conv2d_0c_7x1/Conv2D_weights", "op": "Const", "attr": {"value": {"tensor": {"dtype": "DT_FLOAT", "tensorShape": {"dim": [{"size": "7"}, {"size": "1"}, {"size": "128"}, {"size": "192"}]}}}, "dtype": {"type": "DT_FLOAT"}}}, {"name": "StatefulPartitionedCall/sequential/keras_layer/StatefulPartitionedCall/StatefulPartitionedCall/StatefulPartitionedCall/predict/InceptionV3/InceptionV3/Mixed_6b/Branch_1/Conv2d_0c_7x1/Conv2D_bn_offset", "op": "Const", "attr": {"value": {"tensor": {"dtype": "DT_FLOAT", "tensorShape": {"dim": [{"size": "192"}]}}}, "dtype": {"type": "DT_FLOAT"}}}, {"name": "StatefulPartitionedCall/sequential/keras_layer/StatefulPartitionedCall/StatefulPartitionedCall/StatefulPartitionedCall/predict/InceptionV3/InceptionV3/Mixed_7a/Branch_1/Conv2d_0b_1x7/Conv2D_weights", "op": "Const", "attr": {"dtype": {"type": "DT_FLOAT"}, "value": {"tensor": {"dtype": "DT_FLOAT", "tensorShape": {"dim": [{"size": "1"}, {"size": "7"}, {"size": "192"}, {"size": "192"}]}}}}}, {"name": "StatefulPartitionedCall/sequential/keras_layer/StatefulPartitionedCall/StatefulPartitionedCall/StatefulPartitionedCall/predict/InceptionV3/InceptionV3/Mixed_6b/Branch_2/Conv2d_0c_1x7/Conv2D_weights", "op": "Const", "attr": {"value": {"tensor": {"dtype": "DT_FLOAT", "tensorShape": {"dim": [{"size": "1"}, {"size": "7"}, {"size": "128"}, {"size": "128"}]}}}, "dtype": {"type": "DT_FLOAT"}}}, {"name": "StatefulPartitionedCall/sequential/keras_layer/StatefulPartitionedCall/StatefulPartitionedCall/StatefulPartitionedCall/predict/InceptionV3/InceptionV3/Mixed_6b/Branch_2/Conv2d_0c_1x7/Conv2D_bn_offset", "op": "Const", "attr": {"value": {"tensor": {"dtype": "DT_FLOAT", "tensorShape": {"dim": [{"size": "128"}]}}}, "dtype": {"type": "DT_FLOAT"}}}, {"name": "StatefulPartitionedCall/sequential/keras_layer/StatefulPartitionedCall/StatefulPartitionedCall/StatefulPartitionedCall/predict/InceptionV3/InceptionV3/Mixed_7a/Branch_1/Conv2d_0b_1x7/Conv2D_bn_offset", "op": "Const", "attr": {"dtype": {"type": "DT_FLOAT"}, "value": {"tensor": {"dtype": "DT_FLOAT", "tensorShape": {"dim": [{"size": "192"}]}}}}}, {"name": "StatefulPartitionedCall/sequential/keras_layer/StatefulPartitionedCall/StatefulPartitionedCall/StatefulPartitionedCall/predict/InceptionV3/InceptionV3/Mixed_6b/Branch_2/Conv2d_0d_7x1/Conv2D_weights", "op": "Const", "attr": {"value": {"tensor": {"dtype": "DT_FLOAT", "tensorShape": {"dim": [{"size": "7"}, {"size": "1"}, {"size": "128"}, {"size": "128"}]}}}, "dtype": {"type": "DT_FLOAT"}}}, {"name": "StatefulPartitionedCall/sequential/keras_layer/StatefulPartitionedCall/StatefulPartitionedCall/StatefulPartitionedCall/predict/InceptionV3/InceptionV3/Mixed_7c/Branch_2/Conv2d_0a_1x1/Conv2D_weights", "op": "Const", "attr": {"value": {"tensor": {"dtype": "DT_FLOAT", "tensorShape": {"dim": [{"size": "1"}, {"size": "1"}, {"size": "2048"}, {"size": "448"}]}}}, "dtype": {"type": "DT_FLOAT"}}}, {"name": "StatefulPartitionedCall/sequential/keras_layer/StatefulPartitionedCall/StatefulPartitionedCall/StatefulPartitionedCall/predict/InceptionV3/InceptionV3/Mixed_6b/Branch_2/Conv2d_0d_7x1/Conv2D_bn_offset", "op": "Const", "attr": {"dtype": {"type": "DT_FLOAT"}, "value": {"tensor": {"dtype": "DT_FLOAT", "tensorShape": {"dim": [{"size": "128"}]}}}}}, {"name": "StatefulPartitionedCall/sequential/keras_layer/StatefulPartitionedCall/StatefulPartitionedCall/StatefulPartitionedCall/predict/InceptionV3/InceptionV3/Mixed_6b/Branch_2/Conv2d_0e_1x7/Conv2D_weights", "op": "Const", "attr": {"value": {"tensor": {"dtype": "DT_FLOAT", "tensorShape": {"dim": [{"size": "1"}, {"size": "7"}, {"size": "128"}, {"size": "192"}]}}}, "dtype": {"type": "DT_FLOAT"}}}, {"name": "StatefulPartitionedCall/sequential/keras_layer/StatefulPartitionedCall/StatefulPartitionedCall/StatefulPartitionedCall/predict/InceptionV3/InceptionV3/Mixed_7a/Branch_1/Conv2d_0c_7x1/Conv2D_weights", "op": "Const", "attr": {"value": {"tensor": {"dtype": "DT_FLOAT", "tensorShape": {"dim": [{"size": "7"}, {"size": "1"}, {"size": "192"}, {"size": "192"}]}}}, "dtype": {"type": "DT_FLOAT"}}}, {"name": "StatefulPartitionedCall/sequential/keras_layer/StatefulPartitionedCall/StatefulPartitionedCall/StatefulPartitionedCall/predict/InceptionV3/InceptionV3/Mixed_6b/Branch_2/Conv2d_0e_1x7/Conv2D_bn_offset", "op": "Const", "attr": {"dtype": {"type": "DT_FLOAT"}, "value": {"tensor": {"dtype": "DT_FLOAT", "tensorShape": {"dim": [{"size": "192"}]}}}}}, {"name": "StatefulPartitionedCall/sequential/keras_layer/StatefulPartitionedCall/StatefulPartitionedCall/StatefulPartitionedCall/predict/InceptionV3/InceptionV3/Mixed_7c/Branch_2/Conv2d_0c_1x3/Conv2D_bn_offset", "op": "Const", "attr": {"dtype": {"type": "DT_FLOAT"}, "value": {"tensor": {"dtype": "DT_FLOAT", "tensorShape": {"dim": [{"size": "384"}]}}}}}, {"name": "StatefulPartitionedCall/sequential/keras_layer/StatefulPartitionedCall/StatefulPartitionedCall/StatefulPartitionedCall/predict/InceptionV3/InceptionV3/Mixed_6c/Branch_0/Conv2d_0a_1x1/Conv2D_weights", "op": "Const", "attr": {"dtype": {"type": "DT_FLOAT"}, "value": {"tensor": {"dtype": "DT_FLOAT", "tensorShape": {"dim": [{"size": "1"}, {"size": "1"}, {"size": "768"}, {"size": "192"}]}}}}}, {"name": "StatefulPartitionedCall/sequential/keras_layer/StatefulPartitionedCall/StatefulPartitionedCall/StatefulPartitionedCall/predict/InceptionV3/InceptionV3/Mixed_7a/Branch_1/Conv2d_0c_7x1/Conv2D_bn_offset", "op": "Const", "attr": {"value": {"tensor": {"dtype": "DT_FLOAT", "tensorShape": {"dim": [{"size": "192"}]}}}, "dtype": {"type": "DT_FLOAT"}}}, {"name": "StatefulPartitionedCall/sequential/keras_layer/StatefulPartitionedCall/StatefulPartitionedCall/StatefulPartitionedCall/predict/InceptionV3/InceptionV3/Mixed_6c/Branch_0/Conv2d_0a_1x1/Conv2D_bn_offset", "op": "Const", "attr": {"value": {"tensor": {"dtype": "DT_FLOAT", "tensorShape": {"dim": [{"size": "192"}]}}}, "dtype": {"type": "DT_FLOAT"}}}, {"name": "StatefulPartitionedCall/sequential/keras_layer/StatefulPartitionedCall/StatefulPartitionedCall/StatefulPartitionedCall/predict/InceptionV3/InceptionV3/Mixed_7c/Branch_2/Conv2d_0a_1x1/Conv2D_bn_offset", "op": "Const", "attr": {"dtype": {"type": "DT_FLOAT"}, "value": {"tensor": {"dtype": "DT_FLOAT", "tensorShape": {"dim": [{"size": "448"}]}}}}}, {"name": "StatefulPartitionedCall/sequential/keras_layer/StatefulPartitionedCall/StatefulPartitionedCall/StatefulPartitionedCall/predict/InceptionV3/InceptionV3/Mixed_6c/Branch_1/Conv2d_0a_1x1/Conv2D_weights", "op": "Const", "attr": {"dtype": {"type": "DT_FLOAT"}, "value": {"tensor": {"dtype": "DT_FLOAT", "tensorShape": {"dim": [{"size": "1"}, {"size": "1"}, {"size": "768"}, {"size": "160"}]}}}}}, {"name": "StatefulPartitionedCall/sequential/keras_layer/StatefulPartitionedCall/StatefulPartitionedCall/StatefulPartitionedCall/predict/InceptionV3/InceptionV3/Mixed_6c/Branch_1/Conv2d_0a_1x1/Conv2D_bn_offset", "op": "Const", "attr": {"value": {"tensor": {"dtype": "DT_FLOAT", "tensorShape": {"dim": [{"size": "160"}]}}}, "dtype": {"type": "DT_FLOAT"}}}, {"name": "StatefulPartitionedCall/sequential/keras_layer/StatefulPartitionedCall/StatefulPartitionedCall/StatefulPartitionedCall/predict/InceptionV3/InceptionV3/Mixed_7a/Branch_1/Conv2d_1a_3x3/Conv2D_weights", "op": "Const", "attr": {"value": {"tensor": {"dtype": "DT_FLOAT", "tensorShape": {"dim": [{"size": "3"}, {"size": "3"}, {"size": "192"}, {"size": "192"}]}}}, "dtype": {"type": "DT_FLOAT"}}}, {"name": "StatefulPartitionedCall/sequential/keras_layer/StatefulPartitionedCall/StatefulPartitionedCall/StatefulPartitionedCall/predict/InceptionV3/InceptionV3/Mixed_6c/Branch_2/Conv2d_0a_1x1/Conv2D_weights", "op": "Const", "attr": {"dtype": {"type": "DT_FLOAT"}, "value": {"tensor": {"dtype": "DT_FLOAT", "tensorShape": {"dim": [{"size": "1"}, {"size": "1"}, {"size": "768"}, {"size": "160"}]}}}}}, {"name": "StatefulPartitionedCall/sequential/keras_layer/StatefulPartitionedCall/StatefulPartitionedCall/StatefulPartitionedCall/predict/InceptionV3/InceptionV3/Mixed_6c/Branch_2/Conv2d_0a_1x1/Conv2D_bn_offset", "op": "Const", "attr": {"value": {"tensor": {"dtype": "DT_FLOAT", "tensorShape": {"dim": [{"size": "160"}]}}}, "dtype": {"type": "DT_FLOAT"}}}, {"name": "StatefulPartitionedCall/sequential/keras_layer/StatefulPartitionedCall/StatefulPartitionedCall/StatefulPartitionedCall/predict/InceptionV3/InceptionV3/Mixed_7a/Branch_1/Conv2d_1a_3x3/Conv2D_bn_offset", "op": "Const", "attr": {"dtype": {"type": "DT_FLOAT"}, "value": {"tensor": {"dtype": "DT_FLOAT", "tensorShape": {"dim": [{"size": "192"}]}}}}}, {"name": "StatefulPartitionedCall/sequential/keras_layer/StatefulPartitionedCall/StatefulPartitionedCall/StatefulPartitionedCall/predict/InceptionV3/InceptionV3/Mixed_6c/Branch_3/Conv2d_0b_1x1/Conv2D_weights", "op": "Const", "attr": {"value": {"tensor": {"dtype": "DT_FLOAT", "tensorShape": {"dim": [{"size": "1"}, {"size": "1"}, {"size": "768"}, {"size": "192"}]}}}, "dtype": {"type": "DT_FLOAT"}}}, {"name": "StatefulPartitionedCall/sequential/keras_layer/StatefulPartitionedCall/StatefulPartitionedCall/StatefulPartitionedCall/predict/InceptionV3/InceptionV3/Mixed_6c/Branch_3/Conv2d_0b_1x1/Conv2D_bn_offset", "op": "Const", "attr": {"dtype": {"type": "DT_FLOAT"}, "value": {"tensor": {"dtype": "DT_FLOAT", "tensorShape": {"dim": [{"size": "192"}]}}}}}, {"name": "StatefulPartitionedCall/sequential/keras_layer/StatefulPartitionedCall/StatefulPartitionedCall/StatefulPartitionedCall/predict/InceptionV3/InceptionV3/Mixed_6c/Branch_1/Conv2d_0b_1x7/Conv2D_weights", "op": "Const", "attr": {"dtype": {"type": "DT_FLOAT"}, "value": {"tensor": {"dtype": "DT_FLOAT", "tensorShape": {"dim": [{"size": "1"}, {"size": "7"}, {"size": "160"}, {"size": "160"}]}}}}}, {"name": "StatefulPartitionedCall/sequential/keras_layer/StatefulPartitionedCall/StatefulPartitionedCall/StatefulPartitionedCall/predict/InceptionV3/InceptionV3/Mixed_6c/Branch_1/Conv2d_0b_1x7/Conv2D_bn_offset", "op": "Const", "attr": {"dtype": {"type": "DT_FLOAT"}, "value": {"tensor": {"dtype": "DT_FLOAT", "tensorShape": {"dim": [{"size": "160"}]}}}}}, {"name": "StatefulPartitionedCall/sequential/keras_layer/StatefulPartitionedCall/StatefulPartitionedCall/StatefulPartitionedCall/predict/InceptionV3/InceptionV3/Mixed_6c/Branch_2/Conv2d_0b_7x1/Conv2D_weights", "op": "Const", "attr": {"value": {"tensor": {"dtype": "DT_FLOAT", "tensorShape": {"dim": [{"size": "7"}, {"size": "1"}, {"size": "160"}, {"size": "160"}]}}}, "dtype": {"type": "DT_FLOAT"}}}, {"name": "StatefulPartitionedCall/sequential/keras_layer/StatefulPartitionedCall/StatefulPartitionedCall/StatefulPartitionedCall/predict/InceptionV3/InceptionV3/Mixed_7b/Branch_0/Conv2d_0a_1x1/Conv2D_weights", "op": "Const", "attr": {"dtype": {"type": "DT_FLOAT"}, "value": {"tensor": {"dtype": "DT_FLOAT", "tensorShape": {"dim": [{"size": "1"}, {"size": "1"}, {"size": "1280"}, {"size": "320"}]}}}}}, {"name": "StatefulPartitionedCall/sequential/keras_layer/StatefulPartitionedCall/StatefulPartitionedCall/StatefulPartitionedCall/predict/InceptionV3/InceptionV3/Mixed_6c/Branch_2/Conv2d_0b_7x1/Conv2D_bn_offset", "op": "Const", "attr": {"value": {"tensor": {"dtype": "DT_FLOAT", "tensorShape": {"dim": [{"size": "160"}]}}}, "dtype": {"type": "DT_FLOAT"}}}, {"name": "StatefulPartitionedCall/sequential/keras_layer/StatefulPartitionedCall/StatefulPartitionedCall/StatefulPartitionedCall/predict/InceptionV3/InceptionV3/Mixed_7c/Branch_3/Conv2d_0b_1x1/Conv2D_weights", "op": "Const", "attr": {"dtype": {"type": "DT_FLOAT"}, "value": {"tensor": {"dtype": "DT_FLOAT", "tensorShape": {"dim": [{"size": "1"}, {"size": "1"}, {"size": "2048"}, {"size": "192"}]}}}}}, {"name": "StatefulPartitionedCall/sequential/keras_layer/StatefulPartitionedCall/StatefulPartitionedCall/StatefulPartitionedCall/predict/InceptionV3/InceptionV3/Mixed_6c/Branch_1/Conv2d_0c_7x1/Conv2D_weights", "op": "Const", "attr": {"dtype": {"type": "DT_FLOAT"}, "value": {"tensor": {"dtype": "DT_FLOAT", "tensorShape": {"dim": [{"size": "7"}, {"size": "1"}, {"size": "160"}, {"size": "192"}]}}}}}, {"name": "StatefulPartitionedCall/sequential/keras_layer/StatefulPartitionedCall/StatefulPartitionedCall/StatefulPartitionedCall/predict/InceptionV3/InceptionV3/Mixed_7b/Branch_0/Conv2d_0a_1x1/Conv2D_bn_offset", "op": "Const", "attr": {"value": {"tensor": {"dtype": "DT_FLOAT", "tensorShape": {"dim": [{"size": "320"}]}}}, "dtype": {"type": "DT_FLOAT"}}}, {"name": "StatefulPartitionedCall/sequential/keras_layer/StatefulPartitionedCall/StatefulPartitionedCall/StatefulPartitionedCall/predict/InceptionV3/InceptionV3/Mixed_6c/Branch_1/Conv2d_0c_7x1/Conv2D_bn_offset", "op": "Const", "attr": {"value": {"tensor": {"dtype": "DT_FLOAT", "tensorShape": {"dim": [{"size": "192"}]}}}, "dtype": {"type": "DT_FLOAT"}}}, {"name": "StatefulPartitionedCall/sequential/keras_layer/StatefulPartitionedCall/StatefulPartitionedCall/StatefulPartitionedCall/predict/InceptionV3/InceptionV3/Mixed_6c/Branch_2/Conv2d_0c_1x7/Conv2D_weights", "op": "Const", "attr": {"dtype": {"type": "DT_FLOAT"}, "value": {"tensor": {"dtype": "DT_FLOAT", "tensorShape": {"dim": [{"size": "1"}, {"size": "7"}, {"size": "160"}, {"size": "160"}]}}}}}, {"name": "StatefulPartitionedCall/sequential/keras_layer/StatefulPartitionedCall/StatefulPartitionedCall/StatefulPartitionedCall/predict/InceptionV3/InceptionV3/Mixed_6c/Branch_2/Conv2d_0c_1x7/Conv2D_bn_offset", "op": "Const", "attr": {"dtype": {"type": "DT_FLOAT"}, "value": {"tensor": {"dtype": "DT_FLOAT", "tensorShape": {"dim": [{"size": "160"}]}}}}}, {"name": "StatefulPartitionedCall/sequential/keras_layer/StatefulPartitionedCall/StatefulPartitionedCall/StatefulPartitionedCall/predict/InceptionV3/InceptionV3/Mixed_7b/Branch_1/Conv2d_0a_1x1/Conv2D_weights", "op": "Const", "attr": {"dtype": {"type": "DT_FLOAT"}, "value": {"tensor": {"dtype": "DT_FLOAT", "tensorShape": {"dim": [{"size": "1"}, {"size": "1"}, {"size": "1280"}, {"size": "384"}]}}}}}, {"name": "StatefulPartitionedCall/sequential/keras_layer/StatefulPartitionedCall/StatefulPartitionedCall/StatefulPartitionedCall/predict/InceptionV3/InceptionV3/Mixed_6c/Branch_2/Conv2d_0d_7x1/Conv2D_weights", "op": "Const", "attr": {"dtype": {"type": "DT_FLOAT"}, "value": {"tensor": {"dtype": "DT_FLOAT", "tensorShape": {"dim": [{"size": "7"}, {"size": "1"}, {"size": "160"}, {"size": "160"}]}}}}}, {"name": "StatefulPartitionedCall/sequential/keras_layer/StatefulPartitionedCall/StatefulPartitionedCall/StatefulPartitionedCall/predict/InceptionV3/InceptionV3/Mixed_7c/Branch_3/Conv2d_0b_1x1/Conv2D_bn_offset", "op": "Const", "attr": {"value": {"tensor": {"dtype": "DT_FLOAT", "tensorShape": {"dim": [{"size": "192"}]}}}, "dtype": {"type": "DT_FLOAT"}}}, {"name": "StatefulPartitionedCall/sequential/keras_layer/StatefulPartitionedCall/StatefulPartitionedCall/StatefulPartitionedCall/predict/InceptionV3/InceptionV3/Mixed_6c/Branch_2/Conv2d_0d_7x1/Conv2D_bn_offset", "op": "Const", "attr": {"dtype": {"type": "DT_FLOAT"}, "value": {"tensor": {"dtype": "DT_FLOAT", "tensorShape": {"dim": [{"size": "160"}]}}}}}, {"name": "StatefulPartitionedCall/sequential/keras_layer/StatefulPartitionedCall/StatefulPartitionedCall/StatefulPartitionedCall/predict/InceptionV3/InceptionV3/Mixed_7b/Branch_1/Conv2d_0a_1x1/Conv2D_bn_offset", "op": "Const", "attr": {"dtype": {"type": "DT_FLOAT"}, "value": {"tensor": {"dtype": "DT_FLOAT", "tensorShape": {"dim": [{"size": "384"}]}}}}}, {"name": "StatefulPartitionedCall/sequential/keras_layer/StatefulPartitionedCall/StatefulPartitionedCall/StatefulPartitionedCall/predict/InceptionV3/InceptionV3/Mixed_6c/Branch_2/Conv2d_0e_1x7/Conv2D_weights", "op": "Const", "attr": {"dtype": {"type": "DT_FLOAT"}, "value": {"tensor": {"dtype": "DT_FLOAT", "tensorShape": {"dim": [{"size": "1"}, {"size": "7"}, {"size": "160"}, {"size": "192"}]}}}}}, {"name": "StatefulPartitionedCall/sequential/keras_layer/StatefulPartitionedCall/StatefulPartitionedCall/StatefulPartitionedCall/predict/InceptionV3/InceptionV3/Mixed_7c/Branch_2/Conv2d_0d_3x1/Conv2D_weights", "op": "Const", "attr": {"dtype": {"type": "DT_FLOAT"}, "value": {"tensor": {"dtype": "DT_FLOAT", "tensorShape": {"dim": [{"size": "3"}, {"size": "1"}, {"size": "384"}, {"size": "384"}]}}}}}, {"name": "StatefulPartitionedCall/sequential/keras_layer/StatefulPartitionedCall/StatefulPartitionedCall/StatefulPartitionedCall/predict/InceptionV3/InceptionV3/Mixed_6c/Branch_2/Conv2d_0e_1x7/Conv2D_bn_offset", "op": "Const", "attr": {"dtype": {"type": "DT_FLOAT"}, "value": {"tensor": {"dtype": "DT_FLOAT", "tensorShape": {"dim": [{"size": "192"}]}}}}}, {"name": "StatefulPartitionedCall/sequential/keras_layer/StatefulPartitionedCall/StatefulPartitionedCall/StatefulPartitionedCall/predict/InceptionV3/InceptionV3/Mixed_6d/Branch_0/Conv2d_0a_1x1/Conv2D_weights", "op": "Const", "attr": {"dtype": {"type": "DT_FLOAT"}, "value": {"tensor": {"dtype": "DT_FLOAT", "tensorShape": {"dim": [{"size": "1"}, {"size": "1"}, {"size": "768"}, {"size": "192"}]}}}}}, {"name": "StatefulPartitionedCall/sequential/keras_layer/StatefulPartitionedCall/StatefulPartitionedCall/StatefulPartitionedCall/predict/InceptionV3/InceptionV3/Mixed_7b/Branch_2/Conv2d_0a_1x1/Conv2D_weights", "op": "Const", "attr": {"dtype": {"type": "DT_FLOAT"}, "value": {"tensor": {"dtype": "DT_FLOAT", "tensorShape": {"dim": [{"size": "1"}, {"size": "1"}, {"size": "1280"}, {"size": "448"}]}}}}}, {"name": "StatefulPartitionedCall/sequential/keras_layer/StatefulPartitionedCall/StatefulPartitionedCall/StatefulPartitionedCall/predict/InceptionV3/InceptionV3/Mixed_6d/Branch_0/Conv2d_0a_1x1/Conv2D_bn_offset", "op": "Const", "attr": {"dtype": {"type": "DT_FLOAT"}, "value": {"tensor": {"dtype": "DT_FLOAT", "tensorShape": {"dim": [{"size": "192"}]}}}}}, {"name": "StatefulPartitionedCall/sequential/keras_layer/StatefulPartitionedCall/StatefulPartitionedCall/StatefulPartitionedCall/predict/InceptionV3/InceptionV3/Mixed_6d/Branch_1/Conv2d_0a_1x1/Conv2D_weights", "op": "Const", "attr": {"value": {"tensor": {"dtype": "DT_FLOAT", "tensorShape": {"dim": [{"size": "1"}, {"size": "1"}, {"size": "768"}, {"size": "160"}]}}}, "dtype": {"type": "DT_FLOAT"}}}, {"name": "StatefulPartitionedCall/sequential/keras_layer/StatefulPartitionedCall/StatefulPartitionedCall/StatefulPartitionedCall/predict/InceptionV3/InceptionV3/Mixed_7b/Branch_2/Conv2d_0a_1x1/Conv2D_bn_offset", "op": "Const", "attr": {"value": {"tensor": {"dtype": "DT_FLOAT", "tensorShape": {"dim": [{"size": "448"}]}}}, "dtype": {"type": "DT_FLOAT"}}}, {"name": "StatefulPartitionedCall/sequential/keras_layer/StatefulPartitionedCall/StatefulPartitionedCall/StatefulPartitionedCall/predict/InceptionV3/InceptionV3/Mixed_6d/Branch_1/Conv2d_0a_1x1/Conv2D_bn_offset", "op": "Const", "attr": {"value": {"tensor": {"dtype": "DT_FLOAT", "tensorShape": {"dim": [{"size": "160"}]}}}, "dtype": {"type": "DT_FLOAT"}}}, {"name": "StatefulPartitionedCall/sequential/keras_layer/StatefulPartitionedCall/StatefulPartitionedCall/StatefulPartitionedCall/predict/InceptionV3/InceptionV3/Mixed_7c/Branch_1/Conv2d_0b_1x3/Conv2D_weights", "op": "Const", "attr": {"value": {"tensor": {"dtype": "DT_FLOAT", "tensorShape": {"dim": [{"size": "1"}, {"size": "3"}, {"size": "384"}, {"size": "384"}]}}}, "dtype": {"type": "DT_FLOAT"}}}, {"name": "StatefulPartitionedCall/sequential/keras_layer/StatefulPartitionedCall/StatefulPartitionedCall/StatefulPartitionedCall/predict/InceptionV3/InceptionV3/Mixed_6d/Branch_2/Conv2d_0a_1x1/Conv2D_weights", "op": "Const", "attr": {"value": {"tensor": {"dtype": "DT_FLOAT", "tensorShape": {"dim": [{"size": "1"}, {"size": "1"}, {"size": "768"}, {"size": "160"}]}}}, "dtype": {"type": "DT_FLOAT"}}}, {"name": "StatefulPartitionedCall/sequential/keras_layer/StatefulPartitionedCall/StatefulPartitionedCall/StatefulPartitionedCall/predict/InceptionV3/InceptionV3/Mixed_6d/Branch_2/Conv2d_0a_1x1/Conv2D_bn_offset", "op": "Const", "attr": {"value": {"tensor": {"dtype": "DT_FLOAT", "tensorShape": {"dim": [{"size": "160"}]}}}, "dtype": {"type": "DT_FLOAT"}}}, {"name": "StatefulPartitionedCall/sequential/keras_layer/StatefulPartitionedCall/StatefulPartitionedCall/StatefulPartitionedCall/predict/InceptionV3/InceptionV3/Mixed_7b/Branch_3/Conv2d_0b_1x1/Conv2D_weights", "op": "Const", "attr": {"dtype": {"type": "DT_FLOAT"}, "value": {"tensor": {"dtype": "DT_FLOAT", "tensorShape": {"dim": [{"size": "1"}, {"size": "1"}, {"size": "1280"}, {"size": "192"}]}}}}}, {"name": "StatefulPartitionedCall/sequential/keras_layer/StatefulPartitionedCall/StatefulPartitionedCall/StatefulPartitionedCall/predict/InceptionV3/InceptionV3/Mixed_6d/Branch_3/Conv2d_0b_1x1/Conv2D_weights", "op": "Const", "attr": {"value": {"tensor": {"dtype": "DT_FLOAT", "tensorShape": {"dim": [{"size": "1"}, {"size": "1"}, {"size": "768"}, {"size": "192"}]}}}, "dtype": {"type": "DT_FLOAT"}}}, {"name": "StatefulPartitionedCall/sequential/keras_layer/StatefulPartitionedCall/StatefulPartitionedCall/StatefulPartitionedCall/predict/InceptionV3/InceptionV3/Mixed_6d/Branch_3/Conv2d_0b_1x1/Conv2D_bn_offset", "op": "Const", "attr": {"value": {"tensor": {"dtype": "DT_FLOAT", "tensorShape": {"dim": [{"size": "192"}]}}}, "dtype": {"type": "DT_FLOAT"}}}, {"name": "StatefulPartitionedCall/sequential/keras_layer/StatefulPartitionedCall/StatefulPartitionedCall/StatefulPartitionedCall/predict/InceptionV3/InceptionV3/Mixed_7b/Branch_3/Conv2d_0b_1x1/Conv2D_bn_offset", "op": "Const", "attr": {"dtype": {"type": "DT_FLOAT"}, "value": {"tensor": {"dtype": "DT_FLOAT", "tensorShape": {"dim": [{"size": "192"}]}}}}}, {"name": "StatefulPartitionedCall/sequential/keras_layer/StatefulPartitionedCall/StatefulPartitionedCall/StatefulPartitionedCall/predict/InceptionV3/InceptionV3/Mixed_6d/Branch_1/Conv2d_0b_1x7/Conv2D_weights", "op": "Const", "attr": {"dtype": {"type": "DT_FLOAT"}, "value": {"tensor": {"dtype": "DT_FLOAT", "tensorShape": {"dim": [{"size": "1"}, {"size": "7"}, {"size": "160"}, {"size": "160"}]}}}}}, {"name": "StatefulPartitionedCall/sequential/keras_layer/StatefulPartitionedCall/StatefulPartitionedCall/StatefulPartitionedCall/predict/InceptionV3/InceptionV3/Mixed_7c/Branch_1/Conv2d_0b_1x3/Conv2D_bn_offset", "op": "Const", "attr": {"value": {"tensor": {"dtype": "DT_FLOAT", "tensorShape": {"dim": [{"size": "384"}]}}}, "dtype": {"type": "DT_FLOAT"}}}, {"name": "StatefulPartitionedCall/sequential/keras_layer/StatefulPartitionedCall/StatefulPartitionedCall/StatefulPartitionedCall/predict/InceptionV3/InceptionV3/Mixed_6d/Branch_1/Conv2d_0b_1x7/Conv2D_bn_offset", "op": "Const", "attr": {"dtype": {"type": "DT_FLOAT"}, "value": {"tensor": {"dtype": "DT_FLOAT", "tensorShape": {"dim": [{"size": "160"}]}}}}}, {"name": "StatefulPartitionedCall/sequential/keras_layer/StatefulPartitionedCall/StatefulPartitionedCall/StatefulPartitionedCall/predict/InceptionV3/InceptionV3/Mixed_6d/Branch_2/Conv2d_0b_7x1/Conv2D_weights", "op": "Const", "attr": {"value": {"tensor": {"dtype": "DT_FLOAT", "tensorShape": {"dim": [{"size": "7"}, {"size": "1"}, {"size": "160"}, {"size": "160"}]}}}, "dtype": {"type": "DT_FLOAT"}}}, {"name": "StatefulPartitionedCall/sequential/keras_layer/StatefulPartitionedCall/StatefulPartitionedCall/StatefulPartitionedCall/predict/InceptionV3/InceptionV3/Mixed_7b/Branch_1/Conv2d_0b_1x3/Conv2D_weights", "op": "Const", "attr": {"dtype": {"type": "DT_FLOAT"}, "value": {"tensor": {"dtype": "DT_FLOAT", "tensorShape": {"dim": [{"size": "1"}, {"size": "3"}, {"size": "384"}, {"size": "384"}]}}}}}, {"name": "StatefulPartitionedCall/sequential/keras_layer/StatefulPartitionedCall/StatefulPartitionedCall/StatefulPartitionedCall/predict/InceptionV3/InceptionV3/Mixed_6d/Branch_2/Conv2d_0b_7x1/Conv2D_bn_offset", "op": "Const", "attr": {"dtype": {"type": "DT_FLOAT"}, "value": {"tensor": {"dtype": "DT_FLOAT", "tensorShape": {"dim": [{"size": "160"}]}}}}}, {"name": "StatefulPartitionedCall/sequential/keras_layer/StatefulPartitionedCall/StatefulPartitionedCall/StatefulPartitionedCall/predict/InceptionV3/InceptionV3/Mixed_7c/Branch_2/Conv2d_0d_3x1/Conv2D_bn_offset", "op": "Const", "attr": {"value": {"tensor": {"dtype": "DT_FLOAT", "tensorShape": {"dim": [{"size": "384"}]}}}, "dtype": {"type": "DT_FLOAT"}}}, {"name": "StatefulPartitionedCall/sequential/keras_layer/StatefulPartitionedCall/StatefulPartitionedCall/StatefulPartitionedCall/predict/InceptionV3/InceptionV3/Mixed_6d/Branch_1/Conv2d_0c_7x1/Conv2D_weights", "op": "Const", "attr": {"value": {"tensor": {"dtype": "DT_FLOAT", "tensorShape": {"dim": [{"size": "7"}, {"size": "1"}, {"size": "160"}, {"size": "192"}]}}}, "dtype": {"type": "DT_FLOAT"}}}, {"name": "StatefulPartitionedCall/sequential/keras_layer/StatefulPartitionedCall/StatefulPartitionedCall/StatefulPartitionedCall/predict/InceptionV3/InceptionV3/Mixed_7b/Branch_1/Conv2d_0b_1x3/Conv2D_bn_offset", "op": "Const", "attr": {"dtype": {"type": "DT_FLOAT"}, "value": {"tensor": {"dtype": "DT_FLOAT", "tensorShape": {"dim": [{"size": "384"}]}}}}}, {"name": "StatefulPartitionedCall/sequential/keras_layer/StatefulPartitionedCall/StatefulPartitionedCall/StatefulPartitionedCall/predict/InceptionV3/InceptionV3/Mixed_6d/Branch_1/Conv2d_0c_7x1/Conv2D_bn_offset", "op": "Const", "attr": {"value": {"tensor": {"dtype": "DT_FLOAT", "tensorShape": {"dim": [{"size": "192"}]}}}, "dtype": {"type": "DT_FLOAT"}}}, {"name": "StatefulPartitionedCall/sequential/keras_layer/StatefulPartitionedCall/StatefulPartitionedCall/StatefulPartitionedCall/predict/InceptionV3/InceptionV3/Mixed_6d/Branch_2/Conv2d_0c_1x7/Conv2D_weights", "op": "Const", "attr": {"dtype": {"type": "DT_FLOAT"}, "value": {"tensor": {"dtype": "DT_FLOAT", "tensorShape": {"dim": [{"size": "1"}, {"size": "7"}, {"size": "160"}, {"size": "160"}]}}}}}, {"name": "StatefulPartitionedCall/sequential/keras_layer/StatefulPartitionedCall/StatefulPartitionedCall/StatefulPartitionedCall/predict/InceptionV3/InceptionV3/Mixed_6d/Branch_2/Conv2d_0c_1x7/Conv2D_bn_offset", "op": "Const", "attr": {"value": {"tensor": {"dtype": "DT_FLOAT", "tensorShape": {"dim": [{"size": "160"}]}}}, "dtype": {"type": "DT_FLOAT"}}}, {"name": "StatefulPartitionedCall/sequential/keras_layer/StatefulPartitionedCall/StatefulPartitionedCall/StatefulPartitionedCall/predict/InceptionV3/InceptionV3/Mixed_7b/Branch_1/Conv2d_0b_3x1/Conv2D_weights", "op": "Const", "attr": {"dtype": {"type": "DT_FLOAT"}, "value": {"tensor": {"dtype": "DT_FLOAT", "tensorShape": {"dim": [{"size": "3"}, {"size": "1"}, {"size": "384"}, {"size": "384"}]}}}}}, {"name": "StatefulPartitionedCall/sequential/keras_layer/StatefulPartitionedCall/StatefulPartitionedCall/StatefulPartitionedCall/predict/InceptionV3/InceptionV3/Mixed_6d/Branch_2/Conv2d_0d_7x1/Conv2D_weights", "op": "Const", "attr": {"dtype": {"type": "DT_FLOAT"}, "value": {"tensor": {"dtype": "DT_FLOAT", "tensorShape": {"dim": [{"size": "7"}, {"size": "1"}, {"size": "160"}, {"size": "160"}]}}}}}, {"name": "StatefulPartitionedCall/sequential/keras_layer/StatefulPartitionedCall/StatefulPartitionedCall/StatefulPartitionedCall/predict/InceptionV3/InceptionV3/Mixed_7c/Branch_1/Conv2d_0c_3x1/Conv2D_weights", "op": "Const", "attr": {"value": {"tensor": {"dtype": "DT_FLOAT", "tensorShape": {"dim": [{"size": "3"}, {"size": "1"}, {"size": "384"}, {"size": "384"}]}}}, "dtype": {"type": "DT_FLOAT"}}}, {"name": "StatefulPartitionedCall/sequential/keras_layer/StatefulPartitionedCall/StatefulPartitionedCall/StatefulPartitionedCall/predict/InceptionV3/InceptionV3/Mixed_6d/Branch_2/Conv2d_0d_7x1/Conv2D_bn_offset", "op": "Const", "attr": {"value": {"tensor": {"dtype": "DT_FLOAT", "tensorShape": {"dim": [{"size": "160"}]}}}, "dtype": {"type": "DT_FLOAT"}}}, {"name": "StatefulPartitionedCall/sequential/keras_layer/StatefulPartitionedCall/StatefulPartitionedCall/StatefulPartitionedCall/predict/InceptionV3/InceptionV3/Mixed_7b/Branch_1/Conv2d_0b_3x1/Conv2D_bn_offset", "op": "Const", "attr": {"dtype": {"type": "DT_FLOAT"}, "value": {"tensor": {"dtype": "DT_FLOAT", "tensorShape": {"dim": [{"size": "384"}]}}}}}, {"name": "StatefulPartitionedCall/sequential/keras_layer/StatefulPartitionedCall/StatefulPartitionedCall/StatefulPartitionedCall/predict/InceptionV3/InceptionV3/Mixed_6d/Branch_2/Conv2d_0e_1x7/Conv2D_weights", "op": "Const", "attr": {"value": {"tensor": {"dtype": "DT_FLOAT", "tensorShape": {"dim": [{"size": "1"}, {"size": "7"}, {"size": "160"}, {"size": "192"}]}}}, "dtype": {"type": "DT_FLOAT"}}}, {"name": "StatefulPartitionedCall/sequential/keras_layer/StatefulPartitionedCall/StatefulPartitionedCall/StatefulPartitionedCall/predict/hub_input/Mul/y", "op": "Const", "input": ["^keras_layer_input"], "attr": {"dtype": {"type": "DT_FLOAT"}, "value": {"tensor": {"dtype": "DT_FLOAT", "tensorShape": {}}}}}, {"name": "StatefulPartitionedCall/sequential/keras_layer/StatefulPartitionedCall/StatefulPartitionedCall/StatefulPartitionedCall/predict/hub_input/Sub/y", "op": "Const", "input": ["^keras_layer_input"], "attr": {"value": {"tensor": {"dtype": "DT_FLOAT", "tensorShape": {}}}, "dtype": {"type": "DT_FLOAT"}}}, {"name": "StatefulPartitionedCall/sequential/keras_layer/StatefulPartitionedCall/StatefulPartitionedCall/StatefulPartitionedCall/predict/InceptionV3/InceptionV3/Mixed_5b/concat/axis", "op": "Const", "input": ["^keras_layer_input"], "attr": {"value": {"tensor": {"dtype": "DT_INT32", "tensorShape": {}}}, "dtype": {"type": "DT_INT32"}}}, {"name": "StatefulPartitionedCall/sequential/keras_layer/StatefulPartitionedCall/StatefulPartitionedCall/StatefulPartitionedCall/predict/InceptionV3/InceptionV3/Mixed_5c/concat/axis", "op": "Const", "input": ["^keras_layer_input"], "attr": {"dtype": {"type": "DT_INT32"}, "value": {"tensor": {"dtype": "DT_INT32", "tensorShape": {}}}}}, {"name": "StatefulPartitionedCall/sequential/keras_layer/StatefulPartitionedCall/StatefulPartitionedCall/StatefulPartitionedCall/predict/InceptionV3/InceptionV3/Mixed_5d/concat/axis", "op": "Const", "input": ["^keras_layer_input"], "attr": {"value": {"tensor": {"dtype": "DT_INT32", "tensorShape": {}}}, "dtype": {"type": "DT_INT32"}}}, {"name": "StatefulPartitionedCall/sequential/keras_layer/StatefulPartitionedCall/StatefulPartitionedCall/StatefulPartitionedCall/predict/InceptionV3/InceptionV3/Mixed_6a/concat/axis", "op": "Const", "input": ["^keras_layer_input"], "attr": {"value": {"tensor": {"dtype": "DT_INT32", "tensorShape": {}}}, "dtype": {"type": "DT_INT32"}}}, {"name": "StatefulPartitionedCall/sequential/keras_layer/StatefulPartitionedCall/StatefulPartitionedCall/StatefulPartitionedCall/predict/InceptionV3/InceptionV3/Mixed_6b/concat/axis", "op": "Const", "input": ["^keras_layer_input"], "attr": {"dtype": {"type": "DT_INT32"}, "value": {"tensor": {"dtype": "DT_INT32", "tensorShape": {}}}}}, {"name": "StatefulPartitionedCall/sequential/keras_layer/StatefulPartitionedCall/StatefulPartitionedCall/StatefulPartitionedCall/predict/InceptionV3/InceptionV3/Mixed_6c/concat/axis", "op": "Const", "input": ["^keras_layer_input"], "attr": {"value": {"tensor": {"dtype": "DT_INT32", "tensorShape": {}}}, "dtype": {"type": "DT_INT32"}}}, {"name": "StatefulPartitionedCall/sequential/keras_layer/StatefulPartitionedCall/StatefulPartitionedCall/StatefulPartitionedCall/predict/InceptionV3/InceptionV3/Mixed_6d/concat/axis", "op": "Const", "input": ["^keras_layer_input"], "attr": {"value": {"tensor": {"dtype": "DT_INT32", "tensorShape": {}}}, "dtype": {"type": "DT_INT32"}}}, {"name": "StatefulPartitionedCall/sequential/keras_layer/StatefulPartitionedCall/StatefulPartitionedCall/StatefulPartitionedCall/predict/InceptionV3/InceptionV3/Mixed_6e/concat/axis", "op": "Const", "input": ["^keras_layer_input"], "attr": {"dtype": {"type": "DT_INT32"}, "value": {"tensor": {"dtype": "DT_INT32", "tensorShape": {}}}}}, {"name": "StatefulPartitionedCall/sequential/keras_layer/StatefulPartitionedCall/StatefulPartitionedCall/StatefulPartitionedCall/predict/InceptionV3/InceptionV3/Mixed_7a/concat/axis", "op": "Const", "input": ["^keras_layer_input"], "attr": {"dtype": {"type": "DT_INT32"}, "value": {"tensor": {"dtype": "DT_INT32", "tensorShape": {}}}}}, {"name": "StatefulPartitionedCall/sequential/keras_layer/StatefulPartitionedCall/StatefulPartitionedCall/StatefulPartitionedCall/predict/InceptionV3/InceptionV3/Mixed_7b/concat/axis", "op": "Const", "input": ["^keras_layer_input"], "attr": {"value": {"tensor": {"dtype": "DT_INT32", "tensorShape": {}}}, "dtype": {"type": "DT_INT32"}}}, {"name": "StatefulPartitionedCall/sequential/keras_layer/StatefulPartitionedCall/StatefulPartitionedCall/StatefulPartitionedCall/predict/InceptionV3/InceptionV3/Mixed_7c/concat/axis", "op": "Const", "input": ["^keras_layer_input"], "attr": {"value": {"tensor": {"dtype": "DT_INT32", "tensorShape": {}}}, "dtype": {"type": "DT_INT32"}}}, {"name": "StatefulPartitionedCall/sequential/keras_layer/StatefulPartitionedCall/StatefulPartitionedCall/StatefulPartitionedCall/predict/InceptionV3/Logits/GlobalPool/reduction_indices", "op": "Const", "input": ["^keras_layer_input"], "attr": {"dtype": {"type": "DT_INT32"}, "value": {"tensor": {"dtype": "DT_INT32", "tensorShape": {"dim": [{"size": "2"}]}}}}}, {"name": "StatefulPartitionedCall/sequential/keras_layer/StatefulPartitionedCall/StatefulPartitionedCall/StatefulPartitionedCall/predict/hub_input/Mul", "op": "Mul", "input": ["keras_layer_input", "StatefulPartitionedCall/sequential/keras_layer/StatefulPartitionedCall/StatefulPartitionedCall/StatefulPartitionedCall/predict/hub_input/Mul/y"], "attr": {"T": {"type": "DT_FLOAT"}}}, {"name": "StatefulPartitionedCall/sequential/keras_layer/StatefulPartitionedCall/StatefulPartitionedCall/StatefulPartitionedCall/predict/hub_input/Sub", "op": "Sub", "input": ["StatefulPartitionedCall/sequential/keras_layer/StatefulPartitionedCall/StatefulPartitionedCall/StatefulPartitionedCall/predict/hub_input/Mul", "StatefulPartitionedCall/sequential/keras_layer/StatefulPartitionedCall/StatefulPartitionedCall/StatefulPartitionedCall/predict/hub_input/Sub/y"], "attr": {"T": {"type": "DT_FLOAT"}}}, {"name": "StatefulPartitionedCall/sequential/keras_layer/StatefulPartitionedCall/StatefulPartitionedCall/StatefulPartitionedCall/predict/InceptionV3/InceptionV3/Conv2d_1a_3x3/Relu", "op": "_FusedConv2D", "input": ["StatefulPartitionedCall/sequential/keras_layer/StatefulPartitionedCall/StatefulPartitionedCall/StatefulPartitionedCall/predict/hub_input/Sub", "StatefulPartitionedCall/sequential/keras_layer/StatefulPartitionedCall/StatefulPartitionedCall/StatefulPartitionedCall/predict/InceptionV3/InceptionV3/Conv2d_1a_3x3/Conv2D_weights", "StatefulPartitionedCall/sequential/keras_layer/StatefulPartitionedCall/StatefulPartitionedCall/StatefulPartitionedCall/predict/InceptionV3/InceptionV3/Conv2d_1a_3x3/Conv2D_bn_offset"], "device": "/device:CPU:0", "attr": {"fused_ops": {"list": {"s": ["Qmlhc0FkZA==", "UmVsdQ=="]}}, "num_args": {"i": "1"}, "padding": {"s": "VkFMSUQ="}, "epsilon": {"f": 0.0}, "explicit_paddings": {"list": {}}, "use_cudnn_on_gpu": {"b": true}, "data_format": {"s": "TkhXQw=="}, "T": {"type": "DT_FLOAT"}, "strides": {"list": {"i": ["1", "2", "2", "1"]}}, "dilations": {"list": {"i": ["1", "1", "1", "1"]}}}}, {"name": "StatefulPartitionedCall/sequential/keras_layer/StatefulPartitionedCall/StatefulPartitionedCall/StatefulPartitionedCall/predict/InceptionV3/InceptionV3/Conv2d_2a_3x3/Relu", "op": "_FusedConv2D", "input": ["StatefulPartitionedCall/sequential/keras_layer/StatefulPartitionedCall/StatefulPartitionedCall/StatefulPartitionedCall/predict/InceptionV3/InceptionV3/Conv2d_1a_3x3/Relu", "StatefulPartitionedCall/sequential/keras_layer/StatefulPartitionedCall/StatefulPartitionedCall/StatefulPartitionedCall/predict/InceptionV3/InceptionV3/Conv2d_2a_3x3/Conv2D_weights", "StatefulPartitionedCall/sequential/keras_layer/StatefulPartitionedCall/StatefulPartitionedCall/StatefulPartitionedCall/predict/InceptionV3/InceptionV3/Conv2d_2a_3x3/Conv2D_bn_offset"], "device": "/device:CPU:0", "attr": {"epsilon": {"f": 0.0}, "explicit_paddings": {"list": {}}, "fused_ops": {"list": {"s": ["Qmlhc0FkZA==", "UmVsdQ=="]}}, "dilations": {"list": {"i": ["1", "1", "1", "1"]}}, "num_args": {"i": "1"}, "use_cudnn_on_gpu": {"b": true}, "padding": {"s": "VkFMSUQ="}, "strides": {"list": {"i": ["1", "1", "1", "1"]}}, "data_format": {"s": "TkhXQw=="}, "T": {"type": "DT_FLOAT"}}}, {"name": "StatefulPartitionedCall/sequential/keras_layer/StatefulPartitionedCall/StatefulPartitionedCall/StatefulPartitionedCall/predict/InceptionV3/InceptionV3/Conv2d_2b_3x3/Relu", "op": "_FusedConv2D", "input": ["StatefulPartitionedCall/sequential/keras_layer/StatefulPartitionedCall/StatefulPartitionedCall/StatefulPartitionedCall/predict/InceptionV3/InceptionV3/Conv2d_2a_3x3/Relu", "StatefulPartitionedCall/sequential/keras_layer/StatefulPartitionedCall/StatefulPartitionedCall/StatefulPartitionedCall/predict/InceptionV3/InceptionV3/Conv2d_2b_3x3/Conv2D_weights", "StatefulPartitionedCall/sequential/keras_layer/StatefulPartitionedCall/StatefulPartitionedCall/StatefulPartitionedCall/predict/InceptionV3/InceptionV3/Conv2d_2b_3x3/Conv2D_bn_offset"], "device": "/device:CPU:0", "attr": {"T": {"type": "DT_FLOAT"}, "epsilon": {"f": 0.0}, "strides": {"list": {"i": ["1", "1", "1", "1"]}}, "fused_ops": {"list": {"s": ["Qmlhc0FkZA==", "UmVsdQ=="]}}, "dilations": {"list": {"i": ["1", "1", "1", "1"]}}, "num_args": {"i": "1"}, "data_format": {"s": "TkhXQw=="}, "padding": {"s": "U0FNRQ=="}, "explicit_paddings": {"list": {}}, "use_cudnn_on_gpu": {"b": true}}}, {"name": "StatefulPartitionedCall/sequential/keras_layer/StatefulPartitionedCall/StatefulPartitionedCall/StatefulPartitionedCall/predict/InceptionV3/InceptionV3/MaxPool_3a_3x3/MaxPool", "op": "MaxPool", "input": ["StatefulPartitionedCall/sequential/keras_layer/StatefulPartitionedCall/StatefulPartitionedCall/StatefulPartitionedCall/predict/InceptionV3/InceptionV3/Conv2d_2b_3x3/Relu"], "attr": {"strides": {"list": {"i": ["1", "2", "2", "1"]}}, "data_format": {"s": "TkhXQw=="}, "T": {"type": "DT_FLOAT"}, "ksize": {"list": {"i": ["1", "3", "3", "1"]}}, "padding": {"s": "VkFMSUQ="}, "explicit_paddings": {"list": {}}}}, {"name": "StatefulPartitionedCall/sequential/keras_layer/StatefulPartitionedCall/StatefulPartitionedCall/StatefulPartitionedCall/predict/InceptionV3/InceptionV3/Conv2d_3b_1x1/Relu", "op": "_FusedConv2D", "input": ["StatefulPartitionedCall/sequential/keras_layer/StatefulPartitionedCall/StatefulPartitionedCall/StatefulPartitionedCall/predict/InceptionV3/InceptionV3/MaxPool_3a_3x3/MaxPool", "StatefulPartitionedCall/sequential/keras_layer/StatefulPartitionedCall/StatefulPartitionedCall/StatefulPartitionedCall/predict/InceptionV3/InceptionV3/Conv2d_3b_1x1/Conv2D_weights", "StatefulPartitionedCall/sequential/keras_layer/StatefulPartitionedCall/StatefulPartitionedCall/StatefulPartitionedCall/predict/InceptionV3/InceptionV3/Conv2d_3b_1x1/Conv2D_bn_offset"], "device": "/device:CPU:0", "attr": {"num_args": {"i": "1"}, "dilations": {"list": {"i": ["1", "1", "1", "1"]}}, "T": {"type": "DT_FLOAT"}, "fused_ops": {"list": {"s": ["Qmlhc0FkZA==", "UmVsdQ=="]}}, "explicit_paddings": {"list": {}}, "strides": {"list": {"i": ["1", "1", "1", "1"]}}, "use_cudnn_on_gpu": {"b": true}, "padding": {"s": "VkFMSUQ="}, "epsilon": {"f": 0.0}, "data_format": {"s": "TkhXQw=="}}}, {"name": "StatefulPartitionedCall/sequential/keras_layer/StatefulPartitionedCall/StatefulPartitionedCall/StatefulPartitionedCall/predict/InceptionV3/InceptionV3/Conv2d_4a_3x3/Relu", "op": "_FusedConv2D", "input": ["StatefulPartitionedCall/sequential/keras_layer/StatefulPartitionedCall/StatefulPartitionedCall/StatefulPartitionedCall/predict/InceptionV3/InceptionV3/Conv2d_3b_1x1/Relu", "StatefulPartitionedCall/sequential/keras_layer/StatefulPartitionedCall/StatefulPartitionedCall/StatefulPartitionedCall/predict/InceptionV3/InceptionV3/Conv2d_4a_3x3/Conv2D_weights", "StatefulPartitionedCall/sequential/keras_layer/StatefulPartitionedCall/StatefulPartitionedCall/StatefulPartitionedCall/predict/InceptionV3/InceptionV3/Conv2d_4a_3x3/Conv2D_bn_offset"], "device": "/device:CPU:0", "attr": {"data_format": {"s": "TkhXQw=="}, "dilations": {"list": {"i": ["1", "1", "1", "1"]}}, "epsilon": {"f": 0.0}, "num_args": {"i": "1"}, "explicit_paddings": {"list": {}}, "padding": {"s": "VkFMSUQ="}, "fused_ops": {"list": {"s": ["Qmlhc0FkZA==", "UmVsdQ=="]}}, "strides": {"list": {"i": ["1", "1", "1", "1"]}}, "T": {"type": "DT_FLOAT"}, "use_cudnn_on_gpu": {"b": true}}}, {"name": "StatefulPartitionedCall/sequential/keras_layer/StatefulPartitionedCall/StatefulPartitionedCall/StatefulPartitionedCall/predict/InceptionV3/InceptionV3/MaxPool_5a_3x3/MaxPool", "op": "MaxPool", "input": ["StatefulPartitionedCall/sequential/keras_layer/StatefulPartitionedCall/StatefulPartitionedCall/StatefulPartitionedCall/predict/InceptionV3/InceptionV3/Conv2d_4a_3x3/Relu"], "attr": {"data_format": {"s": "TkhXQw=="}, "T": {"type": "DT_FLOAT"}, "padding": {"s": "VkFMSUQ="}, "strides": {"list": {"i": ["1", "2", "2", "1"]}}, "explicit_paddings": {"list": {}}, "ksize": {"list": {"i": ["1", "3", "3", "1"]}}}}, {"name": "StatefulPartitionedCall/sequential/keras_layer/StatefulPartitionedCall/StatefulPartitionedCall/StatefulPartitionedCall/predict/InceptionV3/InceptionV3/Mixed_5b/Branch_3/AvgPool_0a_3x3/AvgPool", "op": "AvgPool", "input": ["StatefulPartitionedCall/sequential/keras_layer/StatefulPartitionedCall/StatefulPartitionedCall/StatefulPartitionedCall/predict/InceptionV3/InceptionV3/MaxPool_5a_3x3/MaxPool"], "attr": {"data_format": {"s": "TkhXQw=="}, "padding": {"s": "U0FNRQ=="}, "T": {"type": "DT_FLOAT"}, "strides": {"list": {"i": ["1", "1", "1", "1"]}}, "ksize": {"list": {"i": ["1", "3", "3", "1"]}}}}, {"name": "StatefulPartitionedCall/sequential/keras_layer/StatefulPartitionedCall/StatefulPartitionedCall/StatefulPartitionedCall/predict/InceptionV3/InceptionV3/Mixed_5b/Branch_0/Conv2d_0a_1x1/Relu", "op": "_FusedConv2D", "input": ["StatefulPartitionedCall/sequential/keras_layer/StatefulPartitionedCall/StatefulPartitionedCall/StatefulPartitionedCall/predict/InceptionV3/InceptionV3/MaxPool_5a_3x3/MaxPool", "StatefulPartitionedCall/sequential/keras_layer/StatefulPartitionedCall/StatefulPartitionedCall/StatefulPartitionedCall/predict/InceptionV3/InceptionV3/Mixed_5b/Branch_0/Conv2d_0a_1x1/Conv2D_weights", "StatefulPartitionedCall/sequential/keras_layer/StatefulPartitionedCall/StatefulPartitionedCall/StatefulPartitionedCall/predict/InceptionV3/InceptionV3/Mixed_5b/Branch_0/Conv2d_0a_1x1/Conv2D_bn_offset"], "device": "/device:CPU:0", "attr": {"dilations": {"list": {"i": ["1", "1", "1", "1"]}}, "T": {"type": "DT_FLOAT"}, "padding": {"s": "U0FNRQ=="}, "num_args": {"i": "1"}, "strides": {"list": {"i": ["1", "1", "1", "1"]}}, "fused_ops": {"list": {"s": ["Qmlhc0FkZA==", "UmVsdQ=="]}}, "use_cudnn_on_gpu": {"b": true}, "data_format": {"s": "TkhXQw=="}, "epsilon": {"f": 0.0}, "explicit_paddings": {"list": {}}}}, {"name": "StatefulPartitionedCall/sequential/keras_layer/StatefulPartitionedCall/StatefulPartitionedCall/StatefulPartitionedCall/predict/InceptionV3/InceptionV3/Mixed_5b/Branch_1/Conv2d_0a_1x1/Relu", "op": "_FusedConv2D", "input": ["StatefulPartitionedCall/sequential/keras_layer/StatefulPartitionedCall/StatefulPartitionedCall/StatefulPartitionedCall/predict/InceptionV3/InceptionV3/MaxPool_5a_3x3/MaxPool", "StatefulPartitionedCall/sequential/keras_layer/StatefulPartitionedCall/StatefulPartitionedCall/StatefulPartitionedCall/predict/InceptionV3/InceptionV3/Mixed_5b/Branch_1/Conv2d_0a_1x1/Conv2D_weights", "StatefulPartitionedCall/sequential/keras_layer/StatefulPartitionedCall/StatefulPartitionedCall/StatefulPartitionedCall/predict/InceptionV3/InceptionV3/Mixed_5b/Branch_1/Conv2d_0a_1x1/Conv2D_bn_offset"], "device": "/device:CPU:0", "attr": {"epsilon": {"f": 0.0}, "padding": {"s": "U0FNRQ=="}, "explicit_paddings": {"list": {}}, "data_format": {"s": "TkhXQw=="}, "strides": {"list": {"i": ["1", "1", "1", "1"]}}, "dilations": {"list": {"i": ["1", "1", "1", "1"]}}, "fused_ops": {"list": {"s": ["Qmlhc0FkZA==", "UmVsdQ=="]}}, "use_cudnn_on_gpu": {"b": true}, "T": {"type": "DT_FLOAT"}, "num_args": {"i": "1"}}}, {"name": "StatefulPartitionedCall/sequential/keras_layer/StatefulPartitionedCall/StatefulPartitionedCall/StatefulPartitionedCall/predict/InceptionV3/InceptionV3/Mixed_5b/Branch_2/Conv2d_0a_1x1/Relu", "op": "_FusedConv2D", "input": ["StatefulPartitionedCall/sequential/keras_layer/StatefulPartitionedCall/StatefulPartitionedCall/StatefulPartitionedCall/predict/InceptionV3/InceptionV3/MaxPool_5a_3x3/MaxPool", "StatefulPartitionedCall/sequential/keras_layer/StatefulPartitionedCall/StatefulPartitionedCall/StatefulPartitionedCall/predict/InceptionV3/InceptionV3/Mixed_5b/Branch_2/Conv2d_0a_1x1/Conv2D_weights", "StatefulPartitionedCall/sequential/keras_layer/StatefulPartitionedCall/StatefulPartitionedCall/StatefulPartitionedCall/predict/InceptionV3/InceptionV3/Mixed_5b/Branch_2/Conv2d_0a_1x1/Conv2D_bn_offset"], "device": "/device:CPU:0", "attr": {"dilations": {"list": {"i": ["1", "1", "1", "1"]}}, "num_args": {"i": "1"}, "data_format": {"s": "TkhXQw=="}, "fused_ops": {"list": {"s": ["Qmlhc0FkZA==", "UmVsdQ=="]}}, "epsilon": {"f": 0.0}, "use_cudnn_on_gpu": {"b": true}, "explicit_paddings": {"list": {}}, "padding": {"s": "U0FNRQ=="}, "strides": {"list": {"i": ["1", "1", "1", "1"]}}, "T": {"type": "DT_FLOAT"}}}, {"name": "StatefulPartitionedCall/sequential/keras_layer/StatefulPartitionedCall/StatefulPartitionedCall/StatefulPartitionedCall/predict/InceptionV3/InceptionV3/Mixed_5b/Branch_3/Conv2d_0b_1x1/Relu", "op": "_FusedConv2D", "input": ["StatefulPartitionedCall/sequential/keras_layer/StatefulPartitionedCall/StatefulPartitionedCall/StatefulPartitionedCall/predict/InceptionV3/InceptionV3/Mixed_5b/Branch_3/AvgPool_0a_3x3/AvgPool", "StatefulPartitionedCall/sequential/keras_layer/StatefulPartitionedCall/StatefulPartitionedCall/StatefulPartitionedCall/predict/InceptionV3/InceptionV3/Mixed_5b/Branch_3/Conv2d_0b_1x1/Conv2D_weights", "StatefulPartitionedCall/sequential/keras_layer/StatefulPartitionedCall/StatefulPartitionedCall/StatefulPartitionedCall/predict/InceptionV3/InceptionV3/Mixed_5b/Branch_3/Conv2d_0b_1x1/Conv2D_bn_offset"], "device": "/device:CPU:0", "attr": {"T": {"type": "DT_FLOAT"}, "data_format": {"s": "TkhXQw=="}, "explicit_paddings": {"list": {}}, "num_args": {"i": "1"}, "strides": {"list": {"i": ["1", "1", "1", "1"]}}, "padding": {"s": "U0FNRQ=="}, "fused_ops": {"list": {"s": ["Qmlhc0FkZA==", "UmVsdQ=="]}}, "use_cudnn_on_gpu": {"b": true}, "dilations": {"list": {"i": ["1", "1", "1", "1"]}}, "epsilon": {"f": 0.0}}}, {"name": "StatefulPartitionedCall/sequential/keras_layer/StatefulPartitionedCall/StatefulPartitionedCall/StatefulPartitionedCall/predict/InceptionV3/InceptionV3/Mixed_5b/Branch_1/Conv2d_0b_5x5/Relu", "op": "_FusedConv2D", "input": ["StatefulPartitionedCall/sequential/keras_layer/StatefulPartitionedCall/StatefulPartitionedCall/StatefulPartitionedCall/predict/InceptionV3/InceptionV3/Mixed_5b/Branch_1/Conv2d_0a_1x1/Relu", "StatefulPartitionedCall/sequential/keras_layer/StatefulPartitionedCall/StatefulPartitionedCall/StatefulPartitionedCall/predict/InceptionV3/InceptionV3/Mixed_5b/Branch_1/Conv2d_0b_5x5/Conv2D_weights", "StatefulPartitionedCall/sequential/keras_layer/StatefulPartitionedCall/StatefulPartitionedCall/StatefulPartitionedCall/predict/InceptionV3/InceptionV3/Mixed_5b/Branch_1/Conv2d_0b_5x5/Conv2D_bn_offset"], "device": "/device:CPU:0", "attr": {"strides": {"list": {"i": ["1", "1", "1", "1"]}}, "data_format": {"s": "TkhXQw=="}, "dilations": {"list": {"i": ["1", "1", "1", "1"]}}, "fused_ops": {"list": {"s": ["Qmlhc0FkZA==", "UmVsdQ=="]}}, "T": {"type": "DT_FLOAT"}, "epsilon": {"f": 0.0}, "padding": {"s": "U0FNRQ=="}, "explicit_paddings": {"list": {}}, "use_cudnn_on_gpu": {"b": true}, "num_args": {"i": "1"}}}, {"name": "StatefulPartitionedCall/sequential/keras_layer/StatefulPartitionedCall/StatefulPartitionedCall/StatefulPartitionedCall/predict/InceptionV3/InceptionV3/Mixed_5b/Branch_2/Conv2d_0b_3x3/Relu", "op": "_FusedConv2D", "input": ["StatefulPartitionedCall/sequential/keras_layer/StatefulPartitionedCall/StatefulPartitionedCall/StatefulPartitionedCall/predict/InceptionV3/InceptionV3/Mixed_5b/Branch_2/Conv2d_0a_1x1/Relu", "StatefulPartitionedCall/sequential/keras_layer/StatefulPartitionedCall/StatefulPartitionedCall/StatefulPartitionedCall/predict/InceptionV3/InceptionV3/Mixed_5b/Branch_2/Conv2d_0b_3x3/Conv2D_weights", "StatefulPartitionedCall/sequential/keras_layer/StatefulPartitionedCall/StatefulPartitionedCall/StatefulPartitionedCall/predict/InceptionV3/InceptionV3/Mixed_5b/Branch_2/Conv2d_0b_3x3/Conv2D_bn_offset"], "device": "/device:CPU:0", "attr": {"T": {"type": "DT_FLOAT"}, "use_cudnn_on_gpu": {"b": true}, "dilations": {"list": {"i": ["1", "1", "1", "1"]}}, "strides": {"list": {"i": ["1", "1", "1", "1"]}}, "explicit_paddings": {"list": {}}, "num_args": {"i": "1"}, "data_format": {"s": "TkhXQw=="}, "fused_ops": {"list": {"s": ["Qmlhc0FkZA==", "UmVsdQ=="]}}, "padding": {"s": "U0FNRQ=="}, "epsilon": {"f": 0.0}}}, {"name": "StatefulPartitionedCall/sequential/keras_layer/StatefulPartitionedCall/StatefulPartitionedCall/StatefulPartitionedCall/predict/InceptionV3/InceptionV3/Mixed_5b/Branch_2/Conv2d_0c_3x3/Relu", "op": "_FusedConv2D", "input": ["StatefulPartitionedCall/sequential/keras_layer/StatefulPartitionedCall/StatefulPartitionedCall/StatefulPartitionedCall/predict/InceptionV3/InceptionV3/Mixed_5b/Branch_2/Conv2d_0b_3x3/Relu", "StatefulPartitionedCall/sequential/keras_layer/StatefulPartitionedCall/StatefulPartitionedCall/StatefulPartitionedCall/predict/InceptionV3/InceptionV3/Mixed_5b/Branch_2/Conv2d_0c_3x3/Conv2D_weights", "StatefulPartitionedCall/sequential/keras_layer/StatefulPartitionedCall/StatefulPartitionedCall/StatefulPartitionedCall/predict/InceptionV3/InceptionV3/Mixed_5b/Branch_2/Conv2d_0c_3x3/Conv2D_bn_offset"], "device": "/device:CPU:0", "attr": {"use_cudnn_on_gpu": {"b": true}, "padding": {"s": "U0FNRQ=="}, "strides": {"list": {"i": ["1", "1", "1", "1"]}}, "fused_ops": {"list": {"s": ["Qmlhc0FkZA==", "UmVsdQ=="]}}, "T": {"type": "DT_FLOAT"}, "data_format": {"s": "TkhXQw=="}, "dilations": {"list": {"i": ["1", "1", "1", "1"]}}, "epsilon": {"f": 0.0}, "num_args": {"i": "1"}, "explicit_paddings": {"list": {}}}}, {"name": "StatefulPartitionedCall/sequential/keras_layer/StatefulPartitionedCall/StatefulPartitionedCall/StatefulPartitionedCall/predict/InceptionV3/InceptionV3/Mixed_5b/concat", "op": "ConcatV2", "input": ["StatefulPartitionedCall/sequential/keras_layer/StatefulPartitionedCall/StatefulPartitionedCall/StatefulPartitionedCall/predict/InceptionV3/InceptionV3/Mixed_5b/Branch_0/Conv2d_0a_1x1/Relu", "StatefulPartitionedCall/sequential/keras_layer/StatefulPartitionedCall/StatefulPartitionedCall/StatefulPartitionedCall/predict/InceptionV3/InceptionV3/Mixed_5b/Branch_1/Conv2d_0b_5x5/Relu", "StatefulPartitionedCall/sequential/keras_layer/StatefulPartitionedCall/StatefulPartitionedCall/StatefulPartitionedCall/predict/InceptionV3/InceptionV3/Mixed_5b/Branch_2/Conv2d_0c_3x3/Relu", "StatefulPartitionedCall/sequential/keras_layer/StatefulPartitionedCall/StatefulPartitionedCall/StatefulPartitionedCall/predict/InceptionV3/InceptionV3/Mixed_5b/Branch_3/Conv2d_0b_1x1/Relu", "StatefulPartitionedCall/sequential/keras_layer/StatefulPartitionedCall/StatefulPartitionedCall/StatefulPartitionedCall/predict/InceptionV3/InceptionV3/Mixed_5b/concat/axis"], "attr": {"T": {"type": "DT_FLOAT"}, "N": {"i": "4"}, "Tidx": {"type": "DT_INT32"}}}, {"name": "StatefulPartitionedCall/sequential/keras_layer/StatefulPartitionedCall/StatefulPartitionedCall/StatefulPartitionedCall/predict/InceptionV3/InceptionV3/Mixed_5c/Branch_3/AvgPool_0a_3x3/AvgPool", "op": "AvgPool", "input": ["StatefulPartitionedCall/sequential/keras_layer/StatefulPartitionedCall/StatefulPartitionedCall/StatefulPartitionedCall/predict/InceptionV3/InceptionV3/Mixed_5b/concat"], "attr": {"strides": {"list": {"i": ["1", "1", "1", "1"]}}, "ksize": {"list": {"i": ["1", "3", "3", "1"]}}, "padding": {"s": "U0FNRQ=="}, "data_format": {"s": "TkhXQw=="}, "T": {"type": "DT_FLOAT"}}}, {"name": "StatefulPartitionedCall/sequential/keras_layer/StatefulPartitionedCall/StatefulPartitionedCall/StatefulPartitionedCall/predict/InceptionV3/InceptionV3/Mixed_5c/Branch_0/Conv2d_0a_1x1/Relu", "op": "_FusedConv2D", "input": ["StatefulPartitionedCall/sequential/keras_layer/StatefulPartitionedCall/StatefulPartitionedCall/StatefulPartitionedCall/predict/InceptionV3/InceptionV3/Mixed_5b/concat", "StatefulPartitionedCall/sequential/keras_layer/StatefulPartitionedCall/StatefulPartitionedCall/StatefulPartitionedCall/predict/InceptionV3/InceptionV3/Mixed_5c/Branch_0/Conv2d_0a_1x1/Conv2D_weights", "StatefulPartitionedCall/sequential/keras_layer/StatefulPartitionedCall/StatefulPartitionedCall/StatefulPartitionedCall/predict/InceptionV3/InceptionV3/Mixed_5c/Branch_0/Conv2d_0a_1x1/Conv2D_bn_offset"], "device": "/device:CPU:0", "attr": {"epsilon": {"f": 0.0}, "num_args": {"i": "1"}, "dilations": {"list": {"i": ["1", "1", "1", "1"]}}, "data_format": {"s": "TkhXQw=="}, "strides": {"list": {"i": ["1", "1", "1", "1"]}}, "use_cudnn_on_gpu": {"b": true}, "padding": {"s": "U0FNRQ=="}, "explicit_paddings": {"list": {}}, "T": {"type": "DT_FLOAT"}, "fused_ops": {"list": {"s": ["Qmlhc0FkZA==", "UmVsdQ=="]}}}}, {"name": "StatefulPartitionedCall/sequential/keras_layer/StatefulPartitionedCall/StatefulPartitionedCall/StatefulPartitionedCall/predict/InceptionV3/InceptionV3/Mixed_5c/Branch_1/Conv2d_0b_1x1/Relu", "op": "_FusedConv2D", "input": ["StatefulPartitionedCall/sequential/keras_layer/StatefulPartitionedCall/StatefulPartitionedCall/StatefulPartitionedCall/predict/InceptionV3/InceptionV3/Mixed_5b/concat", "StatefulPartitionedCall/sequential/keras_layer/StatefulPartitionedCall/StatefulPartitionedCall/StatefulPartitionedCall/predict/InceptionV3/InceptionV3/Mixed_5c/Branch_1/Conv2d_0b_1x1/Conv2D_weights", "StatefulPartitionedCall/sequential/keras_layer/StatefulPartitionedCall/StatefulPartitionedCall/StatefulPartitionedCall/predict/InceptionV3/InceptionV3/Mixed_5c/Branch_1/Conv2d_0b_1x1/Conv2D_bn_offset"], "device": "/device:CPU:0", "attr": {"strides": {"list": {"i": ["1", "1", "1", "1"]}}, "use_cudnn_on_gpu": {"b": true}, "epsilon": {"f": 0.0}, "T": {"type": "DT_FLOAT"}, "dilations": {"list": {"i": ["1", "1", "1", "1"]}}, "fused_ops": {"list": {"s": ["Qmlhc0FkZA==", "UmVsdQ=="]}}, "explicit_paddings": {"list": {}}, "num_args": {"i": "1"}, "data_format": {"s": "TkhXQw=="}, "padding": {"s": "U0FNRQ=="}}}, {"name": "StatefulPartitionedCall/sequential/keras_layer/StatefulPartitionedCall/StatefulPartitionedCall/StatefulPartitionedCall/predict/InceptionV3/InceptionV3/Mixed_5c/Branch_2/Conv2d_0a_1x1/Relu", "op": "_FusedConv2D", "input": ["StatefulPartitionedCall/sequential/keras_layer/StatefulPartitionedCall/StatefulPartitionedCall/StatefulPartitionedCall/predict/InceptionV3/InceptionV3/Mixed_5b/concat", "StatefulPartitionedCall/sequential/keras_layer/StatefulPartitionedCall/StatefulPartitionedCall/StatefulPartitionedCall/predict/InceptionV3/InceptionV3/Mixed_5c/Branch_2/Conv2d_0a_1x1/Conv2D_weights", "StatefulPartitionedCall/sequential/keras_layer/StatefulPartitionedCall/StatefulPartitionedCall/StatefulPartitionedCall/predict/InceptionV3/InceptionV3/Mixed_5c/Branch_2/Conv2d_0a_1x1/Conv2D_bn_offset"], "device": "/device:CPU:0", "attr": {"data_format": {"s": "TkhXQw=="}, "num_args": {"i": "1"}, "explicit_paddings": {"list": {}}, "epsilon": {"f": 0.0}, "dilations": {"list": {"i": ["1", "1", "1", "1"]}}, "strides": {"list": {"i": ["1", "1", "1", "1"]}}, "T": {"type": "DT_FLOAT"}, "fused_ops": {"list": {"s": ["Qmlhc0FkZA==", "UmVsdQ=="]}}, "padding": {"s": "U0FNRQ=="}, "use_cudnn_on_gpu": {"b": true}}}, {"name": "StatefulPartitionedCall/sequential/keras_layer/StatefulPartitionedCall/StatefulPartitionedCall/StatefulPartitionedCall/predict/InceptionV3/InceptionV3/Mixed_5c/Branch_3/Conv2d_0b_1x1/Relu", "op": "_FusedConv2D", "input": ["StatefulPartitionedCall/sequential/keras_layer/StatefulPartitionedCall/StatefulPartitionedCall/StatefulPartitionedCall/predict/InceptionV3/InceptionV3/Mixed_5c/Branch_3/AvgPool_0a_3x3/AvgPool", "StatefulPartitionedCall/sequential/keras_layer/StatefulPartitionedCall/StatefulPartitionedCall/StatefulPartitionedCall/predict/InceptionV3/InceptionV3/Mixed_5c/Branch_3/Conv2d_0b_1x1/Conv2D_weights", "StatefulPartitionedCall/sequential/keras_layer/StatefulPartitionedCall/StatefulPartitionedCall/StatefulPartitionedCall/predict/InceptionV3/InceptionV3/Mixed_5c/Branch_3/Conv2d_0b_1x1/Conv2D_bn_offset"], "device": "/device:CPU:0", "attr": {"epsilon": {"f": 0.0}, "data_format": {"s": "TkhXQw=="}, "strides": {"list": {"i": ["1", "1", "1", "1"]}}, "explicit_paddings": {"list": {}}, "fused_ops": {"list": {"s": ["Qmlhc0FkZA==", "UmVsdQ=="]}}, "padding": {"s": "U0FNRQ=="}, "use_cudnn_on_gpu": {"b": true}, "dilations": {"list": {"i": ["1", "1", "1", "1"]}}, "num_args": {"i": "1"}, "T": {"type": "DT_FLOAT"}}}, {"name": "StatefulPartitionedCall/sequential/keras_layer/StatefulPartitionedCall/StatefulPartitionedCall/StatefulPartitionedCall/predict/InceptionV3/InceptionV3/Mixed_5c/Branch_1/Conv_1_0c_5x5/Relu", "op": "_FusedConv2D", "input": ["StatefulPartitionedCall/sequential/keras_layer/StatefulPartitionedCall/StatefulPartitionedCall/StatefulPartitionedCall/predict/InceptionV3/InceptionV3/Mixed_5c/Branch_1/Conv2d_0b_1x1/Relu", "StatefulPartitionedCall/sequential/keras_layer/StatefulPartitionedCall/StatefulPartitionedCall/StatefulPartitionedCall/predict/InceptionV3/InceptionV3/Mixed_5c/Branch_1/Conv_1_0c_5x5/Conv2D_weights", "StatefulPartitionedCall/sequential/keras_layer/StatefulPartitionedCall/StatefulPartitionedCall/StatefulPartitionedCall/predict/InceptionV3/InceptionV3/Mixed_5c/Branch_1/Conv_1_0c_5x5/Conv2D_bn_offset"], "device": "/device:CPU:0", "attr": {"data_format": {"s": "TkhXQw=="}, "fused_ops": {"list": {"s": ["Qmlhc0FkZA==", "UmVsdQ=="]}}, "num_args": {"i": "1"}, "epsilon": {"f": 0.0}, "strides": {"list": {"i": ["1", "1", "1", "1"]}}, "padding": {"s": "U0FNRQ=="}, "explicit_paddings": {"list": {}}, "T": {"type": "DT_FLOAT"}, "use_cudnn_on_gpu": {"b": true}, "dilations": {"list": {"i": ["1", "1", "1", "1"]}}}}, {"name": "StatefulPartitionedCall/sequential/keras_layer/StatefulPartitionedCall/StatefulPartitionedCall/StatefulPartitionedCall/predict/InceptionV3/InceptionV3/Mixed_5c/Branch_2/Conv2d_0b_3x3/Relu", "op": "_FusedConv2D", "input": ["StatefulPartitionedCall/sequential/keras_layer/StatefulPartitionedCall/StatefulPartitionedCall/StatefulPartitionedCall/predict/InceptionV3/InceptionV3/Mixed_5c/Branch_2/Conv2d_0a_1x1/Relu", "StatefulPartitionedCall/sequential/keras_layer/StatefulPartitionedCall/StatefulPartitionedCall/StatefulPartitionedCall/predict/InceptionV3/InceptionV3/Mixed_5c/Branch_2/Conv2d_0b_3x3/Conv2D_weights", "StatefulPartitionedCall/sequential/keras_layer/StatefulPartitionedCall/StatefulPartitionedCall/StatefulPartitionedCall/predict/InceptionV3/InceptionV3/Mixed_5c/Branch_2/Conv2d_0b_3x3/Conv2D_bn_offset"], "device": "/device:CPU:0", "attr": {"use_cudnn_on_gpu": {"b": true}, "padding": {"s": "U0FNRQ=="}, "explicit_paddings": {"list": {}}, "epsilon": {"f": 0.0}, "dilations": {"list": {"i": ["1", "1", "1", "1"]}}, "strides": {"list": {"i": ["1", "1", "1", "1"]}}, "num_args": {"i": "1"}, "fused_ops": {"list": {"s": ["Qmlhc0FkZA==", "UmVsdQ=="]}}, "data_format": {"s": "TkhXQw=="}, "T": {"type": "DT_FLOAT"}}}, {"name": "StatefulPartitionedCall/sequential/keras_layer/StatefulPartitionedCall/StatefulPartitionedCall/StatefulPartitionedCall/predict/InceptionV3/InceptionV3/Mixed_5c/Branch_2/Conv2d_0c_3x3/Relu", "op": "_FusedConv2D", "input": ["StatefulPartitionedCall/sequential/keras_layer/StatefulPartitionedCall/StatefulPartitionedCall/StatefulPartitionedCall/predict/InceptionV3/InceptionV3/Mixed_5c/Branch_2/Conv2d_0b_3x3/Relu", "StatefulPartitionedCall/sequential/keras_layer/StatefulPartitionedCall/StatefulPartitionedCall/StatefulPartitionedCall/predict/InceptionV3/InceptionV3/Mixed_5c/Branch_2/Conv2d_0c_3x3/Conv2D_weights", "StatefulPartitionedCall/sequential/keras_layer/StatefulPartitionedCall/StatefulPartitionedCall/StatefulPartitionedCall/predict/InceptionV3/InceptionV3/Mixed_5c/Branch_2/Conv2d_0c_3x3/Conv2D_bn_offset"], "device": "/device:CPU:0", "attr": {"use_cudnn_on_gpu": {"b": true}, "strides": {"list": {"i": ["1", "1", "1", "1"]}}, "explicit_paddings": {"list": {}}, "epsilon": {"f": 0.0}, "data_format": {"s": "TkhXQw=="}, "T": {"type": "DT_FLOAT"}, "padding": {"s": "U0FNRQ=="}, "dilations": {"list": {"i": ["1", "1", "1", "1"]}}, "fused_ops": {"list": {"s": ["Qmlhc0FkZA==", "UmVsdQ=="]}}, "num_args": {"i": "1"}}}, {"name": "StatefulPartitionedCall/sequential/keras_layer/StatefulPartitionedCall/StatefulPartitionedCall/StatefulPartitionedCall/predict/InceptionV3/InceptionV3/Mixed_5c/concat", "op": "ConcatV2", "input": ["StatefulPartitionedCall/sequential/keras_layer/StatefulPartitionedCall/StatefulPartitionedCall/StatefulPartitionedCall/predict/InceptionV3/InceptionV3/Mixed_5c/Branch_0/Conv2d_0a_1x1/Relu", "StatefulPartitionedCall/sequential/keras_layer/StatefulPartitionedCall/StatefulPartitionedCall/StatefulPartitionedCall/predict/InceptionV3/InceptionV3/Mixed_5c/Branch_1/Conv_1_0c_5x5/Relu", "StatefulPartitionedCall/sequential/keras_layer/StatefulPartitionedCall/StatefulPartitionedCall/StatefulPartitionedCall/predict/InceptionV3/InceptionV3/Mixed_5c/Branch_2/Conv2d_0c_3x3/Relu", "StatefulPartitionedCall/sequential/keras_layer/StatefulPartitionedCall/StatefulPartitionedCall/StatefulPartitionedCall/predict/InceptionV3/InceptionV3/Mixed_5c/Branch_3/Conv2d_0b_1x1/Relu", "StatefulPartitionedCall/sequential/keras_layer/StatefulPartitionedCall/StatefulPartitionedCall/StatefulPartitionedCall/predict/InceptionV3/InceptionV3/Mixed_5c/concat/axis"], "attr": {"T": {"type": "DT_FLOAT"}, "N": {"i": "4"}, "Tidx": {"type": "DT_INT32"}}}, {"name": "StatefulPartitionedCall/sequential/keras_layer/StatefulPartitionedCall/StatefulPartitionedCall/StatefulPartitionedCall/predict/InceptionV3/InceptionV3/Mixed_5d/Branch_3/AvgPool_0a_3x3/AvgPool", "op": "AvgPool", "input": ["StatefulPartitionedCall/sequential/keras_layer/StatefulPartitionedCall/StatefulPartitionedCall/StatefulPartitionedCall/predict/InceptionV3/InceptionV3/Mixed_5c/concat"], "attr": {"ksize": {"list": {"i": ["1", "3", "3", "1"]}}, "padding": {"s": "U0FNRQ=="}, "T": {"type": "DT_FLOAT"}, "data_format": {"s": "TkhXQw=="}, "strides": {"list": {"i": ["1", "1", "1", "1"]}}}}, {"name": "StatefulPartitionedCall/sequential/keras_layer/StatefulPartitionedCall/StatefulPartitionedCall/StatefulPartitionedCall/predict/InceptionV3/InceptionV3/Mixed_5d/Branch_0/Conv2d_0a_1x1/Relu", "op": "_FusedConv2D", "input": ["StatefulPartitionedCall/sequential/keras_layer/StatefulPartitionedCall/StatefulPartitionedCall/StatefulPartitionedCall/predict/InceptionV3/InceptionV3/Mixed_5c/concat", "StatefulPartitionedCall/sequential/keras_layer/StatefulPartitionedCall/StatefulPartitionedCall/StatefulPartitionedCall/predict/InceptionV3/InceptionV3/Mixed_5d/Branch_0/Conv2d_0a_1x1/Conv2D_weights", "StatefulPartitionedCall/sequential/keras_layer/StatefulPartitionedCall/StatefulPartitionedCall/StatefulPartitionedCall/predict/InceptionV3/InceptionV3/Mixed_5d/Branch_0/Conv2d_0a_1x1/Conv2D_bn_offset"], "device": "/device:CPU:0", "attr": {"strides": {"list": {"i": ["1", "1", "1", "1"]}}, "num_args": {"i": "1"}, "padding": {"s": "U0FNRQ=="}, "data_format": {"s": "TkhXQw=="}, "use_cudnn_on_gpu": {"b": true}, "epsilon": {"f": 0.0}, "T": {"type": "DT_FLOAT"}, "explicit_paddings": {"list": {}}, "dilations": {"list": {"i": ["1", "1", "1", "1"]}}, "fused_ops": {"list": {"s": ["Qmlhc0FkZA==", "UmVsdQ=="]}}}}, {"name": "StatefulPartitionedCall/sequential/keras_layer/StatefulPartitionedCall/StatefulPartitionedCall/StatefulPartitionedCall/predict/InceptionV3/InceptionV3/Mixed_5d/Branch_1/Conv2d_0a_1x1/Relu", "op": "_FusedConv2D", "input": ["StatefulPartitionedCall/sequential/keras_layer/StatefulPartitionedCall/StatefulPartitionedCall/StatefulPartitionedCall/predict/InceptionV3/InceptionV3/Mixed_5c/concat", "StatefulPartitionedCall/sequential/keras_layer/StatefulPartitionedCall/StatefulPartitionedCall/StatefulPartitionedCall/predict/InceptionV3/InceptionV3/Mixed_5d/Branch_1/Conv2d_0a_1x1/Conv2D_weights", "StatefulPartitionedCall/sequential/keras_layer/StatefulPartitionedCall/StatefulPartitionedCall/StatefulPartitionedCall/predict/InceptionV3/InceptionV3/Mixed_5d/Branch_1/Conv2d_0a_1x1/Conv2D_bn_offset"], "device": "/device:CPU:0", "attr": {"num_args": {"i": "1"}, "epsilon": {"f": 0.0}, "padding": {"s": "U0FNRQ=="}, "T": {"type": "DT_FLOAT"}, "explicit_paddings": {"list": {}}, "data_format": {"s": "TkhXQw=="}, "use_cudnn_on_gpu": {"b": true}, "fused_ops": {"list": {"s": ["Qmlhc0FkZA==", "UmVsdQ=="]}}, "strides": {"list": {"i": ["1", "1", "1", "1"]}}, "dilations": {"list": {"i": ["1", "1", "1", "1"]}}}}, {"name": "StatefulPartitionedCall/sequential/keras_layer/StatefulPartitionedCall/StatefulPartitionedCall/StatefulPartitionedCall/predict/InceptionV3/InceptionV3/Mixed_5d/Branch_2/Conv2d_0a_1x1/Relu", "op": "_FusedConv2D", "input": ["StatefulPartitionedCall/sequential/keras_layer/StatefulPartitionedCall/StatefulPartitionedCall/StatefulPartitionedCall/predict/InceptionV3/InceptionV3/Mixed_5c/concat", "StatefulPartitionedCall/sequential/keras_layer/StatefulPartitionedCall/StatefulPartitionedCall/StatefulPartitionedCall/predict/InceptionV3/InceptionV3/Mixed_5d/Branch_2/Conv2d_0a_1x1/Conv2D_weights", "StatefulPartitionedCall/sequential/keras_layer/StatefulPartitionedCall/StatefulPartitionedCall/StatefulPartitionedCall/predict/InceptionV3/InceptionV3/Mixed_5d/Branch_2/Conv2d_0a_1x1/Conv2D_bn_offset"], "device": "/device:CPU:0", "attr": {"use_cudnn_on_gpu": {"b": true}, "explicit_paddings": {"list": {}}, "fused_ops": {"list": {"s": ["Qmlhc0FkZA==", "UmVsdQ=="]}}, "epsilon": {"f": 0.0}, "strides": {"list": {"i": ["1", "1", "1", "1"]}}, "dilations": {"list": {"i": ["1", "1", "1", "1"]}}, "num_args": {"i": "1"}, "T": {"type": "DT_FLOAT"}, "data_format": {"s": "TkhXQw=="}, "padding": {"s": "U0FNRQ=="}}}, {"name": "StatefulPartitionedCall/sequential/keras_layer/StatefulPartitionedCall/StatefulPartitionedCall/StatefulPartitionedCall/predict/InceptionV3/InceptionV3/Mixed_5d/Branch_3/Conv2d_0b_1x1/Relu", "op": "_FusedConv2D", "input": ["StatefulPartitionedCall/sequential/keras_layer/StatefulPartitionedCall/StatefulPartitionedCall/StatefulPartitionedCall/predict/InceptionV3/InceptionV3/Mixed_5d/Branch_3/AvgPool_0a_3x3/AvgPool", "StatefulPartitionedCall/sequential/keras_layer/StatefulPartitionedCall/StatefulPartitionedCall/StatefulPartitionedCall/predict/InceptionV3/InceptionV3/Mixed_5d/Branch_3/Conv2d_0b_1x1/Conv2D_weights", "StatefulPartitionedCall/sequential/keras_layer/StatefulPartitionedCall/StatefulPartitionedCall/StatefulPartitionedCall/predict/InceptionV3/InceptionV3/Mixed_5d/Branch_3/Conv2d_0b_1x1/Conv2D_bn_offset"], "device": "/device:CPU:0", "attr": {"dilations": {"list": {"i": ["1", "1", "1", "1"]}}, "num_args": {"i": "1"}, "explicit_paddings": {"list": {}}, "use_cudnn_on_gpu": {"b": true}, "epsilon": {"f": 0.0}, "padding": {"s": "U0FNRQ=="}, "T": {"type": "DT_FLOAT"}, "data_format": {"s": "TkhXQw=="}, "fused_ops": {"list": {"s": ["Qmlhc0FkZA==", "UmVsdQ=="]}}, "strides": {"list": {"i": ["1", "1", "1", "1"]}}}}, {"name": "StatefulPartitionedCall/sequential/keras_layer/StatefulPartitionedCall/StatefulPartitionedCall/StatefulPartitionedCall/predict/InceptionV3/InceptionV3/Mixed_5d/Branch_1/Conv2d_0b_5x5/Relu", "op": "_FusedConv2D", "input": ["StatefulPartitionedCall/sequential/keras_layer/StatefulPartitionedCall/StatefulPartitionedCall/StatefulPartitionedCall/predict/InceptionV3/InceptionV3/Mixed_5d/Branch_1/Conv2d_0a_1x1/Relu", "StatefulPartitionedCall/sequential/keras_layer/StatefulPartitionedCall/StatefulPartitionedCall/StatefulPartitionedCall/predict/InceptionV3/InceptionV3/Mixed_5d/Branch_1/Conv2d_0b_5x5/Conv2D_weights", "StatefulPartitionedCall/sequential/keras_layer/StatefulPartitionedCall/StatefulPartitionedCall/StatefulPartitionedCall/predict/InceptionV3/InceptionV3/Mixed_5d/Branch_1/Conv2d_0b_5x5/Conv2D_bn_offset"], "device": "/device:CPU:0", "attr": {"dilations": {"list": {"i": ["1", "1", "1", "1"]}}, "padding": {"s": "U0FNRQ=="}, "epsilon": {"f": 0.0}, "explicit_paddings": {"list": {}}, "T": {"type": "DT_FLOAT"}, "strides": {"list": {"i": ["1", "1", "1", "1"]}}, "fused_ops": {"list": {"s": ["Qmlhc0FkZA==", "UmVsdQ=="]}}, "use_cudnn_on_gpu": {"b": true}, "num_args": {"i": "1"}, "data_format": {"s": "TkhXQw=="}}}, {"name": "StatefulPartitionedCall/sequential/keras_layer/StatefulPartitionedCall/StatefulPartitionedCall/StatefulPartitionedCall/predict/InceptionV3/InceptionV3/Mixed_5d/Branch_2/Conv2d_0b_3x3/Relu", "op": "_FusedConv2D", "input": ["StatefulPartitionedCall/sequential/keras_layer/StatefulPartitionedCall/StatefulPartitionedCall/StatefulPartitionedCall/predict/InceptionV3/InceptionV3/Mixed_5d/Branch_2/Conv2d_0a_1x1/Relu", "StatefulPartitionedCall/sequential/keras_layer/StatefulPartitionedCall/StatefulPartitionedCall/StatefulPartitionedCall/predict/InceptionV3/InceptionV3/Mixed_5d/Branch_2/Conv2d_0b_3x3/Conv2D_weights", "StatefulPartitionedCall/sequential/keras_layer/StatefulPartitionedCall/StatefulPartitionedCall/StatefulPartitionedCall/predict/InceptionV3/InceptionV3/Mixed_5d/Branch_2/Conv2d_0b_3x3/Conv2D_bn_offset"], "device": "/device:CPU:0", "attr": {"T": {"type": "DT_FLOAT"}, "data_format": {"s": "TkhXQw=="}, "padding": {"s": "U0FNRQ=="}, "use_cudnn_on_gpu": {"b": true}, "dilations": {"list": {"i": ["1", "1", "1", "1"]}}, "explicit_paddings": {"list": {}}, "strides": {"list": {"i": ["1", "1", "1", "1"]}}, "num_args": {"i": "1"}, "epsilon": {"f": 0.0}, "fused_ops": {"list": {"s": ["Qmlhc0FkZA==", "UmVsdQ=="]}}}}, {"name": "StatefulPartitionedCall/sequential/keras_layer/StatefulPartitionedCall/StatefulPartitionedCall/StatefulPartitionedCall/predict/InceptionV3/InceptionV3/Mixed_5d/Branch_2/Conv2d_0c_3x3/Relu", "op": "_FusedConv2D", "input": ["StatefulPartitionedCall/sequential/keras_layer/StatefulPartitionedCall/StatefulPartitionedCall/StatefulPartitionedCall/predict/InceptionV3/InceptionV3/Mixed_5d/Branch_2/Conv2d_0b_3x3/Relu", "StatefulPartitionedCall/sequential/keras_layer/StatefulPartitionedCall/StatefulPartitionedCall/StatefulPartitionedCall/predict/InceptionV3/InceptionV3/Mixed_5d/Branch_2/Conv2d_0c_3x3/Conv2D_weights", "StatefulPartitionedCall/sequential/keras_layer/StatefulPartitionedCall/StatefulPartitionedCall/StatefulPartitionedCall/predict/InceptionV3/InceptionV3/Mixed_5d/Branch_2/Conv2d_0c_3x3/Conv2D_bn_offset"], "device": "/device:CPU:0", "attr": {"explicit_paddings": {"list": {}}, "padding": {"s": "U0FNRQ=="}, "epsilon": {"f": 0.0}, "dilations": {"list": {"i": ["1", "1", "1", "1"]}}, "T": {"type": "DT_FLOAT"}, "strides": {"list": {"i": ["1", "1", "1", "1"]}}, "data_format": {"s": "TkhXQw=="}, "fused_ops": {"list": {"s": ["Qmlhc0FkZA==", "UmVsdQ=="]}}, "num_args": {"i": "1"}, "use_cudnn_on_gpu": {"b": true}}}, {"name": "StatefulPartitionedCall/sequential/keras_layer/StatefulPartitionedCall/StatefulPartitionedCall/StatefulPartitionedCall/predict/InceptionV3/InceptionV3/Mixed_5d/concat", "op": "ConcatV2", "input": ["StatefulPartitionedCall/sequential/keras_layer/StatefulPartitionedCall/StatefulPartitionedCall/StatefulPartitionedCall/predict/InceptionV3/InceptionV3/Mixed_5d/Branch_0/Conv2d_0a_1x1/Relu", "StatefulPartitionedCall/sequential/keras_layer/StatefulPartitionedCall/StatefulPartitionedCall/StatefulPartitionedCall/predict/InceptionV3/InceptionV3/Mixed_5d/Branch_1/Conv2d_0b_5x5/Relu", "StatefulPartitionedCall/sequential/keras_layer/StatefulPartitionedCall/StatefulPartitionedCall/StatefulPartitionedCall/predict/InceptionV3/InceptionV3/Mixed_5d/Branch_2/Conv2d_0c_3x3/Relu", "StatefulPartitionedCall/sequential/keras_layer/StatefulPartitionedCall/StatefulPartitionedCall/StatefulPartitionedCall/predict/InceptionV3/InceptionV3/Mixed_5d/Branch_3/Conv2d_0b_1x1/Relu", "StatefulPartitionedCall/sequential/keras_layer/StatefulPartitionedCall/StatefulPartitionedCall/StatefulPartitionedCall/predict/InceptionV3/InceptionV3/Mixed_5d/concat/axis"], "attr": {"N": {"i": "4"}, "T": {"type": "DT_FLOAT"}, "Tidx": {"type": "DT_INT32"}}}, {"name": "StatefulPartitionedCall/sequential/keras_layer/StatefulPartitionedCall/StatefulPartitionedCall/StatefulPartitionedCall/predict/InceptionV3/InceptionV3/Mixed_6a/Branch_2/MaxPool_1a_3x3/MaxPool", "op": "MaxPool", "input": ["StatefulPartitionedCall/sequential/keras_layer/StatefulPartitionedCall/StatefulPartitionedCall/StatefulPartitionedCall/predict/InceptionV3/InceptionV3/Mixed_5d/concat"], "attr": {"data_format": {"s": "TkhXQw=="}, "ksize": {"list": {"i": ["1", "3", "3", "1"]}}, "padding": {"s": "VkFMSUQ="}, "explicit_paddings": {"list": {}}, "strides": {"list": {"i": ["1", "2", "2", "1"]}}, "T": {"type": "DT_FLOAT"}}}, {"name": "StatefulPartitionedCall/sequential/keras_layer/StatefulPartitionedCall/StatefulPartitionedCall/StatefulPartitionedCall/predict/InceptionV3/InceptionV3/Mixed_6a/Branch_0/Conv2d_1a_1x1/Relu", "op": "_FusedConv2D", "input": ["StatefulPartitionedCall/sequential/keras_layer/StatefulPartitionedCall/StatefulPartitionedCall/StatefulPartitionedCall/predict/InceptionV3/InceptionV3/Mixed_5d/concat", "StatefulPartitionedCall/sequential/keras_layer/StatefulPartitionedCall/StatefulPartitionedCall/StatefulPartitionedCall/predict/InceptionV3/InceptionV3/Mixed_6a/Branch_0/Conv2d_1a_1x1/Conv2D_weights", "StatefulPartitionedCall/sequential/keras_layer/StatefulPartitionedCall/StatefulPartitionedCall/StatefulPartitionedCall/predict/InceptionV3/InceptionV3/Mixed_6a/Branch_0/Conv2d_1a_1x1/Conv2D_bn_offset"], "device": "/device:CPU:0", "attr": {"fused_ops": {"list": {"s": ["Qmlhc0FkZA==", "UmVsdQ=="]}}, "T": {"type": "DT_FLOAT"}, "explicit_paddings": {"list": {}}, "padding": {"s": "VkFMSUQ="}, "num_args": {"i": "1"}, "dilations": {"list": {"i": ["1", "1", "1", "1"]}}, "data_format": {"s": "TkhXQw=="}, "epsilon": {"f": 0.0}, "strides": {"list": {"i": ["1", "2", "2", "1"]}}, "use_cudnn_on_gpu": {"b": true}}}, {"name": "StatefulPartitionedCall/sequential/keras_layer/StatefulPartitionedCall/StatefulPartitionedCall/StatefulPartitionedCall/predict/InceptionV3/InceptionV3/Mixed_6a/Branch_1/Conv2d_0a_1x1/Relu", "op": "_FusedConv2D", "input": ["StatefulPartitionedCall/sequential/keras_layer/StatefulPartitionedCall/StatefulPartitionedCall/StatefulPartitionedCall/predict/InceptionV3/InceptionV3/Mixed_5d/concat", "StatefulPartitionedCall/sequential/keras_layer/StatefulPartitionedCall/StatefulPartitionedCall/StatefulPartitionedCall/predict/InceptionV3/InceptionV3/Mixed_6a/Branch_1/Conv2d_0a_1x1/Conv2D_weights", "StatefulPartitionedCall/sequential/keras_layer/StatefulPartitionedCall/StatefulPartitionedCall/StatefulPartitionedCall/predict/InceptionV3/InceptionV3/Mixed_6a/Branch_1/Conv2d_0a_1x1/Conv2D_bn_offset"], "device": "/device:CPU:0", "attr": {"T": {"type": "DT_FLOAT"}, "epsilon": {"f": 0.0}, "padding": {"s": "U0FNRQ=="}, "dilations": {"list": {"i": ["1", "1", "1", "1"]}}, "use_cudnn_on_gpu": {"b": true}, "data_format": {"s": "TkhXQw=="}, "strides": {"list": {"i": ["1", "1", "1", "1"]}}, "fused_ops": {"list": {"s": ["Qmlhc0FkZA==", "UmVsdQ=="]}}, "explicit_paddings": {"list": {}}, "num_args": {"i": "1"}}}, {"name": "StatefulPartitionedCall/sequential/keras_layer/StatefulPartitionedCall/StatefulPartitionedCall/StatefulPartitionedCall/predict/InceptionV3/InceptionV3/Mixed_6a/Branch_1/Conv2d_0b_3x3/Relu", "op": "_FusedConv2D", "input": ["StatefulPartitionedCall/sequential/keras_layer/StatefulPartitionedCall/StatefulPartitionedCall/StatefulPartitionedCall/predict/InceptionV3/InceptionV3/Mixed_6a/Branch_1/Conv2d_0a_1x1/Relu", "StatefulPartitionedCall/sequential/keras_layer/StatefulPartitionedCall/StatefulPartitionedCall/StatefulPartitionedCall/predict/InceptionV3/InceptionV3/Mixed_6a/Branch_1/Conv2d_0b_3x3/Conv2D_weights", "StatefulPartitionedCall/sequential/keras_layer/StatefulPartitionedCall/StatefulPartitionedCall/StatefulPartitionedCall/predict/InceptionV3/InceptionV3/Mixed_6a/Branch_1/Conv2d_0b_3x3/Conv2D_bn_offset"], "device": "/device:CPU:0", "attr": {"padding": {"s": "U0FNRQ=="}, "num_args": {"i": "1"}, "epsilon": {"f": 0.0}, "explicit_paddings": {"list": {}}, "fused_ops": {"list": {"s": ["Qmlhc0FkZA==", "UmVsdQ=="]}}, "dilations": {"list": {"i": ["1", "1", "1", "1"]}}, "strides": {"list": {"i": ["1", "1", "1", "1"]}}, "use_cudnn_on_gpu": {"b": true}, "data_format": {"s": "TkhXQw=="}, "T": {"type": "DT_FLOAT"}}}, {"name": "StatefulPartitionedCall/sequential/keras_layer/StatefulPartitionedCall/StatefulPartitionedCall/StatefulPartitionedCall/predict/InceptionV3/InceptionV3/Mixed_6a/Branch_1/Conv2d_1a_1x1/Relu", "op": "_FusedConv2D", "input": ["StatefulPartitionedCall/sequential/keras_layer/StatefulPartitionedCall/StatefulPartitionedCall/StatefulPartitionedCall/predict/InceptionV3/InceptionV3/Mixed_6a/Branch_1/Conv2d_0b_3x3/Relu", "StatefulPartitionedCall/sequential/keras_layer/StatefulPartitionedCall/StatefulPartitionedCall/StatefulPartitionedCall/predict/InceptionV3/InceptionV3/Mixed_6a/Branch_1/Conv2d_1a_1x1/Conv2D_weights", "StatefulPartitionedCall/sequential/keras_layer/StatefulPartitionedCall/StatefulPartitionedCall/StatefulPartitionedCall/predict/InceptionV3/InceptionV3/Mixed_6a/Branch_1/Conv2d_1a_1x1/Conv2D_bn_offset"], "device": "/device:CPU:0", "attr": {"data_format": {"s": "TkhXQw=="}, "use_cudnn_on_gpu": {"b": true}, "explicit_paddings": {"list": {}}, "num_args": {"i": "1"}, "epsilon": {"f": 0.0}, "fused_ops": {"list": {"s": ["Qmlhc0FkZA==", "UmVsdQ=="]}}, "dilations": {"list": {"i": ["1", "1", "1", "1"]}}, "T": {"type": "DT_FLOAT"}, "strides": {"list": {"i": ["1", "2", "2", "1"]}}, "padding": {"s": "VkFMSUQ="}}}, {"name": "StatefulPartitionedCall/sequential/keras_layer/StatefulPartitionedCall/StatefulPartitionedCall/StatefulPartitionedCall/predict/InceptionV3/InceptionV3/Mixed_6a/concat", "op": "ConcatV2", "input": ["StatefulPartitionedCall/sequential/keras_layer/StatefulPartitionedCall/StatefulPartitionedCall/StatefulPartitionedCall/predict/InceptionV3/InceptionV3/Mixed_6a/Branch_0/Conv2d_1a_1x1/Relu", "StatefulPartitionedCall/sequential/keras_layer/StatefulPartitionedCall/StatefulPartitionedCall/StatefulPartitionedCall/predict/InceptionV3/InceptionV3/Mixed_6a/Branch_1/Conv2d_1a_1x1/Relu", "StatefulPartitionedCall/sequential/keras_layer/StatefulPartitionedCall/StatefulPartitionedCall/StatefulPartitionedCall/predict/InceptionV3/InceptionV3/Mixed_6a/Branch_2/MaxPool_1a_3x3/MaxPool", "StatefulPartitionedCall/sequential/keras_layer/StatefulPartitionedCall/StatefulPartitionedCall/StatefulPartitionedCall/predict/InceptionV3/InceptionV3/Mixed_6a/concat/axis"], "attr": {"N": {"i": "3"}, "T": {"type": "DT_FLOAT"}, "Tidx": {"type": "DT_INT32"}}}, {"name": "StatefulPartitionedCall/sequential/keras_layer/StatefulPartitionedCall/StatefulPartitionedCall/StatefulPartitionedCall/predict/InceptionV3/InceptionV3/Mixed_6b/Branch_3/AvgPool_0a_3x3/AvgPool", "op": "AvgPool", "input": ["StatefulPartitionedCall/sequential/keras_layer/StatefulPartitionedCall/StatefulPartitionedCall/StatefulPartitionedCall/predict/InceptionV3/InceptionV3/Mixed_6a/concat"], "attr": {"strides": {"list": {"i": ["1", "1", "1", "1"]}}, "data_format": {"s": "TkhXQw=="}, "ksize": {"list": {"i": ["1", "3", "3", "1"]}}, "T": {"type": "DT_FLOAT"}, "padding": {"s": "U0FNRQ=="}}}, {"name": "StatefulPartitionedCall/sequential/keras_layer/StatefulPartitionedCall/StatefulPartitionedCall/StatefulPartitionedCall/predict/InceptionV3/InceptionV3/Mixed_6b/Branch_0/Conv2d_0a_1x1/Relu", "op": "_FusedConv2D", "input": ["StatefulPartitionedCall/sequential/keras_layer/StatefulPartitionedCall/StatefulPartitionedCall/StatefulPartitionedCall/predict/InceptionV3/InceptionV3/Mixed_6a/concat", "StatefulPartitionedCall/sequential/keras_layer/StatefulPartitionedCall/StatefulPartitionedCall/StatefulPartitionedCall/predict/InceptionV3/InceptionV3/Mixed_6b/Branch_0/Conv2d_0a_1x1/Conv2D_weights", "StatefulPartitionedCall/sequential/keras_layer/StatefulPartitionedCall/StatefulPartitionedCall/StatefulPartitionedCall/predict/InceptionV3/InceptionV3/Mixed_6b/Branch_0/Conv2d_0a_1x1/Conv2D_bn_offset"], "device": "/device:CPU:0", "attr": {"explicit_paddings": {"list": {}}, "num_args": {"i": "1"}, "epsilon": {"f": 0.0}, "strides": {"list": {"i": ["1", "1", "1", "1"]}}, "data_format": {"s": "TkhXQw=="}, "use_cudnn_on_gpu": {"b": true}, "padding": {"s": "U0FNRQ=="}, "fused_ops": {"list": {"s": ["Qmlhc0FkZA==", "UmVsdQ=="]}}, "dilations": {"list": {"i": ["1", "1", "1", "1"]}}, "T": {"type": "DT_FLOAT"}}}, {"name": "StatefulPartitionedCall/sequential/keras_layer/StatefulPartitionedCall/StatefulPartitionedCall/StatefulPartitionedCall/predict/InceptionV3/InceptionV3/Mixed_6b/Branch_1/Conv2d_0a_1x1/Relu", "op": "_FusedConv2D", "input": ["StatefulPartitionedCall/sequential/keras_layer/StatefulPartitionedCall/StatefulPartitionedCall/StatefulPartitionedCall/predict/InceptionV3/InceptionV3/Mixed_6a/concat", "StatefulPartitionedCall/sequential/keras_layer/StatefulPartitionedCall/StatefulPartitionedCall/StatefulPartitionedCall/predict/InceptionV3/InceptionV3/Mixed_6b/Branch_1/Conv2d_0a_1x1/Conv2D_weights", "StatefulPartitionedCall/sequential/keras_layer/StatefulPartitionedCall/StatefulPartitionedCall/StatefulPartitionedCall/predict/InceptionV3/InceptionV3/Mixed_6b/Branch_1/Conv2d_0a_1x1/Conv2D_bn_offset"], "device": "/device:CPU:0", "attr": {"fused_ops": {"list": {"s": ["Qmlhc0FkZA==", "UmVsdQ=="]}}, "strides": {"list": {"i": ["1", "1", "1", "1"]}}, "T": {"type": "DT_FLOAT"}, "explicit_paddings": {"list": {}}, "num_args": {"i": "1"}, "data_format": {"s": "TkhXQw=="}, "padding": {"s": "U0FNRQ=="}, "epsilon": {"f": 0.0}, "use_cudnn_on_gpu": {"b": true}, "dilations": {"list": {"i": ["1", "1", "1", "1"]}}}}, {"name": "StatefulPartitionedCall/sequential/keras_layer/StatefulPartitionedCall/StatefulPartitionedCall/StatefulPartitionedCall/predict/InceptionV3/InceptionV3/Mixed_6b/Branch_2/Conv2d_0a_1x1/Relu", "op": "_FusedConv2D", "input": ["StatefulPartitionedCall/sequential/keras_layer/StatefulPartitionedCall/StatefulPartitionedCall/StatefulPartitionedCall/predict/InceptionV3/InceptionV3/Mixed_6a/concat", "StatefulPartitionedCall/sequential/keras_layer/StatefulPartitionedCall/StatefulPartitionedCall/StatefulPartitionedCall/predict/InceptionV3/InceptionV3/Mixed_6b/Branch_2/Conv2d_0a_1x1/Conv2D_weights", "StatefulPartitionedCall/sequential/keras_layer/StatefulPartitionedCall/StatefulPartitionedCall/StatefulPartitionedCall/predict/InceptionV3/InceptionV3/Mixed_6b/Branch_2/Conv2d_0a_1x1/Conv2D_bn_offset"], "device": "/device:CPU:0", "attr": {"use_cudnn_on_gpu": {"b": true}, "explicit_paddings": {"list": {}}, "dilations": {"list": {"i": ["1", "1", "1", "1"]}}, "epsilon": {"f": 0.0}, "strides": {"list": {"i": ["1", "1", "1", "1"]}}, "fused_ops": {"list": {"s": ["Qmlhc0FkZA==", "UmVsdQ=="]}}, "data_format": {"s": "TkhXQw=="}, "num_args": {"i": "1"}, "padding": {"s": "U0FNRQ=="}, "T": {"type": "DT_FLOAT"}}}, {"name": "StatefulPartitionedCall/sequential/keras_layer/StatefulPartitionedCall/StatefulPartitionedCall/StatefulPartitionedCall/predict/InceptionV3/InceptionV3/Mixed_6b/Branch_3/Conv2d_0b_1x1/Relu", "op": "_FusedConv2D", "input": ["StatefulPartitionedCall/sequential/keras_layer/StatefulPartitionedCall/StatefulPartitionedCall/StatefulPartitionedCall/predict/InceptionV3/InceptionV3/Mixed_6b/Branch_3/AvgPool_0a_3x3/AvgPool", "StatefulPartitionedCall/sequential/keras_layer/StatefulPartitionedCall/StatefulPartitionedCall/StatefulPartitionedCall/predict/InceptionV3/InceptionV3/Mixed_6b/Branch_3/Conv2d_0b_1x1/Conv2D_weights", "StatefulPartitionedCall/sequential/keras_layer/StatefulPartitionedCall/StatefulPartitionedCall/StatefulPartitionedCall/predict/InceptionV3/InceptionV3/Mixed_6b/Branch_3/Conv2d_0b_1x1/Conv2D_bn_offset"], "device": "/device:CPU:0", "attr": {"data_format": {"s": "TkhXQw=="}, "padding": {"s": "U0FNRQ=="}, "use_cudnn_on_gpu": {"b": true}, "epsilon": {"f": 0.0}, "dilations": {"list": {"i": ["1", "1", "1", "1"]}}, "strides": {"list": {"i": ["1", "1", "1", "1"]}}, "T": {"type": "DT_FLOAT"}, "explicit_paddings": {"list": {}}, "fused_ops": {"list": {"s": ["Qmlhc0FkZA==", "UmVsdQ=="]}}, "num_args": {"i": "1"}}}, {"name": "StatefulPartitionedCall/sequential/keras_layer/StatefulPartitionedCall/StatefulPartitionedCall/StatefulPartitionedCall/predict/InceptionV3/InceptionV3/Mixed_6b/Branch_1/Conv2d_0b_1x7/Relu", "op": "_FusedConv2D", "input": ["StatefulPartitionedCall/sequential/keras_layer/StatefulPartitionedCall/StatefulPartitionedCall/StatefulPartitionedCall/predict/InceptionV3/InceptionV3/Mixed_6b/Branch_1/Conv2d_0a_1x1/Relu", "StatefulPartitionedCall/sequential/keras_layer/StatefulPartitionedCall/StatefulPartitionedCall/StatefulPartitionedCall/predict/InceptionV3/InceptionV3/Mixed_6b/Branch_1/Conv2d_0b_1x7/Conv2D_weights", "StatefulPartitionedCall/sequential/keras_layer/StatefulPartitionedCall/StatefulPartitionedCall/StatefulPartitionedCall/predict/InceptionV3/InceptionV3/Mixed_6b/Branch_1/Conv2d_0b_1x7/Conv2D_bn_offset"], "device": "/device:CPU:0", "attr": {"num_args": {"i": "1"}, "dilations": {"list": {"i": ["1", "1", "1", "1"]}}, "explicit_paddings": {"list": {}}, "fused_ops": {"list": {"s": ["Qmlhc0FkZA==", "UmVsdQ=="]}}, "use_cudnn_on_gpu": {"b": true}, "data_format": {"s": "TkhXQw=="}, "strides": {"list": {"i": ["1", "1", "1", "1"]}}, "T": {"type": "DT_FLOAT"}, "epsilon": {"f": 0.0}, "padding": {"s": "U0FNRQ=="}}}, {"name": "StatefulPartitionedCall/sequential/keras_layer/StatefulPartitionedCall/StatefulPartitionedCall/StatefulPartitionedCall/predict/InceptionV3/InceptionV3/Mixed_6b/Branch_2/Conv2d_0b_7x1/Relu", "op": "_FusedConv2D", "input": ["StatefulPartitionedCall/sequential/keras_layer/StatefulPartitionedCall/StatefulPartitionedCall/StatefulPartitionedCall/predict/InceptionV3/InceptionV3/Mixed_6b/Branch_2/Conv2d_0a_1x1/Relu", "StatefulPartitionedCall/sequential/keras_layer/StatefulPartitionedCall/StatefulPartitionedCall/StatefulPartitionedCall/predict/InceptionV3/InceptionV3/Mixed_6b/Branch_2/Conv2d_0b_7x1/Conv2D_weights", "StatefulPartitionedCall/sequential/keras_layer/StatefulPartitionedCall/StatefulPartitionedCall/StatefulPartitionedCall/predict/InceptionV3/InceptionV3/Mixed_6b/Branch_2/Conv2d_0b_7x1/Conv2D_bn_offset"], "device": "/device:CPU:0", "attr": {"padding": {"s": "U0FNRQ=="}, "num_args": {"i": "1"}, "strides": {"list": {"i": ["1", "1", "1", "1"]}}, "data_format": {"s": "TkhXQw=="}, "explicit_paddings": {"list": {}}, "T": {"type": "DT_FLOAT"}, "dilations": {"list": {"i": ["1", "1", "1", "1"]}}, "use_cudnn_on_gpu": {"b": true}, "epsilon": {"f": 0.0}, "fused_ops": {"list": {"s": ["Qmlhc0FkZA==", "UmVsdQ=="]}}}}, {"name": "StatefulPartitionedCall/sequential/keras_layer/StatefulPartitionedCall/StatefulPartitionedCall/StatefulPartitionedCall/predict/InceptionV3/InceptionV3/Mixed_6b/Branch_1/Conv2d_0c_7x1/Relu", "op": "_FusedConv2D", "input": ["StatefulPartitionedCall/sequential/keras_layer/StatefulPartitionedCall/StatefulPartitionedCall/StatefulPartitionedCall/predict/InceptionV3/InceptionV3/Mixed_6b/Branch_1/Conv2d_0b_1x7/Relu", "StatefulPartitionedCall/sequential/keras_layer/StatefulPartitionedCall/StatefulPartitionedCall/StatefulPartitionedCall/predict/InceptionV3/InceptionV3/Mixed_6b/Branch_1/Conv2d_0c_7x1/Conv2D_weights", "StatefulPartitionedCall/sequential/keras_layer/StatefulPartitionedCall/StatefulPartitionedCall/StatefulPartitionedCall/predict/InceptionV3/InceptionV3/Mixed_6b/Branch_1/Conv2d_0c_7x1/Conv2D_bn_offset"], "device": "/device:CPU:0", "attr": {"num_args": {"i": "1"}, "epsilon": {"f": 0.0}, "strides": {"list": {"i": ["1", "1", "1", "1"]}}, "dilations": {"list": {"i": ["1", "1", "1", "1"]}}, "data_format": {"s": "TkhXQw=="}, "use_cudnn_on_gpu": {"b": true}, "padding": {"s": "U0FNRQ=="}, "fused_ops": {"list": {"s": ["Qmlhc0FkZA==", "UmVsdQ=="]}}, "T": {"type": "DT_FLOAT"}, "explicit_paddings": {"list": {}}}}, {"name": "StatefulPartitionedCall/sequential/keras_layer/StatefulPartitionedCall/StatefulPartitionedCall/StatefulPartitionedCall/predict/InceptionV3/InceptionV3/Mixed_6b/Branch_2/Conv2d_0c_1x7/Relu", "op": "_FusedConv2D", "input": ["StatefulPartitionedCall/sequential/keras_layer/StatefulPartitionedCall/StatefulPartitionedCall/StatefulPartitionedCall/predict/InceptionV3/InceptionV3/Mixed_6b/Branch_2/Conv2d_0b_7x1/Relu", "StatefulPartitionedCall/sequential/keras_layer/StatefulPartitionedCall/StatefulPartitionedCall/StatefulPartitionedCall/predict/InceptionV3/InceptionV3/Mixed_6b/Branch_2/Conv2d_0c_1x7/Conv2D_weights", "StatefulPartitionedCall/sequential/keras_layer/StatefulPartitionedCall/StatefulPartitionedCall/StatefulPartitionedCall/predict/InceptionV3/InceptionV3/Mixed_6b/Branch_2/Conv2d_0c_1x7/Conv2D_bn_offset"], "device": "/device:CPU:0", "attr": {"fused_ops": {"list": {"s": ["Qmlhc0FkZA==", "UmVsdQ=="]}}, "explicit_paddings": {"list": {}}, "dilations": {"list": {"i": ["1", "1", "1", "1"]}}, "strides": {"list": {"i": ["1", "1", "1", "1"]}}, "T": {"type": "DT_FLOAT"}, "num_args": {"i": "1"}, "epsilon": {"f": 0.0}, "use_cudnn_on_gpu": {"b": true}, "data_format": {"s": "TkhXQw=="}, "padding": {"s": "U0FNRQ=="}}}, {"name": "StatefulPartitionedCall/sequential/keras_layer/StatefulPartitionedCall/StatefulPartitionedCall/StatefulPartitionedCall/predict/InceptionV3/InceptionV3/Mixed_6b/Branch_2/Conv2d_0d_7x1/Relu", "op": "_FusedConv2D", "input": ["StatefulPartitionedCall/sequential/keras_layer/StatefulPartitionedCall/StatefulPartitionedCall/StatefulPartitionedCall/predict/InceptionV3/InceptionV3/Mixed_6b/Branch_2/Conv2d_0c_1x7/Relu", "StatefulPartitionedCall/sequential/keras_layer/StatefulPartitionedCall/StatefulPartitionedCall/StatefulPartitionedCall/predict/InceptionV3/InceptionV3/Mixed_6b/Branch_2/Conv2d_0d_7x1/Conv2D_weights", "StatefulPartitionedCall/sequential/keras_layer/StatefulPartitionedCall/StatefulPartitionedCall/StatefulPartitionedCall/predict/InceptionV3/InceptionV3/Mixed_6b/Branch_2/Conv2d_0d_7x1/Conv2D_bn_offset"], "device": "/device:CPU:0", "attr": {"dilations": {"list": {"i": ["1", "1", "1", "1"]}}, "epsilon": {"f": 0.0}, "fused_ops": {"list": {"s": ["Qmlhc0FkZA==", "UmVsdQ=="]}}, "explicit_paddings": {"list": {}}, "data_format": {"s": "TkhXQw=="}, "padding": {"s": "U0FNRQ=="}, "strides": {"list": {"i": ["1", "1", "1", "1"]}}, "num_args": {"i": "1"}, "T": {"type": "DT_FLOAT"}, "use_cudnn_on_gpu": {"b": true}}}, {"name": "StatefulPartitionedCall/sequential/keras_layer/StatefulPartitionedCall/StatefulPartitionedCall/StatefulPartitionedCall/predict/InceptionV3/InceptionV3/Mixed_6b/Branch_2/Conv2d_0e_1x7/Relu", "op": "_FusedConv2D", "input": ["StatefulPartitionedCall/sequential/keras_layer/StatefulPartitionedCall/StatefulPartitionedCall/StatefulPartitionedCall/predict/InceptionV3/InceptionV3/Mixed_6b/Branch_2/Conv2d_0d_7x1/Relu", "StatefulPartitionedCall/sequential/keras_layer/StatefulPartitionedCall/StatefulPartitionedCall/StatefulPartitionedCall/predict/InceptionV3/InceptionV3/Mixed_6b/Branch_2/Conv2d_0e_1x7/Conv2D_weights", "StatefulPartitionedCall/sequential/keras_layer/StatefulPartitionedCall/StatefulPartitionedCall/StatefulPartitionedCall/predict/InceptionV3/InceptionV3/Mixed_6b/Branch_2/Conv2d_0e_1x7/Conv2D_bn_offset"], "device": "/device:CPU:0", "attr": {"explicit_paddings": {"list": {}}, "T": {"type": "DT_FLOAT"}, "dilations": {"list": {"i": ["1", "1", "1", "1"]}}, "num_args": {"i": "1"}, "data_format": {"s": "TkhXQw=="}, "strides": {"list": {"i": ["1", "1", "1", "1"]}}, "padding": {"s": "U0FNRQ=="}, "epsilon": {"f": 0.0}, "use_cudnn_on_gpu": {"b": true}, "fused_ops": {"list": {"s": ["Qmlhc0FkZA==", "UmVsdQ=="]}}}}, {"name": "StatefulPartitionedCall/sequential/keras_layer/StatefulPartitionedCall/StatefulPartitionedCall/StatefulPartitionedCall/predict/InceptionV3/InceptionV3/Mixed_6b/concat", "op": "ConcatV2", "input": ["StatefulPartitionedCall/sequential/keras_layer/StatefulPartitionedCall/StatefulPartitionedCall/StatefulPartitionedCall/predict/InceptionV3/InceptionV3/Mixed_6b/Branch_0/Conv2d_0a_1x1/Relu", "StatefulPartitionedCall/sequential/keras_layer/StatefulPartitionedCall/StatefulPartitionedCall/StatefulPartitionedCall/predict/InceptionV3/InceptionV3/Mixed_6b/Branch_1/Conv2d_0c_7x1/Relu", "StatefulPartitionedCall/sequential/keras_layer/StatefulPartitionedCall/StatefulPartitionedCall/StatefulPartitionedCall/predict/InceptionV3/InceptionV3/Mixed_6b/Branch_2/Conv2d_0e_1x7/Relu", "StatefulPartitionedCall/sequential/keras_layer/StatefulPartitionedCall/StatefulPartitionedCall/StatefulPartitionedCall/predict/InceptionV3/InceptionV3/Mixed_6b/Branch_3/Conv2d_0b_1x1/Relu", "StatefulPartitionedCall/sequential/keras_layer/StatefulPartitionedCall/StatefulPartitionedCall/StatefulPartitionedCall/predict/InceptionV3/InceptionV3/Mixed_6b/concat/axis"], "attr": {"N": {"i": "4"}, "T": {"type": "DT_FLOAT"}, "Tidx": {"type": "DT_INT32"}}}, {"name": "StatefulPartitionedCall/sequential/keras_layer/StatefulPartitionedCall/StatefulPartitionedCall/StatefulPartitionedCall/predict/InceptionV3/InceptionV3/Mixed_6c/Branch_3/AvgPool_0a_3x3/AvgPool", "op": "AvgPool", "input": ["StatefulPartitionedCall/sequential/keras_layer/StatefulPartitionedCall/StatefulPartitionedCall/StatefulPartitionedCall/predict/InceptionV3/InceptionV3/Mixed_6b/concat"], "attr": {"strides": {"list": {"i": ["1", "1", "1", "1"]}}, "padding": {"s": "U0FNRQ=="}, "T": {"type": "DT_FLOAT"}, "ksize": {"list": {"i": ["1", "3", "3", "1"]}}, "data_format": {"s": "TkhXQw=="}}}, {"name": "StatefulPartitionedCall/sequential/keras_layer/StatefulPartitionedCall/StatefulPartitionedCall/StatefulPartitionedCall/predict/InceptionV3/InceptionV3/Mixed_6c/Branch_0/Conv2d_0a_1x1/Relu", "op": "_FusedConv2D", "input": ["StatefulPartitionedCall/sequential/keras_layer/StatefulPartitionedCall/StatefulPartitionedCall/StatefulPartitionedCall/predict/InceptionV3/InceptionV3/Mixed_6b/concat", "StatefulPartitionedCall/sequential/keras_layer/StatefulPartitionedCall/StatefulPartitionedCall/StatefulPartitionedCall/predict/InceptionV3/InceptionV3/Mixed_6c/Branch_0/Conv2d_0a_1x1/Conv2D_weights", "StatefulPartitionedCall/sequential/keras_layer/StatefulPartitionedCall/StatefulPartitionedCall/StatefulPartitionedCall/predict/InceptionV3/InceptionV3/Mixed_6c/Branch_0/Conv2d_0a_1x1/Conv2D_bn_offset"], "device": "/device:CPU:0", "attr": {"explicit_paddings": {"list": {}}, "data_format": {"s": "TkhXQw=="}, "dilations": {"list": {"i": ["1", "1", "1", "1"]}}, "use_cudnn_on_gpu": {"b": true}, "strides": {"list": {"i": ["1", "1", "1", "1"]}}, "padding": {"s": "U0FNRQ=="}, "T": {"type": "DT_FLOAT"}, "fused_ops": {"list": {"s": ["Qmlhc0FkZA==", "UmVsdQ=="]}}, "num_args": {"i": "1"}, "epsilon": {"f": 0.0}}}, {"name": "StatefulPartitionedCall/sequential/keras_layer/StatefulPartitionedCall/StatefulPartitionedCall/StatefulPartitionedCall/predict/InceptionV3/InceptionV3/Mixed_6c/Branch_1/Conv2d_0a_1x1/Relu", "op": "_FusedConv2D", "input": ["StatefulPartitionedCall/sequential/keras_layer/StatefulPartitionedCall/StatefulPartitionedCall/StatefulPartitionedCall/predict/InceptionV3/InceptionV3/Mixed_6b/concat", "StatefulPartitionedCall/sequential/keras_layer/StatefulPartitionedCall/StatefulPartitionedCall/StatefulPartitionedCall/predict/InceptionV3/InceptionV3/Mixed_6c/Branch_1/Conv2d_0a_1x1/Conv2D_weights", "StatefulPartitionedCall/sequential/keras_layer/StatefulPartitionedCall/StatefulPartitionedCall/StatefulPartitionedCall/predict/InceptionV3/InceptionV3/Mixed_6c/Branch_1/Conv2d_0a_1x1/Conv2D_bn_offset"], "device": "/device:CPU:0", "attr": {"T": {"type": "DT_FLOAT"}, "fused_ops": {"list": {"s": ["Qmlhc0FkZA==", "UmVsdQ=="]}}, "data_format": {"s": "TkhXQw=="}, "use_cudnn_on_gpu": {"b": true}, "explicit_paddings": {"list": {}}, "dilations": {"list": {"i": ["1", "1", "1", "1"]}}, "num_args": {"i": "1"}, "epsilon": {"f": 0.0}, "padding": {"s": "U0FNRQ=="}, "strides": {"list": {"i": ["1", "1", "1", "1"]}}}}, {"name": "StatefulPartitionedCall/sequential/keras_layer/StatefulPartitionedCall/StatefulPartitionedCall/StatefulPartitionedCall/predict/InceptionV3/InceptionV3/Mixed_6c/Branch_2/Conv2d_0a_1x1/Relu", "op": "_FusedConv2D", "input": ["StatefulPartitionedCall/sequential/keras_layer/StatefulPartitionedCall/StatefulPartitionedCall/StatefulPartitionedCall/predict/InceptionV3/InceptionV3/Mixed_6b/concat", "StatefulPartitionedCall/sequential/keras_layer/StatefulPartitionedCall/StatefulPartitionedCall/StatefulPartitionedCall/predict/InceptionV3/InceptionV3/Mixed_6c/Branch_2/Conv2d_0a_1x1/Conv2D_weights", "StatefulPartitionedCall/sequential/keras_layer/StatefulPartitionedCall/StatefulPartitionedCall/StatefulPartitionedCall/predict/InceptionV3/InceptionV3/Mixed_6c/Branch_2/Conv2d_0a_1x1/Conv2D_bn_offset"], "device": "/device:CPU:0", "attr": {"epsilon": {"f": 0.0}, "data_format": {"s": "TkhXQw=="}, "dilations": {"list": {"i": ["1", "1", "1", "1"]}}, "use_cudnn_on_gpu": {"b": true}, "T": {"type": "DT_FLOAT"}, "fused_ops": {"list": {"s": ["Qmlhc0FkZA==", "UmVsdQ=="]}}, "explicit_paddings": {"list": {}}, "strides": {"list": {"i": ["1", "1", "1", "1"]}}, "padding": {"s": "U0FNRQ=="}, "num_args": {"i": "1"}}}, {"name": "StatefulPartitionedCall/sequential/keras_layer/StatefulPartitionedCall/StatefulPartitionedCall/StatefulPartitionedCall/predict/InceptionV3/InceptionV3/Mixed_6c/Branch_3/Conv2d_0b_1x1/Relu", "op": "_FusedConv2D", "input": ["StatefulPartitionedCall/sequential/keras_layer/StatefulPartitionedCall/StatefulPartitionedCall/StatefulPartitionedCall/predict/InceptionV3/InceptionV3/Mixed_6c/Branch_3/AvgPool_0a_3x3/AvgPool", "StatefulPartitionedCall/sequential/keras_layer/StatefulPartitionedCall/StatefulPartitionedCall/StatefulPartitionedCall/predict/InceptionV3/InceptionV3/Mixed_6c/Branch_3/Conv2d_0b_1x1/Conv2D_weights", "StatefulPartitionedCall/sequential/keras_layer/StatefulPartitionedCall/StatefulPartitionedCall/StatefulPartitionedCall/predict/InceptionV3/InceptionV3/Mixed_6c/Branch_3/Conv2d_0b_1x1/Conv2D_bn_offset"], "device": "/device:CPU:0", "attr": {"T": {"type": "DT_FLOAT"}, "num_args": {"i": "1"}, "epsilon": {"f": 0.0}, "use_cudnn_on_gpu": {"b": true}, "explicit_paddings": {"list": {}}, "strides": {"list": {"i": ["1", "1", "1", "1"]}}, "data_format": {"s": "TkhXQw=="}, "fused_ops": {"list": {"s": ["Qmlhc0FkZA==", "UmVsdQ=="]}}, "dilations": {"list": {"i": ["1", "1", "1", "1"]}}, "padding": {"s": "U0FNRQ=="}}}, {"name": "StatefulPartitionedCall/sequential/keras_layer/StatefulPartitionedCall/StatefulPartitionedCall/StatefulPartitionedCall/predict/InceptionV3/InceptionV3/Mixed_6c/Branch_1/Conv2d_0b_1x7/Relu", "op": "_FusedConv2D", "input": ["StatefulPartitionedCall/sequential/keras_layer/StatefulPartitionedCall/StatefulPartitionedCall/StatefulPartitionedCall/predict/InceptionV3/InceptionV3/Mixed_6c/Branch_1/Conv2d_0a_1x1/Relu", "StatefulPartitionedCall/sequential/keras_layer/StatefulPartitionedCall/StatefulPartitionedCall/StatefulPartitionedCall/predict/InceptionV3/InceptionV3/Mixed_6c/Branch_1/Conv2d_0b_1x7/Conv2D_weights", "StatefulPartitionedCall/sequential/keras_layer/StatefulPartitionedCall/StatefulPartitionedCall/StatefulPartitionedCall/predict/InceptionV3/InceptionV3/Mixed_6c/Branch_1/Conv2d_0b_1x7/Conv2D_bn_offset"], "device": "/device:CPU:0", "attr": {"strides": {"list": {"i": ["1", "1", "1", "1"]}}, "padding": {"s": "U0FNRQ=="}, "epsilon": {"f": 0.0}, "fused_ops": {"list": {"s": ["Qmlhc0FkZA==", "UmVsdQ=="]}}, "T": {"type": "DT_FLOAT"}, "explicit_paddings": {"list": {}}, "data_format": {"s": "TkhXQw=="}, "num_args": {"i": "1"}, "dilations": {"list": {"i": ["1", "1", "1", "1"]}}, "use_cudnn_on_gpu": {"b": true}}}, {"name": "StatefulPartitionedCall/sequential/keras_layer/StatefulPartitionedCall/StatefulPartitionedCall/StatefulPartitionedCall/predict/InceptionV3/InceptionV3/Mixed_6c/Branch_2/Conv2d_0b_7x1/Relu", "op": "_FusedConv2D", "input": ["StatefulPartitionedCall/sequential/keras_layer/StatefulPartitionedCall/StatefulPartitionedCall/StatefulPartitionedCall/predict/InceptionV3/InceptionV3/Mixed_6c/Branch_2/Conv2d_0a_1x1/Relu", "StatefulPartitionedCall/sequential/keras_layer/StatefulPartitionedCall/StatefulPartitionedCall/StatefulPartitionedCall/predict/InceptionV3/InceptionV3/Mixed_6c/Branch_2/Conv2d_0b_7x1/Conv2D_weights", "StatefulPartitionedCall/sequential/keras_layer/StatefulPartitionedCall/StatefulPartitionedCall/StatefulPartitionedCall/predict/InceptionV3/InceptionV3/Mixed_6c/Branch_2/Conv2d_0b_7x1/Conv2D_bn_offset"], "device": "/device:CPU:0", "attr": {"strides": {"list": {"i": ["1", "1", "1", "1"]}}, "use_cudnn_on_gpu": {"b": true}, "num_args": {"i": "1"}, "fused_ops": {"list": {"s": ["Qmlhc0FkZA==", "UmVsdQ=="]}}, "padding": {"s": "U0FNRQ=="}, "data_format": {"s": "TkhXQw=="}, "explicit_paddings": {"list": {}}, "dilations": {"list": {"i": ["1", "1", "1", "1"]}}, "T": {"type": "DT_FLOAT"}, "epsilon": {"f": 0.0}}}, {"name": "StatefulPartitionedCall/sequential/keras_layer/StatefulPartitionedCall/StatefulPartitionedCall/StatefulPartitionedCall/predict/InceptionV3/InceptionV3/Mixed_6c/Branch_1/Conv2d_0c_7x1/Relu", "op": "_FusedConv2D", "input": ["StatefulPartitionedCall/sequential/keras_layer/StatefulPartitionedCall/StatefulPartitionedCall/StatefulPartitionedCall/predict/InceptionV3/InceptionV3/Mixed_6c/Branch_1/Conv2d_0b_1x7/Relu", "StatefulPartitionedCall/sequential/keras_layer/StatefulPartitionedCall/StatefulPartitionedCall/StatefulPartitionedCall/predict/InceptionV3/InceptionV3/Mixed_6c/Branch_1/Conv2d_0c_7x1/Conv2D_weights", "StatefulPartitionedCall/sequential/keras_layer/StatefulPartitionedCall/StatefulPartitionedCall/StatefulPartitionedCall/predict/InceptionV3/InceptionV3/Mixed_6c/Branch_1/Conv2d_0c_7x1/Conv2D_bn_offset"], "device": "/device:CPU:0", "attr": {"strides": {"list": {"i": ["1", "1", "1", "1"]}}, "num_args": {"i": "1"}, "data_format": {"s": "TkhXQw=="}, "T": {"type": "DT_FLOAT"}, "use_cudnn_on_gpu": {"b": true}, "fused_ops": {"list": {"s": ["Qmlhc0FkZA==", "UmVsdQ=="]}}, "epsilon": {"f": 0.0}, "explicit_paddings": {"list": {}}, "dilations": {"list": {"i": ["1", "1", "1", "1"]}}, "padding": {"s": "U0FNRQ=="}}}, {"name": "StatefulPartitionedCall/sequential/keras_layer/StatefulPartitionedCall/StatefulPartitionedCall/StatefulPartitionedCall/predict/InceptionV3/InceptionV3/Mixed_6c/Branch_2/Conv2d_0c_1x7/Relu", "op": "_FusedConv2D", "input": ["StatefulPartitionedCall/sequential/keras_layer/StatefulPartitionedCall/StatefulPartitionedCall/StatefulPartitionedCall/predict/InceptionV3/InceptionV3/Mixed_6c/Branch_2/Conv2d_0b_7x1/Relu", "StatefulPartitionedCall/sequential/keras_layer/StatefulPartitionedCall/StatefulPartitionedCall/StatefulPartitionedCall/predict/InceptionV3/InceptionV3/Mixed_6c/Branch_2/Conv2d_0c_1x7/Conv2D_weights", "StatefulPartitionedCall/sequential/keras_layer/StatefulPartitionedCall/StatefulPartitionedCall/StatefulPartitionedCall/predict/InceptionV3/InceptionV3/Mixed_6c/Branch_2/Conv2d_0c_1x7/Conv2D_bn_offset"], "device": "/device:CPU:0", "attr": {"T": {"type": "DT_FLOAT"}, "padding": {"s": "U0FNRQ=="}, "use_cudnn_on_gpu": {"b": true}, "epsilon": {"f": 0.0}, "fused_ops": {"list": {"s": ["Qmlhc0FkZA==", "UmVsdQ=="]}}, "explicit_paddings": {"list": {}}, "dilations": {"list": {"i": ["1", "1", "1", "1"]}}, "data_format": {"s": "TkhXQw=="}, "strides": {"list": {"i": ["1", "1", "1", "1"]}}, "num_args": {"i": "1"}}}, {"name": "StatefulPartitionedCall/sequential/keras_layer/StatefulPartitionedCall/StatefulPartitionedCall/StatefulPartitionedCall/predict/InceptionV3/InceptionV3/Mixed_6c/Branch_2/Conv2d_0d_7x1/Relu", "op": "_FusedConv2D", "input": ["StatefulPartitionedCall/sequential/keras_layer/StatefulPartitionedCall/StatefulPartitionedCall/StatefulPartitionedCall/predict/InceptionV3/InceptionV3/Mixed_6c/Branch_2/Conv2d_0c_1x7/Relu", "StatefulPartitionedCall/sequential/keras_layer/StatefulPartitionedCall/StatefulPartitionedCall/StatefulPartitionedCall/predict/InceptionV3/InceptionV3/Mixed_6c/Branch_2/Conv2d_0d_7x1/Conv2D_weights", "StatefulPartitionedCall/sequential/keras_layer/StatefulPartitionedCall/StatefulPartitionedCall/StatefulPartitionedCall/predict/InceptionV3/InceptionV3/Mixed_6c/Branch_2/Conv2d_0d_7x1/Conv2D_bn_offset"], "device": "/device:CPU:0", "attr": {"epsilon": {"f": 0.0}, "strides": {"list": {"i": ["1", "1", "1", "1"]}}, "data_format": {"s": "TkhXQw=="}, "use_cudnn_on_gpu": {"b": true}, "T": {"type": "DT_FLOAT"}, "padding": {"s": "U0FNRQ=="}, "num_args": {"i": "1"}, "dilations": {"list": {"i": ["1", "1", "1", "1"]}}, "fused_ops": {"list": {"s": ["Qmlhc0FkZA==", "UmVsdQ=="]}}, "explicit_paddings": {"list": {}}}}, {"name": "StatefulPartitionedCall/sequential/keras_layer/StatefulPartitionedCall/StatefulPartitionedCall/StatefulPartitionedCall/predict/InceptionV3/InceptionV3/Mixed_6c/Branch_2/Conv2d_0e_1x7/Relu", "op": "_FusedConv2D", "input": ["StatefulPartitionedCall/sequential/keras_layer/StatefulPartitionedCall/StatefulPartitionedCall/StatefulPartitionedCall/predict/InceptionV3/InceptionV3/Mixed_6c/Branch_2/Conv2d_0d_7x1/Relu", "StatefulPartitionedCall/sequential/keras_layer/StatefulPartitionedCall/StatefulPartitionedCall/StatefulPartitionedCall/predict/InceptionV3/InceptionV3/Mixed_6c/Branch_2/Conv2d_0e_1x7/Conv2D_weights", "StatefulPartitionedCall/sequential/keras_layer/StatefulPartitionedCall/StatefulPartitionedCall/StatefulPartitionedCall/predict/InceptionV3/InceptionV3/Mixed_6c/Branch_2/Conv2d_0e_1x7/Conv2D_bn_offset"], "device": "/device:CPU:0", "attr": {"padding": {"s": "U0FNRQ=="}, "explicit_paddings": {"list": {}}, "dilations": {"list": {"i": ["1", "1", "1", "1"]}}, "data_format": {"s": "TkhXQw=="}, "strides": {"list": {"i": ["1", "1", "1", "1"]}}, "num_args": {"i": "1"}, "epsilon": {"f": 0.0}, "use_cudnn_on_gpu": {"b": true}, "fused_ops": {"list": {"s": ["Qmlhc0FkZA==", "UmVsdQ=="]}}, "T": {"type": "DT_FLOAT"}}}, {"name": "StatefulPartitionedCall/sequential/keras_layer/StatefulPartitionedCall/StatefulPartitionedCall/StatefulPartitionedCall/predict/InceptionV3/InceptionV3/Mixed_6c/concat", "op": "ConcatV2", "input": ["StatefulPartitionedCall/sequential/keras_layer/StatefulPartitionedCall/StatefulPartitionedCall/StatefulPartitionedCall/predict/InceptionV3/InceptionV3/Mixed_6c/Branch_0/Conv2d_0a_1x1/Relu", "StatefulPartitionedCall/sequential/keras_layer/StatefulPartitionedCall/StatefulPartitionedCall/StatefulPartitionedCall/predict/InceptionV3/InceptionV3/Mixed_6c/…
eptionV3/Conv2d_1a_3x3/Conv2D_bn_offset", "shape": [32], "dtype": "float32"}, {"name": "StatefulPartitionedCall/sequential/keras_layer/StatefulPartitionedCall/StatefulPartitionedCall/StatefulPartitionedCall/predict/InceptionV3/InceptionV3/Mixed_6d/Branch_2/Conv2d_0e_1x7/Conv2D_bn_offset", "shape": [192], "dtype": "float32"}, {"name": "StatefulPartitionedCall/sequential/keras_layer/StatefulPartitionedCall/StatefulPartitionedCall/StatefulPartitionedCall/predict/InceptionV3/InceptionV3/Conv2d_2a_3x3/Conv2D_weights", "shape": [3, 3, 32, 32], "dtype": "float32"}, {"name": "StatefulPartitionedCall/sequential/keras_layer/StatefulPartitionedCall/StatefulPartitionedCall/StatefulPartitionedCall/predict/InceptionV3/InceptionV3/Conv2d_2a_3x3/Conv2D_bn_offset", "shape": [32], "dtype": "float32"}, {"name": "StatefulPartitionedCall/sequential/keras_layer/StatefulPartitionedCall/StatefulPartitionedCall/StatefulPartitionedCall/predict/InceptionV3/InceptionV3/Conv2d_2b_3x3/Conv2D_weights", "shape": [3, 3, 32, 64], "dtype": "float32"}, {"name": "StatefulPartitionedCall/sequential/keras_layer/StatefulPartitionedCall/StatefulPartitionedCall/StatefulPartitionedCall/predict/InceptionV3/InceptionV3/Conv2d_2b_3x3/Conv2D_bn_offset", "shape": [64], "dtype": "float32"}, {"name": "StatefulPartitionedCall/sequential/keras_layer/StatefulPartitionedCall/StatefulPartitionedCall/StatefulPartitionedCall/predict/InceptionV3/InceptionV3/Conv2d_3b_1x1/Conv2D_weights", "shape": [1, 1, 64, 80], "dtype": "float32"}, {"name": "StatefulPartitionedCall/sequential/keras_layer/StatefulPartitionedCall/StatefulPartitionedCall/StatefulPartitionedCall/predict/InceptionV3/InceptionV3/Mixed_6e/Branch_0/Conv2d_0a_1x1/Conv2D_weights", "shape": [1, 1, 768, 192], "dtype": "float32"}, {"name": "StatefulPartitionedCall/sequential/keras_layer/StatefulPartitionedCall/StatefulPartitionedCall/StatefulPartitionedCall/predict/InceptionV3/InceptionV3/Conv2d_3b_1x1/Conv2D_bn_offset", "shape": [80], "dtype": "float32"}, {"name": "StatefulPartitionedCall/sequential/keras_layer/StatefulPartitionedCall/StatefulPartitionedCall/StatefulPartitionedCall/predict/InceptionV3/InceptionV3/Mixed_7b/Branch_2/Conv2d_0b_3x3/Conv2D_weights", "shape": [3, 3, 448, 384], "dtype": "float32"}, {"name": "StatefulPartitionedCall/sequential/keras_layer/StatefulPartitionedCall/StatefulPartitionedCall/StatefulPartitionedCall/predict/InceptionV3/InceptionV3/Conv2d_4a_3x3/Conv2D_weights", "shape": [3, 3, 80, 192], "dtype": "float32"}, {"name": "StatefulPartitionedCall/sequential/keras_layer/StatefulPartitionedCall/StatefulPartitionedCall/StatefulPartitionedCall/predict/InceptionV3/InceptionV3/Mixed_6e/Branch_0/Conv2d_0a_1x1/Conv2D_bn_offset", "shape": [192], "dtype": "float32"}, {"name": "StatefulPartitionedCall/sequential/keras_layer/StatefulPartitionedCall/StatefulPartitionedCall/StatefulPartitionedCall/predict/InceptionV3/InceptionV3/Conv2d_4a_3x3/Conv2D_bn_offset", "shape": [192], "dtype": "float32"}, {"name": "StatefulPartitionedCall/sequential/keras_layer/StatefulPartitionedCall/StatefulPartitionedCall/StatefulPartitionedCall/predict/InceptionV3/InceptionV3/Mixed_7c/Branch_1/Conv2d_0c_3x1/Conv2D_bn_offset", "shape": [384], "dtype": "float32"}, {"name": "StatefulPartitionedCall/sequential/keras_layer/StatefulPartitionedCall/StatefulPartitionedCall/StatefulPartitionedCall/predict/InceptionV3/InceptionV3/Mixed_5b/Branch_0/Conv2d_0a_1x1/Conv2D_weights", "shape": [1, 1, 192, 64], "dtype": "float32"}, {"name": "StatefulPartitionedCall/sequential/keras_layer/StatefulPartitionedCall/StatefulPartitionedCall/StatefulPartitionedCall/predict/InceptionV3/InceptionV3/Mixed_5b/Branch_0/Conv2d_0a_1x1/Conv2D_bn_offset", "shape": [64], "dtype": "float32"}, {"name": "StatefulPartitionedCall/sequential/keras_layer/StatefulPartitionedCall/StatefulPartitionedCall/StatefulPartitionedCall/predict/InceptionV3/InceptionV3/Mixed_6e/Branch_1/Conv2d_0a_1x1/Conv2D_weights", "shape": [1, 1, 768, 192], "dtype": "float32"}, {"name": "StatefulPartitionedCall/sequential/keras_layer/StatefulPartitionedCall/StatefulPartitionedCall/StatefulPartitionedCall/predict/InceptionV3/InceptionV3/Mixed_5b/Branch_1/Conv2d_0a_1x1/Conv2D_weights", "shape": [1, 1, 192, 48], "dtype": "float32"}, {"name": "StatefulPartitionedCall/sequential/keras_layer/StatefulPartitionedCall/StatefulPartitionedCall/StatefulPartitionedCall/predict/InceptionV3/InceptionV3/Mixed_7b/Branch_2/Conv2d_0b_3x3/Conv2D_bn_offset", "shape": [384], "dtype": "float32"}, {"name": "StatefulPartitionedCall/sequential/keras_layer/StatefulPartitionedCall/StatefulPartitionedCall/StatefulPartitionedCall/predict/InceptionV3/InceptionV3/Mixed_5b/Branch_1/Conv2d_0a_1x1/Conv2D_bn_offset", "shape": [48], "dtype": "float32"}, {"name": "StatefulPartitionedCall/sequential/keras_layer/StatefulPartitionedCall/StatefulPartitionedCall/StatefulPartitionedCall/predict/InceptionV3/InceptionV3/Mixed_6e/Branch_1/Conv2d_0a_1x1/Conv2D_bn_offset", "shape": [192], "dtype": "float32"}, {"name": "StatefulPartitionedCall/sequential/keras_layer/StatefulPartitionedCall/StatefulPartitionedCall/StatefulPartitionedCall/predict/InceptionV3/InceptionV3/Mixed_5b/Branch_2/Conv2d_0a_1x1/Conv2D_weights", "shape": [1, 1, 192, 64], "dtype": "float32"}, {"name": "StatefulPartitionedCall/sequential/keras_layer/StatefulPartitionedCall/StatefulPartitionedCall/StatefulPartitionedCall/predict/InceptionV3/InceptionV3/Mixed_5b/Branch_2/Conv2d_0a_1x1/Conv2D_bn_offset", "shape": [64], "dtype": "float32"}, {"name": "StatefulPartitionedCall/sequential/keras_layer/StatefulPartitionedCall/StatefulPartitionedCall/StatefulPartitionedCall/predict/InceptionV3/InceptionV3/Mixed_5b/Branch_3/Conv2d_0b_1x1/Conv2D_weights", "shape": [1, 1, 192, 32], "dtype": "float32"}, {"name": "StatefulPartitionedCall/sequential/keras_layer/StatefulPartitionedCall/StatefulPartitionedCall/StatefulPartitionedCall/predict/InceptionV3/InceptionV3/Mixed_6e/Branch_2/Conv2d_0a_1x1/Conv2D_weights", "shape": [1, 1, 768, 192], "dtype": "float32"}, {"name": "StatefulPartitionedCall/sequential/keras_layer/StatefulPartitionedCall/StatefulPartitionedCall/StatefulPartitionedCall/predict/InceptionV3/InceptionV3/Mixed_5b/Branch_3/Conv2d_0b_1x1/Conv2D_bn_offset", "shape": [32], "dtype": "float32"}, {"name": "StatefulPartitionedCall/sequential/keras_layer/StatefulPartitionedCall/StatefulPartitionedCall/StatefulPartitionedCall/predict/InceptionV3/InceptionV3/Mixed_5b/Branch_1/Conv2d_0b_5x5/Conv2D_weights", "shape": [5, 5, 48, 64], "dtype": "float32"}, {"name": "StatefulPartitionedCall/sequential/keras_layer/StatefulPartitionedCall/StatefulPartitionedCall/StatefulPartitionedCall/predict/InceptionV3/InceptionV3/Mixed_6e/Branch_2/Conv2d_0a_1x1/Conv2D_bn_offset", "shape": [192], "dtype": "float32"}, {"name": "StatefulPartitionedCall/sequential/keras_layer/StatefulPartitionedCall/StatefulPartitionedCall/StatefulPartitionedCall/predict/InceptionV3/InceptionV3/Mixed_5b/Branch_1/Conv2d_0b_5x5/Conv2D_bn_offset", "shape": [64], "dtype": "float32"}, {"name": "StatefulPartitionedCall/sequential/keras_layer/StatefulPartitionedCall/StatefulPartitionedCall/StatefulPartitionedCall/predict/InceptionV3/InceptionV3/Mixed_7b/Branch_2/Conv2d_0c_1x3/Conv2D_weights", "shape": [1, 3, 384, 384], "dtype": "float32"}, {"name": "StatefulPartitionedCall/sequential/keras_layer/StatefulPartitionedCall/StatefulPartitionedCall/StatefulPartitionedCall/predict/InceptionV3/InceptionV3/Mixed_5b/Branch_2/Conv2d_0b_3x3/Conv2D_weights", "shape": [3, 3, 64, 96], "dtype": "float32"}, {"name": "StatefulPartitionedCall/sequential/keras_layer/StatefulPartitionedCall/StatefulPartitionedCall/StatefulPartitionedCall/predict/InceptionV3/InceptionV3/Mixed_5b/Branch_2/Conv2d_0b_3x3/Conv2D_bn_offset", "shape": [96], "dtype": "float32"}, {"name": "StatefulPartitionedCall/sequential/keras_layer/StatefulPartitionedCall/StatefulPartitionedCall/StatefulPartitionedCall/predict/InceptionV3/InceptionV3/Mixed_6e/Branch_3/Conv2d_0b_1x1/Conv2D_weights", "shape": [1, 1, 768, 192], "dtype": "float32"}, {"name": "StatefulPartitionedCall/sequential/keras_layer/StatefulPartitionedCall/StatefulPartitionedCall/StatefulPartitionedCall/predict/InceptionV3/InceptionV3/Mixed_5b/Branch_2/Conv2d_0c_3x3/Conv2D_weights", "shape": [3, 3, 96, 96], "dtype": "float32"}, {"name": "StatefulPartitionedCall/sequential/keras_layer/StatefulPartitionedCall/StatefulPartitionedCall/StatefulPartitionedCall/predict/InceptionV3/InceptionV3/Mixed_5b/Branch_2/Conv2d_0c_3x3/Conv2D_bn_offset", "shape": [96], "dtype": "float32"}, {"name": "StatefulPartitionedCall/sequential/keras_layer/StatefulPartitionedCall/StatefulPartitionedCall/StatefulPartitionedCall/predict/InceptionV3/InceptionV3/Mixed_6e/Branch_3/Conv2d_0b_1x1/Conv2D_bn_offset", "shape": [192], "dtype": "float32"}, {"name": "StatefulPartitionedCall/sequential/keras_layer/StatefulPartitionedCall/StatefulPartitionedCall/StatefulPartitionedCall/predict/InceptionV3/InceptionV3/Mixed_5c/Branch_0/Conv2d_0a_1x1/Conv2D_weights", "shape": [1, 1, 256, 64], "dtype": "float32"}, {"name": "StatefulPartitionedCall/sequential/keras_layer/StatefulPartitionedCall/StatefulPartitionedCall/StatefulPartitionedCall/predict/InceptionV3/InceptionV3/Mixed_7b/Branch_2/Conv2d_0c_1x3/Conv2D_bn_offset", "shape": [384], "dtype": "float32"}, {"name": "StatefulPartitionedCall/sequential/keras_layer/StatefulPartitionedCall/StatefulPartitionedCall/StatefulPartitionedCall/predict/InceptionV3/InceptionV3/Mixed_5c/Branch_0/Conv2d_0a_1x1/Conv2D_bn_offset", "shape": [64], "dtype": "float32"}, {"name": "StatefulPartitionedCall/sequential/keras_layer/StatefulPartitionedCall/StatefulPartitionedCall/StatefulPartitionedCall/predict/InceptionV3/InceptionV3/Mixed_5c/Branch_1/Conv2d_0b_1x1/Conv2D_weights", "shape": [1, 1, 256, 48], "dtype": "float32"}, {"name": "StatefulPartitionedCall/sequential/keras_layer/StatefulPartitionedCall/StatefulPartitionedCall/StatefulPartitionedCall/predict/InceptionV3/InceptionV3/Mixed_6e/Branch_1/Conv2d_0b_1x7/Conv2D_weights", "shape": [1, 7, 192, 192], "dtype": "float32"}, {"name": "StatefulPartitionedCall/sequential/keras_layer/StatefulPartitionedCall/StatefulPartitionedCall/StatefulPartitionedCall/predict/InceptionV3/InceptionV3/Mixed_5c/Branch_1/Conv2d_0b_1x1/Conv2D_bn_offset", "shape": [48], "dtype": "float32"}, {"name": "StatefulPartitionedCall/sequential/keras_layer/StatefulPartitionedCall/StatefulPartitionedCall/StatefulPartitionedCall/predict/InceptionV3/InceptionV3/Mixed_7c/Branch_2/Conv2d_0b_3x3/Conv2D_weights", "shape": [3, 3, 448, 384], "dtype": "float32"}, {"name": "StatefulPartitionedCall/sequential/keras_layer/StatefulPartitionedCall/StatefulPartitionedCall/StatefulPartitionedCall/predict/InceptionV3/InceptionV3/Mixed_5c/Branch_2/Conv2d_0a_1x1/Conv2D_weights", "shape": [1, 1, 256, 64], "dtype": "float32"}, {"name": "StatefulPartitionedCall/sequential/keras_layer/StatefulPartitionedCall/StatefulPartitionedCall/StatefulPartitionedCall/predict/InceptionV3/InceptionV3/Mixed_6e/Branch_1/Conv2d_0b_1x7/Conv2D_bn_offset", "shape": [192], "dtype": "float32"}, {"name": "StatefulPartitionedCall/sequential/keras_layer/StatefulPartitionedCall/StatefulPartitionedCall/StatefulPartitionedCall/predict/InceptionV3/InceptionV3/Mixed_5c/Branch_2/Conv2d_0a_1x1/Conv2D_bn_offset", "shape": [64], "dtype": "float32"}, {"name": "StatefulPartitionedCall/sequential/keras_layer/StatefulPartitionedCall/StatefulPartitionedCall/StatefulPartitionedCall/predict/InceptionV3/InceptionV3/Mixed_5c/Branch_3/Conv2d_0b_1x1/Conv2D_weights", "shape": [1, 1, 256, 64], "dtype": "float32"}, {"name": "StatefulPartitionedCall/sequential/keras_layer/StatefulPartitionedCall/StatefulPartitionedCall/StatefulPartitionedCall/predict/InceptionV3/InceptionV3/Mixed_5c/Branch_3/Conv2d_0b_1x1/Conv2D_bn_offset", "shape": [64], "dtype": "float32"}, {"name": "StatefulPartitionedCall/sequential/keras_layer/StatefulPartitionedCall/StatefulPartitionedCall/StatefulPartitionedCall/predict/InceptionV3/InceptionV3/Mixed_6e/Branch_2/Conv2d_0b_7x1/Conv2D_weights", "shape": [7, 1, 192, 192], "dtype": "float32"}, {"name": "StatefulPartitionedCall/sequential/keras_layer/StatefulPartitionedCall/StatefulPartitionedCall/StatefulPartitionedCall/predict/InceptionV3/InceptionV3/Mixed_5c/Branch_1/Conv_1_0c_5x5/Conv2D_weights", "shape": [5, 5, 48, 64], "dtype": "float32"}, {"name": "StatefulPartitionedCall/sequential/keras_layer/StatefulPartitionedCall/StatefulPartitionedCall/StatefulPartitionedCall/predict/InceptionV3/InceptionV3/Mixed_7b/Branch_2/Conv2d_0d_3x1/Conv2D_weights", "shape": [3, 1, 384, 384], "dtype": "float32"}, {"name": "StatefulPartitionedCall/sequential/keras_layer/StatefulPartitionedCall/StatefulPartitionedCall/StatefulPartitionedCall/predict/InceptionV3/InceptionV3/Mixed_5c/Branch_1/Conv_1_0c_5x5/Conv2D_bn_offset", "shape": [64], "dtype": "float32"}, {"name": "StatefulPartitionedCall/sequential/keras_layer/StatefulPartitionedCall/StatefulPartitionedCall/StatefulPartitionedCall/predict/InceptionV3/InceptionV3/Mixed_6e/Branch_2/Conv2d_0b_7x1/Conv2D_bn_offset", "shape": [192], "dtype": "float32"}, {"name": "StatefulPartitionedCall/sequential/keras_layer/StatefulPartitionedCall/StatefulPartitionedCall/StatefulPartitionedCall/predict/InceptionV3/InceptionV3/Mixed_5c/Branch_2/Conv2d_0b_3x3/Conv2D_weights", "shape": [3, 3, 64, 96], "dtype": "float32"}, {"name": "StatefulPartitionedCall/sequential/keras_layer/StatefulPartitionedCall/StatefulPartitionedCall/StatefulPartitionedCall/predict/InceptionV3/InceptionV3/Mixed_5c/Branch_2/Conv2d_0b_3x3/Conv2D_bn_offset", "shape": [96], "dtype": "float32"}, {"name": "StatefulPartitionedCall/sequential/keras_layer/StatefulPartitionedCall/StatefulPartitionedCall/StatefulPartitionedCall/predict/InceptionV3/InceptionV3/Mixed_5c/Branch_2/Conv2d_0c_3x3/Conv2D_weights", "shape": [3, 3, 96, 96], "dtype": "float32"}, {"name": "StatefulPartitionedCall/sequential/keras_layer/StatefulPartitionedCall/StatefulPartitionedCall/StatefulPartitionedCall/predict/InceptionV3/InceptionV3/Mixed_6e/Branch_1/Conv2d_0c_7x1/Conv2D_weights", "shape": [7, 1, 192, 192], "dtype": "float32"}, {"name": "StatefulPartitionedCall/sequential/keras_layer/StatefulPartitionedCall/StatefulPartitionedCall/StatefulPartitionedCall/predict/InceptionV3/InceptionV3/Mixed_5c/Branch_2/Conv2d_0c_3x3/Conv2D_bn_offset", "shape": [96], "dtype": "float32"}, {"name": "StatefulPartitionedCall/sequential/keras_layer/StatefulPartitionedCall/StatefulPartitionedCall/StatefulPartitionedCall/predict/InceptionV3/InceptionV3/Mixed_7b/Branch_2/Conv2d_0d_3x1/Conv2D_bn_offset", "shape": [384], "dtype": "float32"}, {"name": "StatefulPartitionedCall/sequential/keras_layer/StatefulPartitionedCall/StatefulPartitionedCall/StatefulPartitionedCall/predict/InceptionV3/InceptionV3/Mixed_5d/Branch_0/Conv2d_0a_1x1/Conv2D_weights", "shape": [1, 1, 288, 64], "dtype": "float32"}, {"name": "StatefulPartitionedCall/sequential/keras_layer/StatefulPartitionedCall/StatefulPartitionedCall/StatefulPartitionedCall/predict/InceptionV3/InceptionV3/Mixed_6e/Branch_1/Conv2d_0c_7x1/Conv2D_bn_offset", "shape": [192], "dtype": "float32"}, {"name": "StatefulPartitionedCall/sequential/keras_layer/StatefulPartitionedCall/StatefulPartitionedCall/StatefulPartitionedCall/predict/InceptionV3/InceptionV3/Mixed_5d/Branch_0/Conv2d_0a_1x1/Conv2D_bn_offset", "shape": [64], "dtype": "float32"}, {"name": "StatefulPartitionedCall/sequential/keras_layer/StatefulPartitionedCall/StatefulPartitionedCall/StatefulPartitionedCall/predict/InceptionV3/InceptionV3/Mixed_7c/Branch_2/Conv2d_0b_3x3/Conv2D_bn_offset", "shape": [384], "dtype": "float32"}, {"name": "StatefulPartitionedCall/sequential/keras_layer/StatefulPartitionedCall/StatefulPartitionedCall/StatefulPartitionedCall/predict/InceptionV3/InceptionV3/Mixed_5d/Branch_1/Conv2d_0a_1x1/Conv2D_weights", "shape": [1, 1, 288, 48], "dtype": "float32"}, {"name": "StatefulPartitionedCall/sequential/keras_layer/StatefulPartitionedCall/StatefulPartitionedCall/StatefulPartitionedCall/predict/InceptionV3/InceptionV3/Mixed_5d/Branch_1/Conv2d_0a_1x1/Conv2D_bn_offset", "shape": [48], "dtype": "float32"}, {"name": "StatefulPartitionedCall/sequential/keras_layer/StatefulPartitionedCall/StatefulPartitionedCall/StatefulPartitionedCall/predict/InceptionV3/InceptionV3/Mixed_6e/Branch_2/Conv2d_0c_1x7/Conv2D_weights", "shape": [1, 7, 192, 192], "dtype": "float32"}, {"name": "StatefulPartitionedCall/sequential/keras_layer/StatefulPartitionedCall/StatefulPartitionedCall/StatefulPartitionedCall/predict/InceptionV3/InceptionV3/Mixed_5d/Branch_2/Conv2d_0a_1x1/Conv2D_weights", "shape": [1, 1, 288, 64], "dtype": "float32"}, {"name": "StatefulPartitionedCall/sequential/keras_layer/StatefulPartitionedCall/StatefulPartitionedCall/StatefulPartitionedCall/predict/InceptionV3/InceptionV3/Mixed_5d/Branch_2/Conv2d_0a_1x1/Conv2D_bn_offset", "shape": [64], "dtype": "float32"}, {"name": "StatefulPartitionedCall/sequential/keras_layer/StatefulPartitionedCall/StatefulPartitionedCall/StatefulPartitionedCall/predict/InceptionV3/InceptionV3/Mixed_6e/Branch_2/Conv2d_0c_1x7/Conv2D_bn_offset", "shape": [192], "dtype": "float32"}, {"name": "StatefulPartitionedCall/sequential/keras_layer/StatefulPartitionedCall/StatefulPartitionedCall/StatefulPartitionedCall/predict/InceptionV3/InceptionV3/Mixed_5d/Branch_3/Conv2d_0b_1x1/Conv2D_weights", "shape": [1, 1, 288, 64], "dtype": "float32"}, {"name": "StatefulPartitionedCall/sequential/keras_layer/StatefulPartitionedCall/StatefulPartitionedCall/StatefulPartitionedCall/predict/InceptionV3/InceptionV3/Mixed_5d/Branch_3/Conv2d_0b_1x1/Conv2D_bn_offset", "shape": [64], "dtype": "float32"}, {"name": "StatefulPartitionedCall/sequential/keras_layer/StatefulPartitionedCall/StatefulPartitionedCall/StatefulPartitionedCall/predict/InceptionV3/InceptionV3/Mixed_5d/Branch_1/Conv2d_0b_5x5/Conv2D_weights", "shape": [5, 5, 48, 64], "dtype": "float32"}, {"name": "StatefulPartitionedCall/sequential/keras_layer/StatefulPartitionedCall/StatefulPartitionedCall/StatefulPartitionedCall/predict/InceptionV3/InceptionV3/Mixed_6e/Branch_2/Conv2d_0d_7x1/Conv2D_weights", "shape": [7, 1, 192, 192], "dtype": "float32"}, {"name": "StatefulPartitionedCall/sequential/keras_layer/StatefulPartitionedCall/StatefulPartitionedCall/StatefulPartitionedCall/predict/InceptionV3/InceptionV3/Mixed_5d/Branch_1/Conv2d_0b_5x5/Conv2D_bn_offset", "shape": [64], "dtype": "float32"}, {"name": "StatefulPartitionedCall/sequential/keras_layer/StatefulPartitionedCall/StatefulPartitionedCall/StatefulPartitionedCall/predict/InceptionV3/InceptionV3/Mixed_5d/Branch_2/Conv2d_0b_3x3/Conv2D_weights", "shape": [3, 3, 64, 96], "dtype": "float32"}, {"name": "StatefulPartitionedCall/sequential/keras_layer/StatefulPartitionedCall/StatefulPartitionedCall/StatefulPartitionedCall/predict/InceptionV3/InceptionV3/Mixed_6e/Branch_2/Conv2d_0d_7x1/Conv2D_bn_offset", "shape": [192], "dtype": "float32"}, {"name": "StatefulPartitionedCall/sequential/keras_layer/StatefulPartitionedCall/StatefulPartitionedCall/StatefulPartitionedCall/predict/InceptionV3/InceptionV3/Mixed_5d/Branch_2/Conv2d_0b_3x3/Conv2D_bn_offset", "shape": [96], "dtype": "float32"}, {"name": "StatefulPartitionedCall/sequential/keras_layer/StatefulPartitionedCall/StatefulPartitionedCall/StatefulPartitionedCall/predict/InceptionV3/InceptionV3/Mixed_7c/Branch_0/Conv2d_0a_1x1/Conv2D_weights", "shape": [1, 1, 2048, 320], "dtype": "float32"}, {"name": "StatefulPartitionedCall/sequential/keras_layer/StatefulPartitionedCall/StatefulPartitionedCall/StatefulPartitionedCall/predict/InceptionV3/InceptionV3/Mixed_5d/Branch_2/Conv2d_0c_3x3/Conv2D_weights", "shape": [3, 3, 96, 96], "dtype": "float32"}, {"name": "StatefulPartitionedCall/sequential/keras_layer/StatefulPartitionedCall/StatefulPartitionedCall/StatefulPartitionedCall/predict/InceptionV3/InceptionV3/Mixed_5d/Branch_2/Conv2d_0c_3x3/Conv2D_bn_offset", "shape": [96], "dtype": "float32"}, {"name": "StatefulPartitionedCall/sequential/keras_layer/StatefulPartitionedCall/StatefulPartitionedCall/StatefulPartitionedCall/predict/InceptionV3/InceptionV3/Mixed_6e/Branch_2/Conv2d_0e_1x7/Conv2D_weights", "shape": [1, 7, 192, 192], "dtype": "float32"}, {"name": "StatefulPartitionedCall/sequential/keras_layer/StatefulPartitionedCall/StatefulPartitionedCall/StatefulPartitionedCall/predict/InceptionV3/InceptionV3/Mixed_6a/Branch_0/Conv2d_1a_1x1/Conv2D_weights", "shape": [3, 3, 288, 384], "dtype": "float32"}, {"name": "StatefulPartitionedCall/sequential/keras_layer/StatefulPartitionedCall/StatefulPartitionedCall/StatefulPartitionedCall/predict/InceptionV3/InceptionV3/Mixed_6a/Branch_0/Conv2d_1a_1x1/Conv2D_bn_offset", "shape": [384], "dtype": "float32"}, {"name": "StatefulPartitionedCall/sequential/keras_layer/StatefulPartitionedCall/StatefulPartitionedCall/StatefulPartitionedCall/predict/InceptionV3/InceptionV3/Mixed_6e/Branch_2/Conv2d_0e_1x7/Conv2D_bn_offset", "shape": [192], "dtype": "float32"}, {"name": "StatefulPartitionedCall/sequential/keras_layer/StatefulPartitionedCall/StatefulPartitionedCall/StatefulPartitionedCall/predict/InceptionV3/InceptionV3/Mixed_6a/Branch_1/Conv2d_0a_1x1/Conv2D_weights", "shape": [1, 1, 288, 64], "dtype": "float32"}, {"name": "StatefulPartitionedCall/sequential/keras_layer/StatefulPartitionedCall/StatefulPartitionedCall/StatefulPartitionedCall/predict/InceptionV3/InceptionV3/Mixed_7c/Branch_0/Conv2d_0a_1x1/Conv2D_bn_offset", "shape": [320], "dtype": "float32"}, {"name": "StatefulPartitionedCall/sequential/keras_layer/StatefulPartitionedCall/StatefulPartitionedCall/StatefulPartitionedCall/predict/InceptionV3/InceptionV3/Mixed_6a/Branch_1/Conv2d_0a_1x1/Conv2D_bn_offset", "shape": [64], "dtype": "float32"}, {"name": "StatefulPartitionedCall/sequential/keras_layer/StatefulPartitionedCall/StatefulPartitionedCall/StatefulPartitionedCall/predict/InceptionV3/InceptionV3/Mixed_6a/Branch_1/Conv2d_0b_3x3/Conv2D_weights", "shape": [3, 3, 64, 96], "dtype": "float32"}, {"name": "StatefulPartitionedCall/sequential/keras_layer/StatefulPartitionedCall/StatefulPartitionedCall/StatefulPartitionedCall/predict/InceptionV3/InceptionV3/Mixed_6a/Branch_1/Conv2d_0b_3x3/Conv2D_bn_offset", "shape": [96], "dtype": "float32"}, {"name": "StatefulPartitionedCall/sequential/keras_layer/StatefulPartitionedCall/StatefulPartitionedCall/StatefulPartitionedCall/predict/InceptionV3/InceptionV3/Mixed_6a/Branch_1/Conv2d_1a_1x1/Conv2D_weights", "shape": [3, 3, 96, 96], "dtype": "float32"}, {"name": "StatefulPartitionedCall/sequential/keras_layer/StatefulPartitionedCall/StatefulPartitionedCall/StatefulPartitionedCall/predict/InceptionV3/InceptionV3/Mixed_7a/Branch_0/Conv2d_0a_1x1/Conv2D_weights", "shape": [1, 1, 768, 192], "dtype": "float32"}, {"name": "StatefulPartitionedCall/sequential/keras_layer/StatefulPartitionedCall/StatefulPartitionedCall/StatefulPartitionedCall/predict/InceptionV3/InceptionV3/Mixed_6a/Branch_1/Conv2d_1a_1x1/Conv2D_bn_offset", "shape": [96], "dtype": "float32"}, {"name": "StatefulPartitionedCall/sequential/keras_layer/StatefulPartitionedCall/StatefulPartitionedCall/StatefulPartitionedCall/predict/InceptionV3/InceptionV3/Mixed_6b/Branch_0/Conv2d_0a_1x1/Conv2D_weights", "shape": [1, 1, 768, 192], "dtype": "float32"}, {"name": "StatefulPartitionedCall/sequential/keras_layer/StatefulPartitionedCall/StatefulPartitionedCall/StatefulPartitionedCall/predict/InceptionV3/InceptionV3/Mixed_7a/Branch_0/Conv2d_0a_1x1/Conv2D_bn_offset", "shape": [192], "dtype": "float32"}, {"name": "StatefulPartitionedCall/sequential/keras_layer/StatefulPartitionedCall/StatefulPartitionedCall/StatefulPartitionedCall/predict/InceptionV3/InceptionV3/Mixed_6b/Branch_0/Conv2d_0a_1x1/Conv2D_bn_offset", "shape": [192], "dtype": "float32"}, {"name": "StatefulPartitionedCall/sequential/keras_layer/StatefulPartitionedCall/StatefulPartitionedCall/StatefulPartitionedCall/predict/InceptionV3/InceptionV3/Mixed_6b/Branch_1/Conv2d_0a_1x1/Conv2D_weights", "shape": [1, 1, 768, 128], "dtype": "float32"}, {"name": "StatefulPartitionedCall/sequential/keras_layer/StatefulPartitionedCall/StatefulPartitionedCall/StatefulPartitionedCall/predict/InceptionV3/InceptionV3/Mixed_6b/Branch_1/Conv2d_0a_1x1/Conv2D_bn_offset", "shape": [128], "dtype": "float32"}, {"name": "StatefulPartitionedCall/sequential/keras_layer/StatefulPartitionedCall/StatefulPartitionedCall/StatefulPartitionedCall/predict/InceptionV3/InceptionV3/Mixed_7a/Branch_1/Conv2d_0a_1x1/Conv2D_weights", "shape": [1, 1, 768, 192], "dtype": "float32"}, {"name": "StatefulPartitionedCall/sequential/keras_layer/StatefulPartitionedCall/StatefulPartitionedCall/StatefulPartitionedCall/predict/InceptionV3/InceptionV3/Mixed_6b/Branch_2/Conv2d_0a_1x1/Conv2D_weights", "shape": [1, 1, 768, 128], "dtype": "float32"}, {"name": "StatefulPartitionedCall/sequential/keras_layer/StatefulPartitionedCall/StatefulPartitionedCall/StatefulPartitionedCall/predict/InceptionV3/InceptionV3/Mixed_7c/Branch_1/Conv2d_0a_1x1/Conv2D_weights", "shape": [1, 1, 2048, 384], "dtype": "float32"}, {"name": "StatefulPartitionedCall/sequential/keras_layer/StatefulPartitionedCall/StatefulPartitionedCall/StatefulPartitionedCall/predict/InceptionV3/InceptionV3/Mixed_6b/Branch_2/Conv2d_0a_1x1/Conv2D_bn_offset", "shape": [128], "dtype": "float32"}, {"name": "StatefulPartitionedCall/sequential/keras_layer/StatefulPartitionedCall/StatefulPartitionedCall/StatefulPartitionedCall/predict/InceptionV3/InceptionV3/Mixed_7a/Branch_1/Conv2d_0a_1x1/Conv2D_bn_offset", "shape": [192], "dtype": "float32"}, {"name": "StatefulPartitionedCall/sequential/keras_layer/StatefulPartitionedCall/StatefulPartitionedCall/StatefulPartitionedCall/predict/InceptionV3/InceptionV3/Mixed_6b/Branch_3/Conv2d_0b_1x1/Conv2D_weights", "shape": [1, 1, 768, 192], "dtype": "float32"}, {"name": "StatefulPartitionedCall/sequential/keras_layer/StatefulPartitionedCall/StatefulPartitionedCall/StatefulPartitionedCall/predict/InceptionV3/InceptionV3/Mixed_7c/Branch_2/Conv2d_0c_1x3/Conv2D_weights", "shape": [1, 3, 384, 384], "dtype": "float32"}, {"name": "StatefulPartitionedCall/sequential/keras_layer/StatefulPartitionedCall/StatefulPartitionedCall/StatefulPartitionedCall/predict/InceptionV3/InceptionV3/Mixed_6b/Branch_3/Conv2d_0b_1x1/Conv2D_bn_offset", "shape": [192], "dtype": "float32"}, {"name": "StatefulPartitionedCall/sequential/keras_layer/StatefulPartitionedCall/StatefulPartitionedCall/StatefulPartitionedCall/predict/InceptionV3/InceptionV3/Mixed_6b/Branch_1/Conv2d_0b_1x7/Conv2D_weights", "shape": [1, 7, 128, 128], "dtype": "float32"}, {"name": "StatefulPartitionedCall/sequential/keras_layer/StatefulPartitionedCall/StatefulPartitionedCall/StatefulPartitionedCall/predict/InceptionV3/InceptionV3/Mixed_7a/Branch_0/Conv2d_1a_3x3/Conv2D_weights", "shape": [3, 3, 192, 320], "dtype": "float32"}, {"name": "StatefulPartitionedCall/sequential/keras_layer/StatefulPartitionedCall/StatefulPartitionedCall/StatefulPartitionedCall/predict/InceptionV3/InceptionV3/Mixed_6b/Branch_1/Conv2d_0b_1x7/Conv2D_bn_offset", "shape": [128], "dtype": "float32"}, {"name": "StatefulPartitionedCall/sequential/keras_layer/StatefulPartitionedCall/StatefulPartitionedCall/StatefulPartitionedCall/predict/InceptionV3/InceptionV3/Mixed_7c/Branch_1/Conv2d_0a_1x1/Conv2D_bn_offset", "shape": [384], "dtype": "float32"}, {"name": "StatefulPartitionedCall/sequential/keras_layer/StatefulPartitionedCall/StatefulPartitionedCall/StatefulPartitionedCall/predict/InceptionV3/InceptionV3/Mixed_6b/Branch_2/Conv2d_0b_7x1/Conv2D_weights", "shape": [7, 1, 128, 128], "dtype": "float32"}, {"name": "StatefulPartitionedCall/sequential/keras_layer/StatefulPartitionedCall/StatefulPartitionedCall/StatefulPartitionedCall/predict/InceptionV3/InceptionV3/Mixed_7a/Branch_0/Conv2d_1a_3x3/Conv2D_bn_offset", "shape": [320], "dtype": "float32"}, {"name": "StatefulPartitionedCall/sequential/keras_layer/StatefulPartitionedCall/StatefulPartitionedCall/StatefulPartitionedCall/predict/InceptionV3/InceptionV3/Mixed_6b/Branch_2/Conv2d_0b_7x1/Conv2D_bn_offset", "shape": [128], "dtype": "float32"}, {"name": "StatefulPartitionedCall/sequential/keras_layer/StatefulPartitionedCall/StatefulPartitionedCall/StatefulPartitionedCall/predict/InceptionV3/InceptionV3/Mixed_6b/Branch_1/Conv2d_0c_7x1/Conv2D_weights", "shape": [7, 1, 128, 192], "dtype": "float32"}, {"name": "StatefulPartitionedCall/sequential/keras_layer/StatefulPartitionedCall/StatefulPartitionedCall/StatefulPartitionedCall/predict/InceptionV3/InceptionV3/Mixed_6b/Branch_1/Conv2d_0c_7x1/Conv2D_bn_offset", "shape": [192], "dtype": "float32"}, {"name": "StatefulPartitionedCall/sequential/keras_layer/StatefulPartitionedCall/StatefulPartitionedCall/StatefulPartitionedCall/predict/InceptionV3/InceptionV3/Mixed_7a/Branch_1/Conv2d_0b_1x7/Conv2D_weights", "shape": [1, 7, 192, 192], "dtype": "float32"}, {"name": "StatefulPartitionedCall/sequential/keras_layer/StatefulPartitionedCall/StatefulPartitionedCall/StatefulPartitionedCall/predict/InceptionV3/InceptionV3/Mixed_6b/Branch_2/Conv2d_0c_1x7/Conv2D_weights", "shape": [1, 7, 128, 128], "dtype": "float32"}, {"name": "StatefulPartitionedCall/sequential/keras_layer/StatefulPartitionedCall/StatefulPartitionedCall/StatefulPartitionedCall/predict/InceptionV3/InceptionV3/Mixed_6b/Branch_2/Conv2d_0c_1x7/Conv2D_bn_offset", "shape": [128], "dtype": "float32"}, {"name": "StatefulPartitionedCall/sequential/keras_layer/StatefulPartitionedCall/StatefulPartitionedCall/StatefulPartitionedCall/predict/InceptionV3/InceptionV3/Mixed_7a/Branch_1/Conv2d_0b_1x7/Conv2D_bn_offset", "shape": [192], "dtype": "float32"}, {"name": "StatefulPartitionedCall/sequential/keras_layer/StatefulPartitionedCall/StatefulPartitionedCall/StatefulPartitionedCall/predict/InceptionV3/InceptionV3/Mixed_6b/Branch_2/Conv2d_0d_7x1/Conv2D_weights", "shape": [7, 1, 128, 128], "dtype": "float32"}, {"name": "StatefulPartitionedCall/sequential/keras_layer/StatefulPartitionedCall/StatefulPartitionedCall/StatefulPartitionedCall/predict/InceptionV3/InceptionV3/Mixed_7c/Branch_2/Conv2d_0a_1x1/Conv2D_weights", "shape": [1, 1, 2048, 448], "dtype": "float32"}, {"name": "StatefulPartitionedCall/sequential/keras_layer/StatefulPartitionedCall/StatefulPartitionedCall/StatefulPartitionedCall/predict/InceptionV3/InceptionV3/Mixed_6b/Branch_2/Conv2d_0d_7x1/Conv2D_bn_offset", "shape": [128], "dtype": "float32"}, {"name": "StatefulPartitionedCall/sequential/keras_layer/StatefulPartitionedCall/StatefulPartitionedCall/StatefulPartitionedCall/predict/InceptionV3/InceptionV3/Mixed_6b/Branch_2/Conv2d_0e_1x7/Conv2D_weights", "shape": [1, 7, 128, 192], "dtype": "float32"}, {"name": "StatefulPartitionedCall/sequential/keras_layer/StatefulPartitionedCall/StatefulPartitionedCall/StatefulPartitionedCall/predict/InceptionV3/InceptionV3/Mixed_7a/Branch_1/Conv2d_0c_7x1/Conv2D_weights", "shape": [7, 1, 192, 192], "dtype": "float32"}, {"name": "StatefulPartitionedCall/sequential/keras_layer/StatefulPartitionedCall/StatefulPartitionedCall/StatefulPartitionedCall/predict/InceptionV3/InceptionV3/Mixed_6b/Branch_2/Conv2d_0e_1x7/Conv2D_bn_offset", "shape": [192], "dtype": "float32"}, {"name": "StatefulPartitionedCall/sequential/keras_layer/StatefulPartitionedCall/StatefulPartitionedCall/StatefulPartitionedCall/predict/InceptionV3/InceptionV3/Mixed_7c/Branch_2/Conv2d_0c_1x3/Conv2D_bn_offset", "shape": [384], "dtype": "float32"}, {"name": "StatefulPartitionedCall/sequential/keras_layer/StatefulPartitionedCall/StatefulPartitionedCall/StatefulPartitionedCall/predict/InceptionV3/InceptionV3/Mixed_6c/Branch_0/Conv2d_0a_1x1/Conv2D_weights", "shape": [1, 1, 768, 192], "dtype": "float32"}, {"name": "StatefulPartitionedCall/sequential/keras_layer/StatefulPartitionedCall/StatefulPartitionedCall/StatefulPartitionedCall/predict/InceptionV3/InceptionV3/Mixed_7a/Branch_1/Conv2d_0c_7x1/Conv2D_bn_offset", "shape": [192], "dtype": "float32"}, {"name": "StatefulPartitionedCall/sequential/keras_layer/StatefulPartitionedCall/StatefulPartitionedCall/StatefulPartitionedCall/predict/InceptionV3/InceptionV3/Mixed_6c/Branch_0/Conv2d_0a_1x1/Conv2D_bn_offset", "shape": [192], "dtype": "float32"}, {"name": "StatefulPartitionedCall/sequential/keras_layer/StatefulPartitionedCall/StatefulPartitionedCall/StatefulPartitionedCall/predict/InceptionV3/InceptionV3/Mixed_7c/Branch_2/Conv2d_0a_1x1/Conv2D_bn_offset", "shape": [448], "dtype": "float32"}, {"name": "StatefulPartitionedCall/sequential/keras_layer/StatefulPartitionedCall/StatefulPartitionedCall/StatefulPartitionedCall/predict/InceptionV3/InceptionV3/Mixed_6c/Branch_1/Conv2d_0a_1x1/Conv2D_weights", "shape": [1, 1, 768, 160], "dtype": "float32"}, {"name": "StatefulPartitionedCall/sequential/keras_layer/StatefulPartitionedCall/StatefulPartitionedCall/StatefulPartitionedCall/predict/InceptionV3/InceptionV3/Mixed_6c/Branch_1/Conv2d_0a_1x1/Conv2D_bn_offset", "shape": [160], "dtype": "float32"}, {"name": "StatefulPartitionedCall/sequential/keras_layer/StatefulPartitionedCall/StatefulPartitionedCall/StatefulPartitionedCall/predict/InceptionV3/InceptionV3/Mixed_7a/Branch_1/Conv2d_1a_3x3/Conv2D_weights", "shape": [3, 3, 192, 192], "dtype": "float32"}, {"name": "StatefulPartitionedCall/sequential/keras_layer/StatefulPartitionedCall/StatefulPartitionedCall/StatefulPartitionedCall/predict/InceptionV3/InceptionV3/Mixed_6c/Branch_2/Conv2d_0a_1x1/Conv2D_weights", "shape": [1, 1, 768, 160], "dtype": "float32"}, {"name": "StatefulPartitionedCall/sequential/keras_layer/StatefulPartitionedCall/StatefulPartitionedCall/StatefulPartitionedCall/predict/InceptionV3/InceptionV3/Mixed_6c/Branch_2/Conv2d_0a_1x1/Conv2D_bn_offset", "shape": [160], "dtype": "float32"}, {"name": "StatefulPartitionedCall/sequential/keras_layer/StatefulPartitionedCall/StatefulPartitionedCall/StatefulPartitionedCall/predict/InceptionV3/InceptionV3/Mixed_7a/Branch_1/Conv2d_1a_3x3/Conv2D_bn_offset", "shape": [192], "dtype": "float32"}, {"name": "StatefulPartitionedCall/sequential/keras_layer/StatefulPartitionedCall/StatefulPartitionedCall/StatefulPartitionedCall/predict/InceptionV3/InceptionV3/Mixed_6c/Branch_3/Conv2d_0b_1x1/Conv2D_weights", "shape": [1, 1, 768, 192], "dtype": "float32"}, {"name": "StatefulPartitionedCall/sequential/keras_layer/StatefulPartitionedCall/StatefulPartitionedCall/StatefulPartitionedCall/predict/InceptionV3/InceptionV3/Mixed_6c/Branch_3/Conv2d_0b_1x1/Conv2D_bn_offset", "shape": [192], "dtype": "float32"}, {"name": "StatefulPartitionedCall/sequential/keras_layer/StatefulPartitionedCall/StatefulPartitionedCall/StatefulPartitionedCall/predict/InceptionV3/InceptionV3/Mixed_6c/Branch_1/Conv2d_0b_1x7/Conv2D_weights", "shape": [1, 7, 160, 160], "dtype": "float32"}, {"name": "StatefulPartitionedCall/sequential/keras_layer/StatefulPartitionedCall/StatefulPartitionedCall/StatefulPartitionedCall/predict/InceptionV3/InceptionV3/Mixed_6c/Branch_1/Conv2d_0b_1x7/Conv2D_bn_offset", "shape": [160], "dtype": "float32"}, {"name": "StatefulPartitionedCall/sequential/keras_layer/StatefulPartitionedCall/StatefulPartitionedCall/StatefulPartitionedCall/predict/InceptionV3/InceptionV3/Mixed_6c/Branch_2/Conv2d_0b_7x1/Conv2D_weights", "shape": [7, 1, 160, 160], "dtype": "float32"}, {"name": "StatefulPartitionedCall/sequential/keras_layer/StatefulPartitionedCall/StatefulPartitionedCall/StatefulPartitionedCall/predict/InceptionV3/InceptionV3/Mixed_7b/Branch_0/Conv2d_0a_1x1/Conv2D_weights", "shape": [1, 1, 1280, 320], "dtype": "float32"}, {"name": "StatefulPartitionedCall/sequential/keras_layer/StatefulPartitionedCall/StatefulPartitionedCall/StatefulPartitionedCall/predict/InceptionV3/InceptionV3/Mixed_6c/Branch_2/Conv2d_0b_7x1/Conv2D_bn_offset", "shape": [160], "dtype": "float32"}, {"name": "StatefulPartitionedCall/sequential/keras_layer/StatefulPartitionedCall/StatefulPartitionedCall/StatefulPartitionedCall/predict/InceptionV3/InceptionV3/Mixed_7c/Branch_3/Conv2d_0b_1x1/Conv2D_weights", "shape": [1, 1, 2048, 192], "dtype": "float32"}, {"name": "StatefulPartitionedCall/sequential/keras_layer/StatefulPartitionedCall/StatefulPartitionedCall/StatefulPartitionedCall/predict/InceptionV3/InceptionV3/Mixed_6c/Branch_1/Conv2d_0c_7x1/Conv2D_weights", "shape": [7, 1, 160, 192], "dtype": "float32"}, {"name": "StatefulPartitionedCall/sequential/keras_layer/StatefulPartitionedCall/StatefulPartitionedCall/StatefulPartitionedCall/predict/InceptionV3/InceptionV3/Mixed_7b/Branch_0/Conv2d_0a_1x1/Conv2D_bn_offset", "shape": [320], "dtype": "float32"}, {"name": "StatefulPartitionedCall/sequential/keras_layer/StatefulPartitionedCall/StatefulPartitionedCall/StatefulPartitionedCall/predict/InceptionV3/InceptionV3/Mixed_6c/Branch_1/Conv2d_0c_7x1/Conv2D_bn_offset", "shape": [192], "dtype": "float32"}, {"name": "StatefulPartitionedCall/sequential/keras_layer/StatefulPartitionedCall/StatefulPartitionedCall/StatefulPartitionedCall/predict/InceptionV3/InceptionV3/Mixed_6c/Branch_2/Conv2d_0c_1x7/Conv2D_weights", "shape": [1, 7, 160, 160], "dtype": "float32"}, {"name": "StatefulPartitionedCall/sequential/keras_layer/StatefulPartitionedCall/StatefulPartitionedCall/StatefulPartitionedCall/predict/InceptionV3/InceptionV3/Mixed_6c/Branch_2/Conv2d_0c_1x7/Conv2D_bn_offset", "shape": [160], "dtype": "float32"}, {"name": "StatefulPartitionedCall/sequential/keras_layer/StatefulPartitionedCall/StatefulPartitionedCall/StatefulPartitionedCall/predict/InceptionV3/InceptionV3/Mixed_7b/Branch_1/Conv2d_0a_1x1/Conv2D_weights", "shape": [1, 1, 1280, 384], "dtype": "float32"}, {"name": "StatefulPartitionedCall/sequential/keras_layer/StatefulPartitionedCall/StatefulPartitionedCall/StatefulPartitionedCall/predict/InceptionV3/InceptionV3/Mixed_6c/Branch_2/Conv2d_0d_7x1/Conv2D_weights", "shape": [7, 1, 160, 160], "dtype": "float32"}, {"name": "StatefulPartitionedCall/sequential/keras_layer/StatefulPartitionedCall/StatefulPartitionedCall/StatefulPartitionedCall/predict/InceptionV3/InceptionV3/Mixed_7c/Branch_3/Conv2d_0b_1x1/Conv2D_bn_offset", "shape": [192], "dtype": "float32"}, {"name": "StatefulPartitionedCall/sequential/keras_layer/StatefulPartitionedCall/StatefulPartitionedCall/StatefulPartitionedCall/predict/InceptionV3/InceptionV3/Mixed_6c/Branch_2/Conv2d_0d_7x1/Conv2D_bn_offset", "shape": [160], "dtype": "float32"}, {"name": "StatefulPartitionedCall/sequential/keras_layer/StatefulPartitionedCall/StatefulPartitionedCall/StatefulPartitionedCall/predict/InceptionV3/InceptionV3/Mixed_7b/Branch_1/Conv2d_0a_1x1/Conv2D_bn_offset", "shape": [384], "dtype": "float32"}, {"name": "StatefulPartitionedCall/sequential/keras_layer/StatefulPartitionedCall/StatefulPartitionedCall/StatefulPartitionedCall/predict/InceptionV3/InceptionV3/Mixed_6c/Branch_2/Conv2d_0e_1x7/Conv2D_weights", "shape": [1, 7, 160, 192], "dtype": "float32"}, {"name": "StatefulPartitionedCall/sequential/keras_layer/StatefulPartitionedCall/StatefulPartitionedCall/StatefulPartitionedCall/predict/InceptionV3/InceptionV3/Mixed_7c/Branch_2/Conv2d_0d_3x1/Conv2D_weights", "shape": [3, 1, 384, 384], "dtype": "float32"}, {"name": "StatefulPartitionedCall/sequential/keras_layer/StatefulPartitionedCall/StatefulPartitionedCall/StatefulPartitionedCall/predict/InceptionV3/InceptionV3/Mixed_6c/Branch_2/Conv2d_0e_1x7/Conv2D_bn_offset", "shape": [192], "dtype": "float32"}, {"name": "StatefulPartitionedCall/sequential/keras_layer/StatefulPartitionedCall/StatefulPartitionedCall/StatefulPartitionedCall/predict/InceptionV3/InceptionV3/Mixed_6d/Branch_0/Conv2d_0a_1x1/Conv2D_weights", "shape": [1, 1, 768, 192], "dtype": "float32"}, {"name": "StatefulPartitionedCall/sequential/keras_layer/StatefulPartitionedCall/StatefulPartitionedCall/StatefulPartitionedCall/predict/InceptionV3/InceptionV3/Mixed_7b/Branch_2/Conv2d_0a_1x1/Conv2D_weights", "shape": [1, 1, 1280, 448], "dtype": "float32"}, {"name": "StatefulPartitionedCall/sequential/keras_layer/StatefulPartitionedCall/StatefulPartitionedCall/StatefulPartitionedCall/predict/InceptionV3/InceptionV3/Mixed_6d/Branch_0/Conv2d_0a_1x1/Conv2D_bn_offset", "shape": [192], "dtype": "float32"}, {"name": "StatefulPartitionedCall/sequential/keras_layer/StatefulPartitionedCall/StatefulPartitionedCall/StatefulPartitionedCall/predict/InceptionV3/InceptionV3/Mixed_6d/Branch_1/Conv2d_0a_1x1/Conv2D_weights", "shape": [1, 1, 768, 160], "dtype": "float32"}, {"name": "StatefulPartitionedCall/sequential/keras_layer/StatefulPartitionedCall/StatefulPartitionedCall/StatefulPartitionedCall/predict/InceptionV3/InceptionV3/Mixed_7b/Branch_2/Conv2d_0a_1x1/Conv2D_bn_offset", "shape": [448], "dtype": "float32"}, {"name": "StatefulPartitionedCall/sequential/keras_layer/StatefulPartitionedCall/StatefulPartitionedCall/StatefulPartitionedCall/predict/InceptionV3/InceptionV3/Mixed_6d/Branch_1/Conv2d_0a_1x1/Conv2D_bn_offset", "shape": [160], "dtype": "float32"}, {"name": "StatefulPartitionedCall/sequential/keras_layer/StatefulPartitionedCall/StatefulPartitionedCall/StatefulPartitionedCall/predict/InceptionV3/InceptionV3/Mixed_7c/Branch_1/Conv2d_0b_1x3/Conv2D_weights", "shape": [1, 3, 384, 384], "dtype": "float32"}, {"name": "StatefulPartitionedCall/sequential/keras_layer/StatefulPartitionedCall/StatefulPartitionedCall/StatefulPartitionedCall/predict/InceptionV3/InceptionV3/Mixed_6d/Branch_2/Conv2d_0a_1x1/Conv2D_weights", "shape": [1, 1, 768, 160], "dtype": "float32"}, {"name": "StatefulPartitionedCall/sequential/keras_layer/StatefulPartitionedCall/StatefulPartitionedCall/StatefulPartitionedCall/predict/InceptionV3/InceptionV3/Mixed_6d/Branch_2/Conv2d_0a_1x1/Conv2D_bn_offset", "shape": [160], "dtype": "float32"}, {"name": "StatefulPartitionedCall/sequential/keras_layer/StatefulPartitionedCall/StatefulPartitionedCall/StatefulPartitionedCall/predict/InceptionV3/InceptionV3/Mixed_7b/Branch_3/Conv2d_0b_1x1/Conv2D_weights", "shape": [1, 1, 1280, 192], "dtype": "float32"}, {"name": "StatefulPartitionedCall/sequential/keras_layer/StatefulPartitionedCall/StatefulPartitionedCall/StatefulPartitionedCall/predict/InceptionV3/InceptionV3/Mixed_6d/Branch_3/Conv2d_0b_1x1/Conv2D_weights", "shape": [1, 1, 768, 192], "dtype": "float32"}, {"name": "StatefulPartitionedCall/sequential/keras_layer/StatefulPartitionedCall/StatefulPartitionedCall/StatefulPartitionedCall/predict/InceptionV3/InceptionV3/Mixed_6d/Branch_3/Conv2d_0b_1x1/Conv2D_bn_offset", "shape": [192], "dtype": "float32"}, {"name": "StatefulPartitionedCall/sequential/keras_layer/StatefulPartitionedCall/StatefulPartitionedCall/StatefulPartitionedCall/predict/InceptionV3/InceptionV3/Mixed_7b/Branch_3/Conv2d_0b_1x1/Conv2D_bn_offset", "shape": [192], "dtype": "float32"}, {"name": "StatefulPartitionedCall/sequential/keras_layer/StatefulPartitionedCall/StatefulPartitionedCall/StatefulPartitionedCall/predict/InceptionV3/InceptionV3/Mixed_6d/Branch_1/Conv2d_0b_1x7/Conv2D_weights", "shape": [1, 7, 160, 160], "dtype": "float32"}, {"name": "StatefulPartitionedCall/sequential/keras_layer/StatefulPartitionedCall/StatefulPartitionedCall/StatefulPartitionedCall/predict/InceptionV3/InceptionV3/Mixed_7c/Branch_1/Conv2d_0b_1x3/Conv2D_bn_offset", "shape": [384], "dtype": "float32"}, {"name": "StatefulPartitionedCall/sequential/keras_layer/StatefulPartitionedCall/StatefulPartitionedCall/StatefulPartitionedCall/predict/InceptionV3/InceptionV3/Mixed_6d/Branch_1/Conv2d_0b_1x7/Conv2D_bn_offset", "shape": [160], "dtype": "float32"}, {"name": "StatefulPartitionedCall/sequential/keras_layer/StatefulPartitionedCall/StatefulPartitionedCall/StatefulPartitionedCall/predict/InceptionV3/InceptionV3/Mixed_6d/Branch_2/Conv2d_0b_7x1/Conv2D_weights", "shape": [7, 1, 160, 160], "dtype": "float32"}, {"name": "StatefulPartitionedCall/sequential/keras_layer/StatefulPartitionedCall/StatefulPartitionedCall/StatefulPartitionedCall/predict/InceptionV3/InceptionV3/Mixed_7b/Branch_1/Conv2d_0b_1x3/Conv2D_weights", "shape": [1, 3, 384, 384], "dtype": "float32"}, {"name": "StatefulPartitionedCall/sequential/keras_layer/StatefulPartitionedCall/StatefulPartitionedCall/StatefulPartitionedCall/predict/InceptionV3/InceptionV3/Mixed_6d/Branch_2/Conv2d_0b_7x1/Conv2D_bn_offset", "shape": [160], "dtype": "float32"}, {"name": "StatefulPartitionedCall/sequential/keras_layer/StatefulPartitionedCall/StatefulPartitionedCall/StatefulPartitionedCall/predict/InceptionV3/InceptionV3/Mixed_7c/Branch_2/Conv2d_0d_3x1/Conv2D_bn_offset", "shape": [384], "dtype": "float32"}, {"name": "StatefulPartitionedCall/sequential/keras_layer/StatefulPartitionedCall/StatefulPartitionedCall/StatefulPartitionedCall/predict/InceptionV3/InceptionV3/Mixed_6d/Branch_1/Conv2d_0c_7x1/Conv2D_weights", "shape": [7, 1, 160, 192], "dtype": "float32"}, {"name": "StatefulPartitionedCall/sequential/keras_layer/StatefulPartitionedCall/StatefulPartitionedCall/StatefulPartitionedCall/predict/InceptionV3/InceptionV3/Mixed_7b/Branch_1/Conv2d_0b_1x3/Conv2D_bn_offset", "shape": [384], "dtype": "float32"}, {"name": "StatefulPartitionedCall/sequential/keras_layer/StatefulPartitionedCall/StatefulPartitionedCall/StatefulPartitionedCall/predict/InceptionV3/InceptionV3/Mixed_6d/Branch_1/Conv2d_0c_7x1/Conv2D_bn_offset", "shape": [192], "dtype": "float32"}, {"name": "StatefulPartitionedCall/sequential/keras_layer/StatefulPartitionedCall/StatefulPartitionedCall/StatefulPartitionedCall/predict/InceptionV3/InceptionV3/Mixed_6d/Branch_2/Conv2d_0c_1x7/Conv2D_weights", "shape": [1, 7, 160, 160], "dtype": "float32"}, {"name": "StatefulPartitionedCall/sequential/keras_layer/StatefulPartitionedCall/StatefulPartitionedCall/StatefulPartitionedCall/predict/InceptionV3/InceptionV3/Mixed_6d/Branch_2/Conv2d_0c_1x7/Conv2D_bn_offset", "shape": [160], "dtype": "float32"}, {"name": "StatefulPartitionedCall/sequential/keras_layer/StatefulPartitionedCall/StatefulPartitionedCall/StatefulPartitionedCall/predict/InceptionV3/InceptionV3/Mixed_7b/Branch_1/Conv2d_0b_3x1/Conv2D_weights", "shape": [3, 1, 384, 384], "dtype": "float32"}, {"name": "StatefulPartitionedCall/sequential/keras_layer/StatefulPartitionedCall/StatefulPartitionedCall/StatefulPartitionedCall/predict/InceptionV3/InceptionV3/Mixed_6d/Branch_2/Conv2d_0d_7x1/Conv2D_weights", "shape": [7, 1, 160, 160], "dtype": "float32"}, {"name": "StatefulPartitionedCall/sequential/keras_layer/StatefulPartitionedCall/StatefulPartitionedCall/StatefulPartitionedCall/predict/InceptionV3/InceptionV3/Mixed_7c/Branch_1/Conv2d_0c_3x1/Conv2D_weights", "shape": [3, 1, 384, 384], "dtype": "float32"}, {"name": "StatefulPartitionedCall/sequential/keras_layer/StatefulPartitionedCall/StatefulPartitionedCall/StatefulPartitionedCall/predict/InceptionV3/InceptionV3/Mixed_6d/Branch_2/Conv2d_0d_7x1/Conv2D_bn_offset", "shape": [160], "dtype": "float32"}, {"name": "StatefulPartitionedCall/sequential/keras_layer/StatefulPartitionedCall/StatefulPartitionedCall/StatefulPartitionedCall/predict/InceptionV3/InceptionV3/Mixed_7b/Branch_1/Conv2d_0b_3x1/Conv2D_bn_offset", "shape": [384], "dtype": "float32"}, {"name": "StatefulPartitionedCall/sequential/keras_layer/StatefulPartitionedCall/StatefulPartitionedCall/StatefulPartitionedCall/predict/InceptionV3/InceptionV3/Mixed_6d/Branch_2/Conv2d_0e_1x7/Conv2D_weights", "shape": [1, 7, 160, 192], "dtype": "float32"}, {"name": "StatefulPartitionedCall/sequential/keras_layer/StatefulPartitionedCall/StatefulPartitionedCall/StatefulPartitionedCall/predict/hub_input/Mul/y", "shape": [], "dtype": "float32"}, {"name": "StatefulPartitionedCall/sequential/keras_layer/StatefulPartitionedCall/StatefulPartitionedCall/StatefulPartitionedCall/predict/hub_input/Sub/y", "shape": [], "dtype": "float32"}, {"name": "StatefulPartitionedCall/sequential/keras_layer/StatefulPartitionedCall/StatefulPartitionedCall/StatefulPartitionedCall/predict/InceptionV3/InceptionV3/Mixed_5b/concat/axis", "shape": [], "dtype": "int32"}, {"name": "StatefulPartitionedCall/sequential/keras_layer/StatefulPartitionedCall/StatefulPartitionedCall/StatefulPartitionedCall/predict/InceptionV3/InceptionV3/Mixed_5c/concat/axis", "shape": [], "dtype": "int32"}, {"name": "StatefulPartitionedCall/sequential/keras_layer/StatefulPartitionedCall/StatefulPartitionedCall/StatefulPartitionedCall/predict/InceptionV3/InceptionV3/Mixed_5d/concat/axis", "shape": [], "dtype": "int32"}, {"name": "StatefulPartitionedCall/sequential/keras_layer/StatefulPartitionedCall/StatefulPartitionedCall/StatefulPartitionedCall/predict/InceptionV3/InceptionV3/Mixed_6a/concat/axis", "shape": [], "dtype": "int32"}, {"name": "StatefulPartitionedCall/sequential/keras_layer/StatefulPartitionedCall/StatefulPartitionedCall/StatefulPartitionedCall/predict/InceptionV3/InceptionV3/Mixed_6b/concat/axis", "shape": [], "dtype": "int32"}, {"name": "StatefulPartitionedCall/sequential/keras_layer/StatefulPartitionedCall/StatefulPartitionedCall/StatefulPartitionedCall/predict/InceptionV3/InceptionV3/Mixed_6c/concat/axis", "shape": [], "dtype": "int32"}, {"name": "StatefulPartitionedCall/sequential/keras_layer/StatefulPartitionedCall/StatefulPartitionedCall/StatefulPartitionedCall/predict/InceptionV3/InceptionV3/Mixed_6d/concat/axis", "shape": [], "dtype": "int32"}, {"name": "StatefulPartitionedCall/sequential/keras_layer/StatefulPartitionedCall/StatefulPartitionedCall/StatefulPartitionedCall/predict/InceptionV3/InceptionV3/Mixed_6e/concat/axis", "shape": [], "dtype": "int32"}, {"name": "StatefulPartitionedCall/sequential/keras_layer/StatefulPartitionedCall/StatefulPartitionedCall/StatefulPartitionedCall/predict/InceptionV3/InceptionV3/Mixed_7a/concat/axis", "shape": [], "dtype": "int32"}, {"name": "StatefulPartitionedCall/sequential/keras_layer/StatefulPartitionedCall/StatefulPartitionedCall/StatefulPartitionedCall/predict/InceptionV3/InceptionV3/Mixed_7b/concat/axis", "shape": [], "dtype": "int32"}, {"name": "StatefulPartitionedCall/sequential/keras_layer/StatefulPartitionedCall/StatefulPartitionedCall/StatefulPartitionedCall/predict/InceptionV3/InceptionV3/Mixed_7c/concat/axis", "shape": [], "dtype": "int32"}, {"name": "StatefulPartitionedCall/sequential/keras_layer/StatefulPartitionedCall/StatefulPartitionedCall/StatefulPartitionedCall/predict/InceptionV3/Logits/GlobalPool/reduction_indices", "shape": [2], "dtype": "int32"}]}]}